{
  "created_at_local": "2026-05-07T22:27:38.169578+09:00",
  "attempt": "strict_rebuild_builtin",
  "model_path": "outputs/ava_pretrain_aadb_finetune_20260507/rgnet_ava_pretrain_aadb_finetune/final_model.keras",
  "reference_image": "data/raw/ava/images/85837.jpg",
  "output_tflite": "outputs/rgnet_tflite_retry_20260507/tflite/rgnet_ava_aadb_finetune_mixed_rebuild_builtin.tflite",
  "output_metadata": "outputs/rgnet_tflite_retry_20260507/tflite/rgnet_ava_aadb_finetune_mixed_rebuild_builtin.metadata.json",
  "image_size": 256,
  "requested_global_policy": "mixed_float16",
  "conversion_ok": false,
  "verification_passed": false,
  "original_policy_after_load": "<DTypePolicy \"mixed_float16\">",
  "rebuild_policy": "<DTypePolicy \"mixed_float16\">",
  "layer_coverage": {
    "original_layer_count": 16,
    "rebuild_layer_count": 16,
    "paired_layer_count": 16,
    "mismatch_count": 0,
    "mismatches": [],
    "coverage_ok": true
  },
  "weight_coverage_before_copy": {
    "original_weight_count": 373,
    "rebuild_weight_count": 373,
    "paired_weight_count": 373,
    "comparable_weight_count": 373,
    "shape_mismatch_count": 0,
    "shape_mismatches": [],
    "extra_original_weights": [],
    "extra_rebuild_weights": [],
    "max_pre_copy_abs_diff_for_matching_shapes": 1420.046630859375,
    "coverage_ok": true
  },
  "max_weight_abs_diff_after_copy": 0.0,
  "rebuild_vs_original": {
    "num_images": 21,
    "max_abs_diff": 0.0,
    "mean_abs_diff": 0.0,
    "passed": true,
    "rows": [
      {
        "image_path": "data/raw/ava/images/85837.jpg",
        "original_keras_score": 0.46628883481025696,
        "rebuild_keras_score": 0.46628883481025696,
        "abs_diff": 0.0
      },
      {
        "image_path": "/home/omen_pc1/photo_score_project/data/raw/aadb/images/farm1_316_20145499186_18fcea17fd_b.jpg",
        "original_keras_score": 0.7035704255104065,
        "rebuild_keras_score": 0.7035704255104065,
        "abs_diff": 0.0
      },
      {
        "image_path": "/home/omen_pc1/photo_score_project/data/raw/aadb/images/farm1_292_20177190071_ed73bfdf45_b.jpg",
        "original_keras_score": 0.34111645817756653,
        "rebuild_keras_score": 0.34111645817756653,
        "abs_diff": 0.0
      },
      {
        "image_path": "/home/omen_pc1/photo_score_project/data/raw/aadb/images/farm1_295_19542413113_995218a1dc_b.jpg",
        "original_keras_score": 0.21288278698921204,
        "rebuild_keras_score": 0.21288278698921204,
        "abs_diff": 0.0
      },
      {
        "image_path": "/home/omen_pc1/photo_score_project/data/raw/aadb/images/farm1_342_20268387925_8b3e3ed659_b.jpg",
        "original_keras_score": 0.19235116243362427,
        "rebuild_keras_score": 0.19235116243362427,
        "abs_diff": 0.0
      },
      {
        "image_path": "/home/omen_pc1/photo_score_project/data/raw/aadb/images/farm1_307_20167913586_46cdb89136_b.jpg",
        "original_keras_score": 0.36628642678260803,
        "rebuild_keras_score": 0.36628642678260803,
        "abs_diff": 0.0
      },
      {
        "image_path": "/home/omen_pc1/photo_score_project/data/raw/aadb/images/farm1_325_20140979326_04d47e3633_b.jpg",
        "original_keras_score": 0.18760333955287933,
        "rebuild_keras_score": 0.18760333955287933,
        "abs_diff": 0.0
      },
      {
        "image_path": "/home/omen_pc1/photo_score_project/data/raw/aadb/images/farm1_337_20180466022_6cfcf337ed_b.jpg",
        "original_keras_score": 0.33460965752601624,
        "rebuild_keras_score": 0.33460965752601624,
        "abs_diff": 0.0
      },
      {
        "image_path": "/home/omen_pc1/photo_score_project/data/raw/aadb/images/farm1_375_20318477612_6070ea9775_b.jpg",
        "original_keras_score": 0.3483254611492157,
        "rebuild_keras_score": 0.3483254611492157,
        "abs_diff": 0.0
      },
      {
        "image_path": "/home/omen_pc1/photo_score_project/data/raw/aadb/images/farm1_375_19992327020_c83fa1ee09_b.jpg",
        "original_keras_score": 0.7979395985603333,
        "rebuild_keras_score": 0.7979395985603333,
        "abs_diff": 0.0
      },
      {
        "image_path": "/home/omen_pc1/photo_score_project/data/raw/aadb/images/farm1_467_20115649945_789c038be8_b.jpg",
        "original_keras_score": 0.3808557689189911,
        "rebuild_keras_score": 0.3808557689189911,
        "abs_diff": 0.0
      },
      {
        "image_path": "/home/omen_pc1/photo_score_project/data/raw/aadb/images/farm1_401_20119453585_9ae520005a_b.jpg",
        "original_keras_score": 0.283860981464386,
        "rebuild_keras_score": 0.283860981464386,
        "abs_diff": 0.0
      },
      {
        "image_path": "/home/omen_pc1/photo_score_project/data/raw/aadb/images/farm1_325_20016613898_58c7fbdc1f_b.jpg",
        "original_keras_score": 0.2434222549200058,
        "rebuild_keras_score": 0.2434222549200058,
        "abs_diff": 0.0
      },
      {
        "image_path": "/home/omen_pc1/photo_score_project/data/raw/aadb/images/farm1_379_19665518553_5a0d7a2b25_b.jpg",
        "original_keras_score": 0.24230515956878662,
        "rebuild_keras_score": 0.24230515956878662,
        "abs_diff": 0.0
      },
      {
        "image_path": "/home/omen_pc1/photo_score_project/data/raw/aadb/images/farm4_3801_19559973383_26dd16ebc3_b.jpg",
        "original_keras_score": 0.5619721412658691,
        "rebuild_keras_score": 0.5619721412658691,
        "abs_diff": 0.0
      },
      {
        "image_path": "/home/omen_pc1/photo_score_project/data/raw/aadb/images/farm1_331_20171741416_266a97673d_b.jpg",
        "original_keras_score": 0.33508092164993286,
        "rebuild_keras_score": 0.33508092164993286,
        "abs_diff": 0.0
      },
      {
        "image_path": "/home/omen_pc1/photo_score_project/data/raw/aadb/images/farm1_318_20077285545_a085e14492_b.jpg",
        "original_keras_score": 0.26843613386154175,
        "rebuild_keras_score": 0.26843613386154175,
        "abs_diff": 0.0
      },
      {
        "image_path": "/home/omen_pc1/photo_score_project/data/raw/aadb/images/farm1_347_19483246264_8ce8e98300_b.jpg",
        "original_keras_score": 0.24838876724243164,
        "rebuild_keras_score": 0.24838876724243164,
        "abs_diff": 0.0
      },
      {
        "image_path": "/home/omen_pc1/photo_score_project/data/raw/aadb/images/farm1_460_19988549819_6b9ab33ecd_b.jpg",
        "original_keras_score": 0.27050065994262695,
        "rebuild_keras_score": 0.27050065994262695,
        "abs_diff": 0.0
      },
      {
        "image_path": "/home/omen_pc1/photo_score_project/data/raw/aadb/images/farm1_271_20063205446_7f017d0198_b.jpg",
        "original_keras_score": 0.6408159732818604,
        "rebuild_keras_score": 0.6408159732818604,
        "abs_diff": 0.0
      },
      {
        "image_path": "/home/omen_pc1/photo_score_project/data/raw/aadb/images/farm1_421_19463089073_aee5044e4f_b.jpg",
        "original_keras_score": 0.17940984666347504,
        "rebuild_keras_score": 0.17940984666347504,
        "abs_diff": 0.0
      }
    ]
  },
  "error_type": "ConverterError",
  "error": "Could not translate MLIR to FlatBuffer.<unknown>:0: error: loc(callsite(fused[\"Mul:\", \"rgnet_practical_1/efficientnetv2-b0_1/rescaling_1/mul@__inference_function_123465\"] at callsite(fused[\"StatefulPartitionedCall:\", \"StatefulPartitionedCall@__inference_signature_wrapper_124976\"] at fused[\"StatefulPartitionedCall:\", \"StatefulPartitionedCall_1\"]))): 'tf.Mul' op is neither a custom op nor a flex op\n<unknown>:0: note: loc(callsite(fused[\"StatefulPartitionedCall:\", \"StatefulPartitionedCall@__inference_signature_wrapper_124976\"] at fused[\"StatefulPartitionedCall:\", \"StatefulPartitionedCall_1\"])): called from\n<unknown>:0: note: loc(fused[\"StatefulPartitionedCall:\", \"StatefulPartitionedCall_1\"]): called from\n<unknown>:0: note: loc(callsite(fused[\"Mul:\", \"rgnet_practical_1/efficientnetv2-b0_1/rescaling_1/mul@__inference_function_123465\"] at callsite(fused[\"StatefulPartitionedCall:\", \"StatefulPartitionedCall@__inference_signature_wrapper_124976\"] at fused[\"StatefulPartitionedCall:\", \"StatefulPartitionedCall_1\"]))): see current operation: %277 = \"tf.Mul\"(%276, %260) {device = \"\"} : (tensor<?x256x256x3xf16>, tensor<f16>) -> tensor<?x256x256x3xf16>\n<unknown>:0: note: loc(callsite(fused[\"Mul:\", \"rgnet_practical_1/efficientnetv2-b0_1/rescaling_1/mul@__inference_function_123465\"] at callsite(fused[\"StatefulPartitionedCall:\", \"StatefulPartitionedCall@__inference_signature_wrapper_124976\"] at fused[\"StatefulPartitionedCall:\", \"StatefulPartitionedCall_1\"]))): Error code: ERROR_NEEDS_FLEX_OPS\n<unknown>:0: error: loc(callsite(fused[\"Sub:\", \"rgnet_practical_1/efficientnetv2-b0_1/normalization_1/Sub@__inference_function_123465\"] at callsite(fused[\"StatefulPartitionedCall:\", \"StatefulPartitionedCall@__inference_signature_wrapper_124976\"] at fused[\"StatefulPartitionedCall:\", \"StatefulPartitionedCall_1\"]))): 'tf.Sub' op is neither a custom op nor a flex op\n<unknown>:0: note: loc(callsite(fused[\"StatefulPartitionedCall:\", \"StatefulPartitionedCall@__inference_signature_wrapper_124976\"] at fused[\"StatefulPartitionedCall:\", \"StatefulPartitionedCall_1\"])): called from\n<unknown>:0: note: loc(fused[\"StatefulPartitionedCall:\", \"StatefulPartitionedCall_1\"]): called from\n<unknown>:0: note: loc(callsite(fused[\"Sub:\", \"rgnet_practical_1/efficientnetv2-b0_1/normalization_1/Sub@__inference_function_123465\"] at callsite(fused[\"StatefulPartitionedCall:\", \"StatefulPartitionedCall@__inference_signature_wrapper_124976\"] at fused[\"StatefulPartitionedCall:\", \"StatefulPartitionedCall_1\"]))): see current operation: %278 = \"tf.Sub\"(%277, %5) {device = \"\"} : (tensor<?x256x256x3xf16>, tensor<1x1x1x3xf16>) -> tensor<?x256x256x3xf16>\n<unknown>:0: note: loc(callsite(fused[\"Sub:\", \"rgnet_practical_1/efficientnetv2-b0_1/normalization_1/Sub@__inference_function_123465\"] at callsite(fused[\"StatefulPartitionedCall:\", \"StatefulPartitionedCall@__inference_signature_wrapper_124976\"] at fused[\"StatefulPartitionedCall:\", \"StatefulPartitionedCall_1\"]))): Error code: ERROR_NEEDS_FLEX_OPS\n<unknown>:0: error: loc(callsite(fused[\"RealDiv:\", \"rgnet_practical_1/efficientnetv2-b0_1/normalization_1/truediv@__inference_function_123465\"] at callsite(fused[\"StatefulPartitionedCall:\", \"StatefulPartitionedCall@__inference_signature_wrapper_124976\"] at fused[\"StatefulPartitionedCall:\", \"StatefulPartitionedCall_1\"]))): 'tf.RealDiv' op is neither a custom op nor a flex op\n<unknown>:0: note: loc(callsite(fused[\"StatefulPartitionedCall:\", \"StatefulPartitionedCall@__inference_signature_wrapper_124976\"] at fused[\"StatefulPartitionedCall:\", \"StatefulPartitionedCall_1\"])): called from\n<unknown>:0: note: loc(fused[\"StatefulPartitionedCall:\", \"StatefulPartitionedCall_1\"]): called from\n<unknown>:0: note: loc(callsite(fused[\"RealDiv:\", \"rgnet_practical_1/efficientnetv2-b0_1/normalization_1/truediv@__inference_function_123465\"] at callsite(fused[\"StatefulPartitionedCall:\", \"StatefulPartitionedCall@__inference_signature_wrapper_124976\"] at fused[\"StatefulPartitionedCall:\", \"StatefulPartitionedCall_1\"]))): see current operation: %279 = \"tf.RealDiv\"(%278, %4) {device = \"\"} : (tensor<?x256x256x3xf16>, tensor<1x1x1x3xf16>) -> tensor<?x256x256x3xf16>\n<unknown>:0: note: loc(callsite(fused[\"RealDiv:\", \"rgnet_practical_1/efficientnetv2-b0_1/normalization_1/truediv@__inference_function_123465\"] at callsite(fused[\"StatefulPartitionedCall:\", \"StatefulPartitionedCall@__inference_signature_wrapper_124976\"] at fused[\"StatefulPartitionedCall:\", \"StatefulPartitionedCall_1\"]))): Error code: ERROR_NEEDS_FLEX_OPS\n<unknown>:0: error: loc(callsite(fused[\"Conv2D:\", \"rgnet_practical_1/efficientnetv2-b0_1/stem_conv_1/convolution@__inference_function_123465\"] at callsite(fused[\"StatefulPartitionedCall:\", \"StatefulPartitionedCall@__inference_signature_wrapper_124976\"] at fused[\"StatefulPartitionedCall:\", \"StatefulPartitionedCall_1\"]))): 'tf.Conv2D' op is neither a custom op nor a flex op\n<unknown>:0: note: loc(callsite(fused[\"StatefulPartitionedCall:\", \"StatefulPartitionedCall@__inference_signature_wrapper_124976\"] at fused[\"StatefulPartitionedCall:\", \"StatefulPartitionedCall_1\"])): called from\n<unknown>:0: note: loc(fused[\"StatefulPartitionedCall:\", \"StatefulPartitionedCall_1\"]): called from\n<unknown>:0: note: loc(callsite(fused[\"Conv2D:\", \"rgnet_practical_1/efficientnetv2-b0_1/stem_conv_1/convolution@__inference_function_123465\"] at callsite(fused[\"StatefulPartitionedCall:\", \"StatefulPartitionedCall@__inference_signature_wrapper_124976\"] at fused[\"StatefulPartitionedCall:\", \"StatefulPartitionedCall_1\"]))): see current operation: %280 = \"tf.Conv2D\"(%279, %20) <{data_format = \"NHWC\", dilations = [1, 1, 1, 1], explicit_paddings = [], padding = \"SAME\", strides = [1, 2, 2, 1], use_cudnn_on_gpu = true}> {device = \"\"} : (tensor<?x256x256x3xf16>, tensor<3x3x3x32xf16>) -> tensor<?x128x128x32xf16>\n<unknown>:0: note: loc(callsite(fused[\"Conv2D:\", \"rgnet_practical_1/efficientnetv2-b0_1/stem_conv_1/convolution@__inference_function_123465\"] at callsite(fused[\"StatefulPartitionedCall:\", \"StatefulPartitionedCall@__inference_signature_wrapper_124976\"] at fused[\"StatefulPartitionedCall:\", \"StatefulPartitionedCall_1\"]))): Error code: ERROR_NEEDS_FLEX_OPS\n<unknown>:0: error: loc(callsite(fused[\"Sigmoid:\", \"rgnet_practical_1/efficientnetv2-b0_1/stem_activation_1/Sigmoid@__inference_function_123465\"] at callsite(fused[\"StatefulPartitionedCall:\", \"StatefulPartitionedCall@__inference_signature_wrapper_124976\"] at fused[\"StatefulPartitionedCall:\", \"StatefulPartitionedCall_1\"]))): 'tf.Sigmoid' op is neither a custom op nor a flex op\n<unknown>:0: note: loc(callsite(fused[\"StatefulPartitionedCall:\", \"StatefulPartitionedCall@__inference_signature_wrapper_124976\"] at fused[\"StatefulPartitionedCall:\", \"StatefulPartitionedCall_1\"])): called from\n<unknown>:0: note: loc(fused[\"StatefulPartitionedCall:\", \"StatefulPartitionedCall_1\"]): called from\n<unknown>:0: note: loc(callsite(fused[\"Sigmoid:\", \"rgnet_practical_1/efficientnetv2-b0_1/stem_activation_1/Sigmoid@__inference_function_123465\"] at callsite(fused[\"StatefulPartitionedCall:\", \"StatefulPartitionedCall@__inference_signature_wrapper_124976\"] at fused[\"StatefulPartitionedCall:\", \"StatefulPartitionedCall_1\"]))): see current operation: %285 = \"tf.Sigmoid\"(%284) {device = \"\"} : (tensor<?x128x128x32xf16>) -> tensor<?x128x128x32xf16>\n<unknown>:0: note: loc(callsite(fused[\"Sigmoid:\", \"rgnet_practical_1/efficientnetv2-b0_1/stem_activation_1/Sigmoid@__inference_function_123465\"] at callsite(fused[\"StatefulPartitionedCall:\", \"StatefulPartitionedCall@__inference_signature_wrapper_124976\"] at fused[\"StatefulPartitionedCall:\", \"StatefulPartitionedCall_1\"]))): Error code: ERROR_NEEDS_FLEX_OPS\n<unknown>:0: error: loc(callsite(fused[\"Mul:\", \"rgnet_practical_1/efficientnetv2-b0_1/stem_activation_1/mul_1@__inference_function_123465\"] at callsite(fused[\"StatefulPartitionedCall:\", \"StatefulPartitionedCall@__inference_signature_wrapper_124976\"] at fused[\"StatefulPartitionedCall:\", \"StatefulPartitionedCall_1\"]))): 'tf.Mul' op is neither a custom op nor a flex op\n<unknown>:0: note: loc(callsite(fused[\"StatefulPartitionedCall:\", \"StatefulPartitionedCall@__inference_signature_wrapper_124976\"] at fused[\"StatefulPartitionedCall:\", \"StatefulPartitionedCall_1\"])): called from\n<unknown>:0: note: loc(fused[\"StatefulPartitionedCall:\", \"StatefulPartitionedCall_1\"]): called from\n<unknown>:0: note: loc(callsite(fused[\"Mul:\", \"rgnet_practical_1/efficientnetv2-b0_1/stem_activation_1/mul_1@__inference_function_123465\"] at callsite(fused[\"StatefulPartitionedCall:\", \"StatefulPartitionedCall@__inference_signature_wrapper_124976\"] at fused[\"StatefulPartitionedCall:\", \"StatefulPartitionedCall_1\"]))): see current operation: %286 = \"tf.Mul\"(%284, %285) {device = \"\"} : (tensor<?x128x128x32xf16>, tensor<?x128x128x32xf16>) -> tensor<?x128x128x32xf16>\n<unknown>:0: note: loc(callsite(fused[\"Mul:\", \"rgnet_practical_1/efficientnetv2-b0_1/stem_activation_1/mul_1@__inference_function_123465\"] at callsite(fused[\"StatefulPartitionedCall:\", \"StatefulPartitionedCall@__inference_signature_wrapper_124976\"] at fused[\"StatefulPartitionedCall:\", \"StatefulPartitionedCall_1\"]))): Error code: ERROR_NEEDS_FLEX_OPS\n<unknown>:0: error: loc(callsite(fused[\"Conv2D:\", \"rgnet_practical_1/efficientnetv2-b0_1/block1a_project_conv_1/convolution@__inference_function_123465\"] at callsite(fused[\"StatefulPartitionedCall:\", \"StatefulPartitionedCall@__inference_signature_wrapper_124976\"] at fused[\"StatefulPartitionedCall:\", \"StatefulPartitionedCall_1\"]))): 'tf.Conv2D' op is neither a custom op nor a flex op\n<unknown>:0: note: loc(callsite(fused[\"StatefulPartitionedCall:\", \"StatefulPartitionedCall@__inference_signature_wrapper_124976\"] at fused[\"StatefulPartitionedCall:\", \"StatefulPartitionedCall_1\"])): called from\n<unknown>:0: note: loc(fused[\"StatefulPartitionedCall:\", \"StatefulPartitionedCall_1\"]): called from\n<unknown>:0: note: loc(callsite(fused[\"Conv2D:\", \"rgnet_practical_1/efficientnetv2-b0_1/block1a_project_conv_1/convolution@__inference_function_123465\"] at callsite(fused[\"StatefulPartitionedCall:\", \"StatefulPartitionedCall@__inference_signature_wrapper_124976\"] at fused[\"StatefulPartitionedCall:\", \"StatefulPartitionedCall_1\"]))): see current operation: %287 = \"tf.Conv2D\"(%286, %255) <{data_format = \"NHWC\", dilations = [1, 1, 1, 1], explicit_paddings = [], padding = \"SAME\", strides = [1, 1, 1, 1], use_cudnn_on_gpu = true}> {device = \"\"} : (tensor<?x128x128x32xf16>, tensor<3x3x32x16xf16>) -> tensor<?x128x128x16xf16>\n<unknown>:0: note: loc(callsite(fused[\"Conv2D:\", \"rgnet_practical_1/efficientnetv2-b0_1/block1a_project_conv_1/convolution@__inference_function_123465\"] at callsite(fused[\"StatefulPartitionedCall:\", \"StatefulPartitionedCall@__inference_signature_wrapper_124976\"] at fused[\"StatefulPartitionedCall:\", \"StatefulPartitionedCall_1\"]))): Error code: ERROR_NEEDS_FLEX_OPS\n<unknown>:0: error: loc(callsite(fused[\"Sigmoid:\", \"rgnet_practical_1/efficientnetv2-b0_1/block1a_project_activation_1/Sigmoid@__inference_function_123465\"] at callsite(fused[\"StatefulPartitionedCall:\", \"StatefulPartitionedCall@__inference_signature_wrapper_124976\"] at fused[\"StatefulPartitionedCall:\", \"StatefulPartitionedCall_1\"]))): 'tf.Sigmoid' op is neither a custom op nor a flex op\n<unknown>:0: note: loc(callsite(fused[\"StatefulPartitionedCall:\", \"StatefulPartitionedCall@__inference_signature_wrapper_124976\"] at fused[\"StatefulPartitionedCall:\", \"StatefulPartitionedCall_1\"])): called from\n<unknown>:0: note: loc(fused[\"StatefulPartitionedCall:\", \"StatefulPartitionedCall_1\"]): called from\n<unknown>:0: note: loc(callsite(fused[\"Sigmoid:\", \"rgnet_practical_1/efficientnetv2-b0_1/block1a_project_activation_1/Sigmoid@__inference_function_123465\"] at callsite(fused[\"StatefulPartitionedCall:\", \"StatefulPartitionedCall@__inference_signature_wrapper_124976\"] at fused[\"StatefulPartitionedCall:\", \"StatefulPartitionedCall_1\"]))): see current operation: %292 = \"tf.Sigmoid\"(%291) {device = \"\"} : (tensor<?x128x128x16xf16>) -> tensor<?x128x128x16xf16>\n<unknown>:0: note: loc(callsite(fused[\"Sigmoid:\", \"rgnet_practical_1/efficientnetv2-b0_1/block1a_project_activation_1/Sigmoid@__inference_function_123465\"] at callsite(fused[\"StatefulPartitionedCall:\", \"StatefulPartitionedCall@__inference_signature_wrapper_124976\"] at fused[\"StatefulPartitionedCall:\", \"StatefulPartitionedCall_1\"]))): Error code: ERROR_NEEDS_FLEX_OPS\n<unknown>:0: error: loc(callsite(fused[\"Mul:\", \"rgnet_practical_1/efficientnetv2-b0_1/block1a_project_activation_1/mul_1@__inference_function_123465\"] at callsite(fused[\"StatefulPartitionedCall:\", \"StatefulPartitionedCall@__inference_signature_wrapper_124976\"] at fused[\"StatefulPartitionedCall:\", \"StatefulPartitionedCall_1\"]))): 'tf.Mul' op is neither a custom op nor a flex op\n<unknown>:0: note: loc(callsite(fused[\"StatefulPartitionedCall:\", \"StatefulPartitionedCall@__inference_signature_wrapper_124976\"] at fused[\"StatefulPartitionedCall:\", \"StatefulPartitionedCall_1\"])): called from\n<unknown>:0: note: loc(fused[\"StatefulPartitionedCall:\", \"StatefulPartitionedCall_1\"]): called from\n<unknown>:0: note: loc(callsite(fused[\"Mul:\", \"rgnet_practical_1/efficientnetv2-b0_1/block1a_project_activation_1/mul_1@__inference_function_123465\"] at callsite(fused[\"StatefulPartitionedCall:\", \"StatefulPartitionedCall@__inference_signature_wrapper_124976\"] at fused[\"StatefulPartitionedCall:\", \"StatefulPartitionedCall_1\"]))): see current operation: %293 = \"tf.Mul\"(%291, %292) {device = \"\"} : (tensor<?x128x128x16xf16>, tensor<?x128x128x16xf16>) -> tensor<?x128x128x16xf16>\n<unknown>:0: note: loc(callsite(fused[\"Mul:\", \"rgnet_practical_1/efficientnetv2-b0_1/block1a_project_activation_1/mul_1@__inference_function_123465\"] at callsite(fused[\"StatefulPartitionedCall:\", \"StatefulPartitionedCall@__inference_signature_wrapper_124976\"] at fused[\"StatefulPartitionedCall:\", \"StatefulPartitionedCall_1\"]))): Error code: ERROR_NEEDS_FLEX_OPS\n<unknown>:0: error: loc(callsite(fused[\"Conv2D:\", \"rgnet_practical_1/efficientnetv2-b0_1/block2a_expand_conv_1/convolution@__inference_function_123465\"] at callsite(fused[\"StatefulPartitionedCall:\", \"StatefulPartitionedCall@__inference_signature_wrapper_124976\"] at fused[\"StatefulPartitionedCall:\", \"StatefulPartitionedCall_1\"]))): 'tf.Conv2D' op is neither a custom op nor a flex op\n<unknown>:0: note: loc(callsite(fused[\"StatefulPartitionedCall:\", \"StatefulPartitionedCall@__inference_signature_wrapper_124976\"] at fused[\"StatefulPartitionedCall:\", \"StatefulPartitionedCall_1\"])): called from\n<unknown>:0: note: loc(fused[\"StatefulPartitionedCall:\", \"StatefulPartitionedCall_1\"]): called from\n<unknown>:0: note: loc(callsite(fused[\"Conv2D:\", \"rgnet_practical_1/efficientnetv2-b0_1/block2a_expand_conv_1/convolution@__inference_function_123465\"] at callsite(fused[\"StatefulPartitionedCall:\", \"StatefulPartitionedCall@__inference_signature_wrapper_124976\"] at fused[\"StatefulPartitionedCall:\", \"StatefulPartitionedCall_1\"]))): see current operation: %294 = \"tf.Conv2D\"(%293, %252) <{data_format = \"NHWC\", dilations = [1, 1, 1, 1], explicit_paddings = [], padding = \"SAME\", strides = [1, 2, 2, 1], use_cudnn_on_gpu = true}> {device = \"\"} : (tensor<?x128x128x16xf16>, tensor<3x3x16x64xf16>) -> tensor<?x64x64x64xf16>\n<unknown>:0: note: loc(callsite(fused[\"Conv2D:\", \"rgnet_practical_1/efficientnetv2-b0_1/block2a_expand_conv_1/convolution@__inference_function_123465\"] at callsite(fused[\"StatefulPartitionedCall:\", \"StatefulPartitionedCall@__inference_signature_wrapper_124976\"] at fused[\"StatefulPartitionedCall:\", \"StatefulPartitionedCall_1\"]))): Error code: ERROR_NEEDS_FLEX_OPS\n<unknown>:0: error: loc(callsite(fused[\"Sigmoid:\", \"rgnet_practical_1/efficientnetv2-b0_1/block2a_expand_activation_1/Sigmoid@__inference_function_123465\"] at callsite(fused[\"StatefulPartitionedCall:\", \"StatefulPartitionedCall@__inference_signature_wrapper_124976\"] at fused[\"StatefulPartitionedCall:\", \"StatefulPartitionedCall_1\"]))): 'tf.Sigmoid' op is neither a custom op nor a flex op\n<unknown>:0: note: loc(callsite(fused[\"StatefulPartitionedCall:\", \"StatefulPartitionedCall@__inference_signature_wrapper_124976\"] at fused[\"StatefulPartitionedCall:\", \"StatefulPartitionedCall_1\"])): called from\n<unknown>:0: note: loc(fused[\"StatefulPartitionedCall:\", \"StatefulPartitionedCall_1\"]): called from\n<unknown>:0: note: loc(callsite(fused[\"Sigmoid:\", \"rgnet_practical_1/efficientnetv2-b0_1/block2a_expand_activation_1/Sigmoid@__inference_function_123465\"] at callsite(fused[\"StatefulPartitionedCall:\", \"StatefulPartitionedCall@__inference_signature_wrapper_124976\"] at fused[\"StatefulPartitionedCall:\", \"StatefulPartitionedCall_1\"]))): see current operation: %299 = \"tf.Sigmoid\"(%298) {device = \"\"} : (tensor<?x64x64x64xf16>) -> tensor<?x64x64x64xf16>\n<unknown>:0: note: loc(callsite(fused[\"Sigmoid:\", \"rgnet_practical_1/efficientnetv2-b0_1/block2a_expand_activation_1/Sigmoid@__inference_function_123465\"] at callsite(fused[\"StatefulPartitionedCall:\", \"StatefulPartitionedCall@__inference_signature_wrapper_124976\"] at fused[\"StatefulPartitionedCall:\", \"StatefulPartitionedCall_1\"]))): Error code: ERROR_NEEDS_FLEX_OPS\n<unknown>:0: error: loc(callsite(fused[\"Mul:\", \"rgnet_practical_1/efficientnetv2-b0_1/block2a_expand_activation_1/mul_1@__inference_function_123465\"] at callsite(fused[\"StatefulPartitionedCall:\", \"StatefulPartitionedCall@__inference_signature_wrapper_124976\"] at fused[\"StatefulPartitionedCall:\", \"StatefulPartitionedCall_1\"]))): 'tf.Mul' op is neither a custom op nor a flex op\n<unknown>:0: note: loc(callsite(fused[\"StatefulPartitionedCall:\", \"StatefulPartitionedCall@__inference_signature_wrapper_124976\"] at fused[\"StatefulPartitionedCall:\", \"StatefulPartitionedCall_1\"])): called from\n<unknown>:0: note: loc(fused[\"StatefulPartitionedCall:\", \"StatefulPartitionedCall_1\"]): called from\n<unknown>:0: note: loc(callsite(fused[\"Mul:\", \"rgnet_practical_1/efficientnetv2-b0_1/block2a_expand_activation_1/mul_1@__inference_function_123465\"] at callsite(fused[\"StatefulPartitionedCall:\", \"StatefulPartitionedCall@__inference_signature_wrapper_124976\"] at fused[\"StatefulPartitionedCall:\", \"StatefulPartitionedCall_1\"]))): see current operation: %300 = \"tf.Mul\"(%298, %299) {device = \"\"} : (tensor<?x64x64x64xf16>, tensor<?x64x64x64xf16>) -> tensor<?x64x64x64xf16>\n<unknown>:0: note: loc(callsite(fused[\"Mul:\", \"rgnet_practical_1/efficientnetv2-b0_1/block2a_expand_activation_1/mul_1@__inference_function_123465\"] at callsite(fused[\"StatefulPartitionedCall:\", \"StatefulPartitionedCall@__inference_signature_wrapper_124976\"] at fused[\"StatefulPartitionedCall:\", \"StatefulPartitionedCall_1\"]))): Error code: ERROR_NEEDS_FLEX_OPS\n<unknown>:0: error: loc(callsite(fused[\"Conv2D:\", \"rgnet_practical_1/efficientnetv2-b0_1/block2a_project_conv_1/convolution@__inference_function_123465\"] at callsite(fused[\"StatefulPartitionedCall:\", \"StatefulPartitionedCall@__inference_signature_wrapper_124976\"] at fused[\"StatefulPartitionedCall:\", \"StatefulPartitionedCall_1\"]))): 'tf.Conv2D' op is neither a custom op nor a flex op\n<unknown>:0: note: loc(callsite(fused[\"StatefulPartitionedCall:\", \"StatefulPartitionedCall@__inference_signature_wrapper_124976\"] at fused[\"StatefulPartitionedCall:\", \"StatefulPartitionedCall_1\"])): called from\n<unknown>:0: note: loc(fused[\"StatefulPartitionedCall:\", \"StatefulPartitionedCall_1\"]): called from\n<unknown>:0: note: loc(callsite(fused[\"Conv2D:\", \"rgnet_practical_1/efficientnetv2-b0_1/block2a_project_conv_1/convolution@__inference_function_123465\"] at callsite(fused[\"StatefulPartitionedCall:\", \"StatefulPartitionedCall@__inference_signature_wrapper_124976\"] at fused[\"StatefulPartitionedCall:\", \"StatefulPartitionedCall_1\"]))): see current operation: %301 = \"tf.Conv2D\"(%300, %249) <{data_format = \"NHWC\", dilations = [1, 1, 1, 1], explicit_paddings = [], padding = \"SAME\", strides = [1, 1, 1, 1], use_cudnn_on_gpu = true}> {device = \"\"} : (tensor<?x64x64x64xf16>, tensor<1x1x64x32xf16>) -> tensor<?x64x64x32xf16>\n<unknown>:0: note: loc(callsite(fused[\"Conv2D:\", \"rgnet_practical_1/efficientnetv2-b0_1/block2a_project_conv_1/convolution@__inference_function_123465\"] at callsite(fused[\"StatefulPartitionedCall:\", \"StatefulPartitionedCall@__inference_signature_wrapper_124976\"] at fused[\"StatefulPartitionedCall:\", \"StatefulPartitionedCall_1\"]))): Error code: ERROR_NEEDS_FLEX_OPS\n<unknown>:0: error: loc(callsite(fused[\"Conv2D:\", \"rgnet_practical_1/efficientnetv2-b0_1/block2b_expand_conv_1/convolution@__inference_function_123465\"] at callsite(fused[\"StatefulPartitionedCall:\", \"StatefulPartitionedCall@__inference_signature_wrapper_124976\"] at fused[\"StatefulPartitionedCall:\", \"StatefulPartitionedCall_1\"]))): 'tf.Conv2D' op is neither a custom op nor a flex op\n<unknown>:0: note: loc(callsite(fused[\"StatefulPartitionedCall:\", \"StatefulPartitionedCall@__inference_signature_wrapper_124976\"] at fused[\"StatefulPartitionedCall:\", \"StatefulPartitionedCall_1\"])): called from\n<unknown>:0: note: loc(fused[\"StatefulPartitionedCall:\", \"StatefulPartitionedCall_1\"]): called from\n<unknown>:0: note: loc(callsite(fused[\"Conv2D:\", \"rgnet_practical_1/efficientnetv2-b0_1/block2b_expand_conv_1/convolution@__inference_function_123465\"] at callsite(fused[\"StatefulPartitionedCall:\", \"StatefulPartitionedCall@__inference_signature_wrapper_124976\"] at fused[\"StatefulPartitionedCall:\", \"StatefulPartitionedCall_1\"]))): see current operation: %306 = \"tf.Conv2D\"(%305, %246) <{data_format = \"NHWC\", dilations = [1, 1, 1, 1], explicit_paddings = [], padding = \"SAME\", strides = [1, 1, 1, 1], use_cudnn_on_gpu = true}> {device = \"\"} : (tensor<?x64x64x32xf16>, tensor<3x3x32x128xf16>) -> tensor<?x64x64x128xf16>\n<unknown>:0: note: loc(callsite(fused[\"Conv2D:\", \"rgnet_practical_1/efficientnetv2-b0_1/block2b_expand_conv_1/convolution@__inference_function_123465\"] at callsite(fused[\"StatefulPartitionedCall:\", \"StatefulPartitionedCall@__inference_signature_wrapper_124976\"] at fused[\"StatefulPartitionedCall:\", \"StatefulPartitionedCall_1\"]))): Error code: ERROR_NEEDS_FLEX_OPS\n<unknown>:0: error: loc(callsite(fused[\"Sigmoid:\", \"rgnet_practical_1/efficientnetv2-b0_1/block2b_expand_activation_1/Sigmoid@__inference_function_123465\"] at callsite(fused[\"StatefulPartitionedCall:\", \"StatefulPartitionedCall@__inference_signature_wrapper_124976\"] at fused[\"StatefulPartitionedCall:\", \"StatefulPartitionedCall_1\"]))): 'tf.Sigmoid' op is neither a custom op nor a flex op\n<unknown>:0: note: loc(callsite(fused[\"StatefulPartitionedCall:\", \"StatefulPartitionedCall@__inference_signature_wrapper_124976\"] at fused[\"StatefulPartitionedCall:\", \"StatefulPartitionedCall_1\"])): called from\n<unknown>:0: note: loc(fused[\"StatefulPartitionedCall:\", \"StatefulPartitionedCall_1\"]): called from\n<unknown>:0: note: loc(callsite(fused[\"Sigmoid:\", \"rgnet_practical_1/efficientnetv2-b0_1/block2b_expand_activation_1/Sigmoid@__inference_function_123465\"] at callsite(fused[\"StatefulPartitionedCall:\", \"StatefulPartitionedCall@__inference_signature_wrapper_124976\"] at fused[\"StatefulPartitionedCall:\", \"StatefulPartitionedCall_1\"]))): see current operation: %311 = \"tf.Sigmoid\"(%310) {device = \"\"} : (tensor<?x64x64x128xf16>) -> tensor<?x64x64x128xf16>\n<unknown>:0: note: loc(callsite(fused[\"Sigmoid:\", \"rgnet_practical_1/efficientnetv2-b0_1/block2b_expand_activation_1/Sigmoid@__inference_function_123465\"] at callsite(fused[\"StatefulPartitionedCall:\", \"StatefulPartitionedCall@__inference_signature_wrapper_124976\"] at fused[\"StatefulPartitionedCall:\", \"StatefulPartitionedCall_1\"]))): Error code: ERROR_NEEDS_FLEX_OPS\n<unknown>:0: error: loc(callsite(fused[\"Mul:\", \"rgnet_practical_1/efficientnetv2-b0_1/block2b_expand_activation_1/mul_1@__inference_function_123465\"] at callsite(fused[\"StatefulPartitionedCall:\", \"StatefulPartitionedCall@__inference_signature_wrapper_124976\"] at fused[\"StatefulPartitionedCall:\", \"StatefulPartitionedCall_1\"]))): 'tf.Mul' op is neither a custom op nor a flex op\n<unknown>:0: note: loc(callsite(fused[\"StatefulPartitionedCall:\", \"StatefulPartitionedCall@__inference_signature_wrapper_124976\"] at fused[\"StatefulPartitionedCall:\", \"StatefulPartitionedCall_1\"])): called from\n<unknown>:0: note: loc(fused[\"StatefulPartitionedCall:\", \"StatefulPartitionedCall_1\"]): called from\n<unknown>:0: note: loc(callsite(fused[\"Mul:\", \"rgnet_practical_1/efficientnetv2-b0_1/block2b_expand_activation_1/mul_1@__inference_function_123465\"] at callsite(fused[\"StatefulPartitionedCall:\", \"StatefulPartitionedCall@__inference_signature_wrapper_124976\"] at fused[\"StatefulPartitionedCall:\", \"StatefulPartitionedCall_1\"]))): see current operation: %312 = \"tf.Mul\"(%310, %311) {device = \"\"} : (tensor<?x64x64x128xf16>, tensor<?x64x64x128xf16>) -> tensor<?x64x64x128xf16>\n<unknown>:0: note: loc(callsite(fused[\"Mul:\", \"rgnet_practical_1/efficientnetv2-b0_1/block2b_expand_activation_1/mul_1@__inference_function_123465\"] at callsite(fused[\"StatefulPartitionedCall:\", \"StatefulPartitionedCall@__inference_signature_wrapper_124976\"] at fused[\"StatefulPartitionedCall:\", \"StatefulPartitionedCall_1\"]))): Error code: ERROR_NEEDS_FLEX_OPS\n<unknown>:0: error: loc(callsite(fused[\"Conv2D:\", \"rgnet_practical_1/efficientnetv2-b0_1/block2b_project_conv_1/convolution@__inference_function_123465\"] at callsite(fused[\"StatefulPartitionedCall:\", \"StatefulPartitionedCall@__inference_signature_wrapper_124976\"] at fused[\"StatefulPartitionedCall:\", \"StatefulPartitionedCall_1\"]))): 'tf.Conv2D' op is neither a custom op nor a flex op\n<unknown>:0: note: loc(callsite(fused[\"StatefulPartitionedCall:\", \"StatefulPartitionedCall@__inference_signature_wrapper_124976\"] at fused[\"StatefulPartitionedCall:\", \"StatefulPartitionedCall_1\"])): called from\n<unknown>:0: note: loc(fused[\"StatefulPartitionedCall:\", \"StatefulPartitionedCall_1\"]): called from\n<unknown>:0: note: loc(callsite(fused[\"Conv2D:\", \"rgnet_practical_1/efficientnetv2-b0_1/block2b_project_conv_1/convolution@__inference_function_123465\"] at callsite(fused[\"StatefulPartitionedCall:\", \"StatefulPartitionedCall@__inference_signature_wrapper_124976\"] at fused[\"StatefulPartitionedCall:\", \"StatefulPartitionedCall_1\"]))): see current operation: %313 = \"tf.Conv2D\"(%312, %243) <{data_format = \"NHWC\", dilations = [1, 1, 1, 1], explicit_paddings = [], padding = \"SAME\", strides = [1, 1, 1, 1], use_cudnn_on_gpu = true}> {device = \"\"} : (tensor<?x64x64x128xf16>, tensor<1x1x128x32xf16>) -> tensor<?x64x64x32xf16>\n<unknown>:0: note: loc(callsite(fused[\"Conv2D:\", \"rgnet_practical_1/efficientnetv2-b0_1/block2b_project_conv_1/convolution@__inference_function_123465\"] at callsite(fused[\"StatefulPartitionedCall:\", \"StatefulPartitionedCall@__inference_signature_wrapper_124976\"] at fused[\"StatefulPartitionedCall:\", \"StatefulPartitionedCall_1\"]))): Error code: ERROR_NEEDS_FLEX_OPS\n<unknown>:0: error: loc(callsite(fused[\"AddV2:\", \"rgnet_practical_1/efficientnetv2-b0_1/block2b_add_1/Add@__inference_function_123465\"] at callsite(fused[\"StatefulPartitionedCall:\", \"StatefulPartitionedCall@__inference_signature_wrapper_124976\"] at fused[\"StatefulPartitionedCall:\", \"StatefulPartitionedCall_1\"]))): 'tf.AddV2' op is neither a custom op nor a flex op\n<unknown>:0: note: loc(callsite(fused[\"StatefulPartitionedCall:\", \"StatefulPartitionedCall@__inference_signature_wrapper_124976\"] at fused[\"StatefulPartitionedCall:\", \"StatefulPartitionedCall_1\"])): called from\n<unknown>:0: note: loc(fused[\"StatefulPartitionedCall:\", \"StatefulPartitionedCall_1\"]): called from\n<unknown>:0: note: loc(callsite(fused[\"AddV2:\", \"rgnet_practical_1/efficientnetv2-b0_1/block2b_add_1/Add@__inference_function_123465\"] at callsite(fused[\"StatefulPartitionedCall:\", \"StatefulPartitionedCall@__inference_signature_wrapper_124976\"] at fused[\"StatefulPartitionedCall:\", \"StatefulPartitionedCall_1\"]))): see current operation: %318 = \"tf.AddV2\"(%317, %305) {device = \"\"} : (tensor<?x64x64x32xf16>, tensor<?x64x64x32xf16>) -> tensor<?x64x64x32xf16>\n<unknown>:0: note: loc(callsite(fused[\"AddV2:\", \"rgnet_practical_1/efficientnetv2-b0_1/block2b_add_1/Add@__inference_function_123465\"] at callsite(fused[\"StatefulPartitionedCall:\", \"StatefulPartitionedCall@__inference_signature_wrapper_124976\"] at fused[\"StatefulPartitionedCall:\", \"StatefulPartitionedCall_1\"]))): Error code: ERROR_NEEDS_FLEX_OPS\n<unknown>:0: error: loc(callsite(fused[\"Conv2D:\", \"rgnet_practical_1/efficientnetv2-b0_1/block3a_expand_conv_1/convolution@__inference_function_123465\"] at callsite(fused[\"StatefulPartitionedCall:\", \"StatefulPartitionedCall@__inference_signature_wrapper_124976\"] at fused[\"StatefulPartitionedCall:\", \"StatefulPartitionedCall_1\"]))): 'tf.Conv2D' op is neither a custom op nor a flex op\n<unknown>:0: note: loc(callsite(fused[\"StatefulPartitionedCall:\", \"StatefulPartitionedCall@__inference_signature_wrapper_124976\"] at fused[\"StatefulPartitionedCall:\", \"StatefulPartitionedCall_1\"])): called from\n<unknown>:0: note: loc(fused[\"StatefulPartitionedCall:\", \"StatefulPartitionedCall_1\"]): called from\n<unknown>:0: note: loc(callsite(fused[\"Conv2D:\", \"rgnet_practical_1/efficientnetv2-b0_1/block3a_expand_conv_1/convolution@__inference_function_123465\"] at callsite(fused[\"StatefulPartitionedCall:\", \"StatefulPartitionedCall@__inference_signature_wrapper_124976\"] at fused[\"StatefulPartitionedCall:\", \"StatefulPartitionedCall_1\"]))): see current operation: %319 = \"tf.Conv2D\"(%318, %240) <{data_format = \"NHWC\", dilations = [1, 1, 1, 1], explicit_paddings = [], padding = \"SAME\", strides = [1, 2, 2, 1], use_cudnn_on_gpu = true}> {device = \"\"} : (tensor<?x64x64x32xf16>, tensor<3x3x32x128xf16>) -> tensor<?x32x32x128xf16>\n<unknown>:0: note: loc(callsite(fused[\"Conv2D:\", \"rgnet_practical_1/efficientnetv2-b0_1/block3a_expand_conv_1/convolution@__inference_function_123465\"] at callsite(fused[\"StatefulPartitionedCall:\", \"StatefulPartitionedCall@__inference_signature_wrapper_124976\"] at fused[\"StatefulPartitionedCall:\", \"StatefulPartitionedCall_1\"]))): Error code: ERROR_NEEDS_FLEX_OPS\n<unknown>:0: error: loc(callsite(fused[\"Sigmoid:\", \"rgnet_practical_1/efficientnetv2-b0_1/block3a_expand_activation_1/Sigmoid@__inference_function_123465\"] at callsite(fused[\"StatefulPartitionedCall:\", \"StatefulPartitionedCall@__inference_signature_wrapper_124976\"] at fused[\"StatefulPartitionedCall:\", \"StatefulPartitionedCall_1\"]))): 'tf.Sigmoid' op is neither a custom op nor a flex op\n<unknown>:0: note: loc(callsite(fused[\"StatefulPartitionedCall:\", \"StatefulPartitionedCall@__inference_signature_wrapper_124976\"] at fused[\"StatefulPartitionedCall:\", \"StatefulPartitionedCall_1\"])): called from\n<unknown>:0: note: loc(fused[\"StatefulPartitionedCall:\", \"StatefulPartitionedCall_1\"]): called from\n<unknown>:0: note: loc(callsite(fused[\"Sigmoid:\", \"rgnet_practical_1/efficientnetv2-b0_1/block3a_expand_activation_1/Sigmoid@__inference_function_123465\"] at callsite(fused[\"StatefulPartitionedCall:\", \"StatefulPartitionedCall@__inference_signature_wrapper_124976\"] at fused[\"StatefulPartitionedCall:\", \"StatefulPartitionedCall_1\"]))): see current operation: %324 = \"tf.Sigmoid\"(%323) {device = \"\"} : (tensor<?x32x32x128xf16>) -> tensor<?x32x32x128xf16>\n<unknown>:0: note: loc(callsite(fused[\"Sigmoid:\", \"rgnet_practical_1/efficientnetv2-b0_1/block3a_expand_activation_1/Sigmoid@__inference_function_123465\"] at callsite(fused[\"StatefulPartitionedCall:\", \"StatefulPartitionedCall@__inference_signature_wrapper_124976\"] at fused[\"StatefulPartitionedCall:\", \"StatefulPartitionedCall_1\"]))): Error code: ERROR_NEEDS_FLEX_OPS\n<unknown>:0: error: loc(callsite(fused[\"Mul:\", \"rgnet_practical_1/efficientnetv2-b0_1/block3a_expand_activation_1/mul_1@__inference_function_123465\"] at callsite(fused[\"StatefulPartitionedCall:\", \"StatefulPartitionedCall@__inference_signature_wrapper_124976\"] at fused[\"StatefulPartitionedCall:\", \"StatefulPartitionedCall_1\"]))): 'tf.Mul' op is neither a custom op nor a flex op\n<unknown>:0: note: loc(callsite(fused[\"StatefulPartitionedCall:\", \"StatefulPartitionedCall@__inference_signature_wrapper_124976\"] at fused[\"StatefulPartitionedCall:\", \"StatefulPartitionedCall_1\"])): called from\n<unknown>:0: note: loc(fused[\"StatefulPartitionedCall:\", \"StatefulPartitionedCall_1\"]): called from\n<unknown>:0: note: loc(callsite(fused[\"Mul:\", \"rgnet_practical_1/efficientnetv2-b0_1/block3a_expand_activation_1/mul_1@__inference_function_123465\"] at callsite(fused[\"StatefulPartitionedCall:\", \"StatefulPartitionedCall@__inference_signature_wrapper_124976\"] at fused[\"StatefulPartitionedCall:\", \"StatefulPartitionedCall_1\"]))): see current operation: %325 = \"tf.Mul\"(%323, %324) {device = \"\"} : (tensor<?x32x32x128xf16>, tensor<?x32x32x128xf16>) -> tensor<?x32x32x128xf16>\n<unknown>:0: note: loc(callsite(fused[\"Mul:\", \"rgnet_practical_1/efficientnetv2-b0_1/block3a_expand_activation_1/mul_1@__inference_function_123465\"] at callsite(fused[\"StatefulPartitionedCall:\", \"StatefulPartitionedCall@__inference_signature_wrapper_124976\"] at fused[\"StatefulPartitionedCall:\", \"StatefulPartitionedCall_1\"]))): Error code: ERROR_NEEDS_FLEX_OPS\n<unknown>:0: error: loc(callsite(fused[\"Conv2D:\", \"rgnet_practical_1/efficientnetv2-b0_1/block3a_project_conv_1/convolution@__inference_function_123465\"] at callsite(fused[\"StatefulPartitionedCall:\", \"StatefulPartitionedCall@__inference_signature_wrapper_124976\"] at fused[\"StatefulPartitionedCall:\", \"StatefulPartitionedCall_1\"]))): 'tf.Conv2D' op is neither a custom op nor a flex op\n<unknown>:0: note: loc(callsite(fused[\"StatefulPartitionedCall:\", \"StatefulPartitionedCall@__inference_signature_wrapper_124976\"] at fused[\"StatefulPartitionedCall:\", \"StatefulPartitionedCall_1\"])): called from\n<unknown>:0: note: loc(fused[\"StatefulPartitionedCall:\", \"StatefulPartitionedCall_1\"]): called from\n<unknown>:0: note: loc(callsite(fused[\"Conv2D:\", \"rgnet_practical_1/efficientnetv2-b0_1/block3a_project_conv_1/convolution@__inference_function_123465\"] at callsite(fused[\"StatefulPartitionedCall:\", \"StatefulPartitionedCall@__inference_signature_wrapper_124976\"] at fused[\"StatefulPartitionedCall:\", \"StatefulPartitionedCall_1\"]))): see current operation: %326 = \"tf.Conv2D\"(%325, %237) <{data_format = \"NHWC\", dilations = [1, 1, 1, 1], explicit_paddings = [], padding = \"SAME\", strides = [1, 1, 1, 1], use_cudnn_on_gpu = true}> {device = \"\"} : (tensor<?x32x32x128xf16>, tensor<1x1x128x48xf16>) -> tensor<?x32x32x48xf16>\n<unknown>:0: note: loc(callsite(fused[\"Conv2D:\", \"rgnet_practical_1/efficientnetv2-b0_1/block3a_project_conv_1/convolution@__inference_function_123465\"] at callsite(fused[\"StatefulPartitionedCall:\", \"StatefulPartitionedCall@__inference_signature_wrapper_124976\"] at fused[\"StatefulPartitionedCall:\", \"StatefulPartitionedCall_1\"]))): Error code: ERROR_NEEDS_FLEX_OPS\n<unknown>:0: error: loc(callsite(fused[\"Conv2D:\", \"rgnet_practical_1/efficientnetv2-b0_1/block3b_expand_conv_1/convolution@__inference_function_123465\"] at callsite(fused[\"StatefulPartitionedCall:\", \"StatefulPartitionedCall@__inference_signature_wrapper_124976\"] at fused[\"StatefulPartitionedCall:\", \"StatefulPartitionedCall_1\"]))): 'tf.Conv2D' op is neither a custom op nor a flex op\n<unknown>:0: note: loc(callsite(fused[\"StatefulPartitionedCall:\", \"StatefulPartitionedCall@__inference_signature_wrapper_124976\"] at fused[\"StatefulPartitionedCall:\", \"StatefulPartitionedCall_1\"])): called from\n<unknown>:0: note: loc(fused[\"StatefulPartitionedCall:\", \"StatefulPartitionedCall_1\"]): called from\n<unknown>:0: note: loc(callsite(fused[\"Conv2D:\", \"rgnet_practical_1/efficientnetv2-b0_1/block3b_expand_conv_1/convolution@__inference_function_123465\"] at callsite(fused[\"StatefulPartitionedCall:\", \"StatefulPartitionedCall@__inference_signature_wrapper_124976\"] at fused[\"StatefulPartitionedCall:\", \"StatefulPartitionedCall_1\"]))): see current operation: %331 = \"tf.Conv2D\"(%330, %234) <{data_format = \"NHWC\", dilations = [1, 1, 1, 1], explicit_paddings = [], padding = \"SAME\", strides = [1, 1, 1, 1], use_cudnn_on_gpu = true}> {device = \"\"} : (tensor<?x32x32x48xf16>, tensor<3x3x48x192xf16>) -> tensor<?x32x32x192xf16>\n<unknown>:0: note: loc(callsite(fused[\"Conv2D:\", \"rgnet_practical_1/efficientnetv2-b0_1/block3b_expand_conv_1/convolution@__inference_function_123465\"] at callsite(fused[\"StatefulPartitionedCall:\", \"StatefulPartitionedCall@__inference_signature_wrapper_124976\"] at fused[\"StatefulPartitionedCall:\", \"StatefulPartitionedCall_1\"]))): Error code: ERROR_NEEDS_FLEX_OPS\n<unknown>:0: error: loc(callsite(fused[\"Sigmoid:\", \"rgnet_practical_1/efficientnetv2-b0_1/block3b_expand_activation_1/Sigmoid@__inference_function_123465\"] at callsite(fused[\"StatefulPartitionedCall:\", \"StatefulPartitionedCall@__inference_signature_wrapper_124976\"] at fused[\"StatefulPartitionedCall:\", \"StatefulPartitionedCall_1\"]))): 'tf.Sigmoid' op is neither a custom op nor a flex op\n<unknown>:0: note: loc(callsite(fused[\"StatefulPartitionedCall:\", \"StatefulPartitionedCall@__inference_signature_wrapper_124976\"] at fused[\"StatefulPartitionedCall:\", \"StatefulPartitionedCall_1\"])): called from\n<unknown>:0: note: loc(fused[\"StatefulPartitionedCall:\", \"StatefulPartitionedCall_1\"]): called from\n<unknown>:0: note: loc(callsite(fused[\"Sigmoid:\", \"rgnet_practical_1/efficientnetv2-b0_1/block3b_expand_activation_1/Sigmoid@__inference_function_123465\"] at callsite(fused[\"StatefulPartitionedCall:\", \"StatefulPartitionedCall@__inference_signature_wrapper_124976\"] at fused[\"StatefulPartitionedCall:\", \"StatefulPartitionedCall_1\"]))): see current operation: %336 = \"tf.Sigmoid\"(%335) {device = \"\"} : (tensor<?x32x32x192xf16>) -> tensor<?x32x32x192xf16>\n<unknown>:0: note: loc(callsite(fused[\"Sigmoid:\", \"rgnet_practical_1/efficientnetv2-b0_1/block3b_expand_activation_1/Sigmoid@__inference_function_123465\"] at callsite(fused[\"StatefulPartitionedCall:\", \"StatefulPartitionedCall@__inference_signature_wrapper_124976\"] at fused[\"StatefulPartitionedCall:\", \"StatefulPartitionedCall_1\"]))): Error code: ERROR_NEEDS_FLEX_OPS\n<unknown>:0: error: loc(callsite(fused[\"Mul:\", \"rgnet_practical_1/efficientnetv2-b0_1/block3b_expand_activation_1/mul_1@__inference_function_123465\"] at callsite(fused[\"StatefulPartitionedCall:\", \"StatefulPartitionedCall@__inference_signature_wrapper_124976\"] at fused[\"StatefulPartitionedCall:\", \"StatefulPartitionedCall_1\"]))): 'tf.Mul' op is neither a custom op nor a flex op\n<unknown>:0: note: loc(callsite(fused[\"StatefulPartitionedCall:\", \"StatefulPartitionedCall@__inference_signature_wrapper_124976\"] at fused[\"StatefulPartitionedCall:\", \"StatefulPartitionedCall_1\"])): called from\n<unknown>:0: note: loc(fused[\"StatefulPartitionedCall:\", \"StatefulPartitionedCall_1\"]): called from\n<unknown>:0: note: loc(callsite(fused[\"Mul:\", \"rgnet_practical_1/efficientnetv2-b0_1/block3b_expand_activation_1/mul_1@__inference_function_123465\"] at callsite(fused[\"StatefulPartitionedCall:\", \"StatefulPartitionedCall@__inference_signature_wrapper_124976\"] at fused[\"StatefulPartitionedCall:\", \"StatefulPartitionedCall_1\"]))): see current operation: %337 = \"tf.Mul\"(%335, %336) {device = \"\"} : (tensor<?x32x32x192xf16>, tensor<?x32x32x192xf16>) -> tensor<?x32x32x192xf16>\n<unknown>:0: note: loc(callsite(fused[\"Mul:\", \"rgnet_practical_1/efficientnetv2-b0_1/block3b_expand_activation_1/mul_1@__inference_function_123465\"] at callsite(fused[\"StatefulPartitionedCall:\", \"StatefulPartitionedCall@__inference_signature_wrapper_124976\"] at fused[\"StatefulPartitionedCall:\", \"StatefulPartitionedCall_1\"]))): Error code: ERROR_NEEDS_FLEX_OPS\n<unknown>:0: error: loc(callsite(fused[\"Conv2D:\", \"rgnet_practical_1/efficientnetv2-b0_1/block3b_project_conv_1/convolution@__inference_function_123465\"] at callsite(fused[\"StatefulPartitionedCall:\", \"StatefulPartitionedCall@__inference_signature_wrapper_124976\"] at fused[\"StatefulPartitionedCall:\", \"StatefulPartitionedCall_1\"]))): 'tf.Conv2D' op is neither a custom op nor a flex op\n<unknown>:0: note: loc(callsite(fused[\"StatefulPartitionedCall:\", \"StatefulPartitionedCall@__inference_signature_wrapper_124976\"] at fused[\"StatefulPartitionedCall:\", \"StatefulPartitionedCall_1\"])): called from\n<unknown>:0: note: loc(fused[\"StatefulPartitionedCall:\", \"StatefulPartitionedCall_1\"]): called from\n<unknown>:0: note: loc(callsite(fused[\"Conv2D:\", \"rgnet_practical_1/efficientnetv2-b0_1/block3b_project_conv_1/convolution@__inference_function_123465\"] at callsite(fused[\"StatefulPartitionedCall:\", \"StatefulPartitionedCall@__inference_signature_wrapper_124976\"] at fused[\"StatefulPartitionedCall:\", \"StatefulPartitionedCall_1\"]))): see current operation: %338 = \"tf.Conv2D\"(%337, %231) <{data_format = \"NHWC\", dilations = [1, 1, 1, 1], explicit_paddings = [], padding = \"SAME\", strides = [1, 1, 1, 1], use_cudnn_on_gpu = true}> {device = \"\"} : (tensor<?x32x32x192xf16>, tensor<1x1x192x48xf16>) -> tensor<?x32x32x48xf16>\n<unknown>:0: note: loc(callsite(fused[\"Conv2D:\", \"rgnet_practical_1/efficientnetv2-b0_1/block3b_project_conv_1/convolution@__inference_function_123465\"] at callsite(fused[\"StatefulPartitionedCall:\", \"StatefulPartitionedCall@__inference_signature_wrapper_124976\"] at fused[\"StatefulPartitionedCall:\", \"StatefulPartitionedCall_1\"]))): Error code: ERROR_NEEDS_FLEX_OPS\n<unknown>:0: error: loc(callsite(fused[\"AddV2:\", \"rgnet_practical_1/efficientnetv2-b0_1/block3b_add_1/Add@__inference_function_123465\"] at callsite(fused[\"StatefulPartitionedCall:\", \"StatefulPartitionedCall@__inference_signature_wrapper_124976\"] at fused[\"StatefulPartitionedCall:\", \"StatefulPartitionedCall_1\"]))): 'tf.AddV2' op is neither a custom op nor a flex op\n<unknown>:0: note: loc(callsite(fused[\"StatefulPartitionedCall:\", \"StatefulPartitionedCall@__inference_signature_wrapper_124976\"] at fused[\"StatefulPartitionedCall:\", \"StatefulPartitionedCall_1\"])): called from\n<unknown>:0: note: loc(fused[\"StatefulPartitionedCall:\", \"StatefulPartitionedCall_1\"]): called from\n<unknown>:0: note: loc(callsite(fused[\"AddV2:\", \"rgnet_practical_1/efficientnetv2-b0_1/block3b_add_1/Add@__inference_function_123465\"] at callsite(fused[\"StatefulPartitionedCall:\", \"StatefulPartitionedCall@__inference_signature_wrapper_124976\"] at fused[\"StatefulPartitionedCall:\", \"StatefulPartitionedCall_1\"]))): see current operation: %343 = \"tf.AddV2\"(%342, %330) {device = \"\"} : (tensor<?x32x32x48xf16>, tensor<?x32x32x48xf16>) -> tensor<?x32x32x48xf16>\n<unknown>:0: note: loc(callsite(fused[\"AddV2:\", \"rgnet_practical_1/efficientnetv2-b0_1/block3b_add_1/Add@__inference_function_123465\"] at callsite(fused[\"StatefulPartitionedCall:\", \"StatefulPartitionedCall@__inference_signature_wrapper_124976\"] at fused[\"StatefulPartitionedCall:\", \"StatefulPartitionedCall_1\"]))): Error code: ERROR_NEEDS_FLEX_OPS\n<unknown>:0: error: loc(callsite(fused[\"Conv2D:\", \"rgnet_practical_1/efficientnetv2-b0_1/block4a_expand_conv_1/convolution@__inference_function_123465\"] at callsite(fused[\"StatefulPartitionedCall:\", \"StatefulPartitionedCall@__inference_signature_wrapper_124976\"] at fused[\"StatefulPartitionedCall:\", \"StatefulPartitionedCall_1\"]))): 'tf.Conv2D' op is neither a custom op nor a flex op\n<unknown>:0: note: loc(callsite(fused[\"StatefulPartitionedCall:\", \"StatefulPartitionedCall@__inference_signature_wrapper_124976\"] at fused[\"StatefulPartitionedCall:\", \"StatefulPartitionedCall_1\"])): called from\n<unknown>:0: note: loc(fused[\"StatefulPartitionedCall:\", \"StatefulPartitionedCall_1\"]): called from\n<unknown>:0: note: loc(callsite(fused[\"Conv2D:\", \"rgnet_practical_1/efficientnetv2-b0_1/block4a_expand_conv_1/convolution@__inference_function_123465\"] at callsite(fused[\"StatefulPartitionedCall:\", \"StatefulPartitionedCall@__inference_signature_wrapper_124976\"] at fused[\"StatefulPartitionedCall:\", \"StatefulPartitionedCall_1\"]))): see current operation: %344 = \"tf.Conv2D\"(%343, %225) <{data_format = \"NHWC\", dilations = [1, 1, 1, 1], explicit_paddings = [], padding = \"SAME\", strides = [1, 1, 1, 1], use_cudnn_on_gpu = true}> {device = \"\"} : (tensor<?x32x32x48xf16>, tensor<1x1x48x192xf16>) -> tensor<?x32x32x192xf16>\n<unknown>:0: note: loc(callsite(fused[\"Conv2D:\", \"rgnet_practical_1/efficientnetv2-b0_1/block4a_expand_conv_1/convolution@__inference_function_123465\"] at callsite(fused[\"StatefulPartitionedCall:\", \"StatefulPartitionedCall@__inference_signature_wrapper_124976\"] at fused[\"StatefulPartitionedCall:\", \"StatefulPartitionedCall_1\"]))): Error code: ERROR_NEEDS_FLEX_OPS\n<unknown>:0: error: loc(callsite(fused[\"Sigmoid:\", \"rgnet_practical_1/efficientnetv2-b0_1/block4a_expand_activation_1/Sigmoid@__inference_function_123465\"] at callsite(fused[\"StatefulPartitionedCall:\", \"StatefulPartitionedCall@__inference_signature_wrapper_124976\"] at fused[\"StatefulPartitionedCall:\", \"StatefulPartitionedCall_1\"]))): 'tf.Sigmoid' op is neither a custom op nor a flex op\n<unknown>:0: note: loc(callsite(fused[\"StatefulPartitionedCall:\", \"StatefulPartitionedCall@__inference_signature_wrapper_124976\"] at fused[\"StatefulPartitionedCall:\", \"StatefulPartitionedCall_1\"])): called from\n<unknown>:0: note: loc(fused[\"StatefulPartitionedCall:\", \"StatefulPartitionedCall_1\"]): called from\n<unknown>:0: note: loc(callsite(fused[\"Sigmoid:\", \"rgnet_practical_1/efficientnetv2-b0_1/block4a_expand_activation_1/Sigmoid@__inference_function_123465\"] at callsite(fused[\"StatefulPartitionedCall:\", \"StatefulPartitionedCall@__inference_signature_wrapper_124976\"] at fused[\"StatefulPartitionedCall:\", \"StatefulPartitionedCall_1\"]))): see current operation: %349 = \"tf.Sigmoid\"(%348) {device = \"\"} : (tensor<?x32x32x192xf16>) -> tensor<?x32x32x192xf16>\n<unknown>:0: note: loc(callsite(fused[\"Sigmoid:\", \"rgnet_practical_1/efficientnetv2-b0_1/block4a_expand_activation_1/Sigmoid@__inference_function_123465\"] at callsite(fused[\"StatefulPartitionedCall:\", \"StatefulPartitionedCall@__inference_signature_wrapper_124976\"] at fused[\"StatefulPartitionedCall:\", \"StatefulPartitionedCall_1\"]))): Error code: ERROR_NEEDS_FLEX_OPS\n<unknown>:0: error: loc(callsite(fused[\"Mul:\", \"rgnet_practical_1/efficientnetv2-b0_1/block4a_expand_activation_1/mul_1@__inference_function_123465\"] at callsite(fused[\"StatefulPartitionedCall:\", \"StatefulPartitionedCall@__inference_signature_wrapper_124976\"] at fused[\"StatefulPartitionedCall:\", \"StatefulPartitionedCall_1\"]))): 'tf.Mul' op is neither a custom op nor a flex op\n<unknown>:0: note: loc(callsite(fused[\"StatefulPartitionedCall:\", \"StatefulPartitionedCall@__inference_signature_wrapper_124976\"] at fused[\"StatefulPartitionedCall:\", \"StatefulPartitionedCall_1\"])): called from\n<unknown>:0: note: loc(fused[\"StatefulPartitionedCall:\", \"StatefulPartitionedCall_1\"]): called from\n<unknown>:0: note: loc(callsite(fused[\"Mul:\", \"rgnet_practical_1/efficientnetv2-b0_1/block4a_expand_activation_1/mul_1@__inference_function_123465\"] at callsite(fused[\"StatefulPartitionedCall:\", \"StatefulPartitionedCall@__inference_signature_wrapper_124976\"] at fused[\"StatefulPartitionedCall:\", \"StatefulPartitionedCall_1\"]))): see current operation: %350 = \"tf.Mul\"(%348, %349) {device = \"\"} : (tensor<?x32x32x192xf16>, tensor<?x32x32x192xf16>) -> tensor<?x32x32x192xf16>\n<unknown>:0: note: loc(callsite(fused[\"Mul:\", \"rgnet_practical_1/efficientnetv2-b0_1/block4a_expand_activation_1/mul_1@__inference_function_123465\"] at callsite(fused[\"StatefulPartitionedCall:\", \"StatefulPartitionedCall@__inference_signature_wrapper_124976\"] at fused[\"StatefulPartitionedCall:\", \"StatefulPartitionedCall_1\"]))): Error code: ERROR_NEEDS_FLEX_OPS\n<unknown>:0: error: loc(callsite(fused[\"DepthwiseConv2dNative:\", \"rgnet_practical_1/efficientnetv2-b0_1/block4a_dwconv2_1/depthwise@__inference_function_123465\"] at callsite(fused[\"StatefulPartitionedCall:\", \"StatefulPartitionedCall@__inference_signature_wrapper_124976\"] at fused[\"StatefulPartitionedCall:\", \"StatefulPartitionedCall_1\"]))): 'tf.DepthwiseConv2dNative' op is neither a custom op nor a flex op\n<unknown>:0: note: loc(callsite(fused[\"StatefulPartitionedCall:\", \"StatefulPartitionedCall@__inference_signature_wrapper_124976\"] at fused[\"StatefulPartitionedCall:\", \"StatefulPartitionedCall_1\"])): called from\n<unknown>:0: note: loc(fused[\"StatefulPartitionedCall:\", \"StatefulPartitionedCall_1\"]): called from\n<unknown>:0: note: loc(callsite(fused[\"DepthwiseConv2dNative:\", \"rgnet_practical_1/efficientnetv2-b0_1/block4a_dwconv2_1/depthwise@__inference_function_123465\"] at callsite(fused[\"StatefulPartitionedCall:\", \"StatefulPartitionedCall@__inference_signature_wrapper_124976\"] at fused[\"StatefulPartitionedCall:\", \"StatefulPartitionedCall_1\"]))): see current operation: %351 = \"tf.DepthwiseConv2dNative\"(%350, %228) <{data_format = \"NHWC\", dilations = [1, 1, 1, 1], explicit_paddings = [], padding = \"SAME\", strides = [1, 2, 2, 1]}> {device = \"\"} : (tensor<?x32x32x192xf16>, tensor<3x3x192x1xf16>) -> tensor<?x16x16x192xf16>\n<unknown>:0: note: loc(callsite(fused[\"DepthwiseConv2dNative:\", \"rgnet_practical_1/efficientnetv2-b0_1/block4a_dwconv2_1/depthwise@__inference_function_123465\"] at callsite(fused[\"StatefulPartitionedCall:\", \"StatefulPartitionedCall@__inference_signature_wrapper_124976\"] at fused[\"StatefulPartitionedCall:\", \"StatefulPartitionedCall_1\"]))): Error code: ERROR_NEEDS_FLEX_OPS\n<unknown>:0: error: loc(callsite(fused[\"Sigmoid:\", \"rgnet_practical_1/efficientnetv2-b0_1/block4a_activation_1/Sigmoid@__inference_function_123465\"] at callsite(fused[\"StatefulPartitionedCall:\", \"StatefulPartitionedCall@__inference_signature_wrapper_124976\"] at fused[\"StatefulPartitionedCall:\", \"StatefulPartitionedCall_1\"]))): 'tf.Sigmoid' op is neither a custom op nor a flex op\n<unknown>:0: note: loc(callsite(fused[\"StatefulPartitionedCall:\", \"StatefulPartitionedCall@__inference_signature_wrapper_124976\"] at fused[\"StatefulPartitionedCall:\", \"StatefulPartitionedCall_1\"])): called from\n<unknown>:0: note: loc(fused[\"StatefulPartitionedCall:\", \"StatefulPartitionedCall_1\"]): called from\n<unknown>:0: note: loc(callsite(fused[\"Sigmoid:\", \"rgnet_practical_1/efficientnetv2-b0_1/block4a_activation_1/Sigmoid@__inference_function_123465\"] at callsite(fused[\"StatefulPartitionedCall:\", \"StatefulPartitionedCall@__inference_signature_wrapper_124976\"] at fused[\"StatefulPartitionedCall:\", \"StatefulPartitionedCall_1\"]))): see current operation: %356 = \"tf.Sigmoid\"(%355) {device = \"\"} : (tensor<?x16x16x192xf16>) -> tensor<?x16x16x192xf16>\n<unknown>:0: note: loc(callsite(fused[\"Sigmoid:\", \"rgnet_practical_1/efficientnetv2-b0_1/block4a_activation_1/Sigmoid@__inference_function_123465\"] at callsite(fused[\"StatefulPartitionedCall:\", \"StatefulPartitionedCall@__inference_signature_wrapper_124976\"] at fused[\"StatefulPartitionedCall:\", \"StatefulPartitionedCall_1\"]))): Error code: ERROR_NEEDS_FLEX_OPS\n<unknown>:0: error: loc(callsite(fused[\"Mul:\", \"rgnet_practical_1/efficientnetv2-b0_1/block4a_activation_1/mul_1@__inference_function_123465\"] at callsite(fused[\"StatefulPartitionedCall:\", \"StatefulPartitionedCall@__inference_signature_wrapper_124976\"] at fused[\"StatefulPartitionedCall:\", \"StatefulPartitionedCall_1\"]))): 'tf.Mul' op is neither a custom op nor a flex op\n<unknown>:0: note: loc(callsite(fused[\"StatefulPartitionedCall:\", \"StatefulPartitionedCall@__inference_signature_wrapper_124976\"] at fused[\"StatefulPartitionedCall:\", \"StatefulPartitionedCall_1\"])): called from\n<unknown>:0: note: loc(fused[\"StatefulPartitionedCall:\", \"StatefulPartitionedCall_1\"]): called from\n<unknown>:0: note: loc(callsite(fused[\"Mul:\", \"rgnet_practical_1/efficientnetv2-b0_1/block4a_activation_1/mul_1@__inference_function_123465\"] at callsite(fused[\"StatefulPartitionedCall:\", \"StatefulPartitionedCall@__inference_signature_wrapper_124976\"] at fused[\"StatefulPartitionedCall:\", \"StatefulPartitionedCall_1\"]))): see current operation: %357 = \"tf.Mul\"(%355, %356) {device = \"\"} : (tensor<?x16x16x192xf16>, tensor<?x16x16x192xf16>) -> tensor<?x16x16x192xf16>\n<unknown>:0: note: loc(callsite(fused[\"Mul:\", \"rgnet_practical_1/efficientnetv2-b0_1/block4a_activation_1/mul_1@__inference_function_123465\"] at callsite(fused[\"StatefulPartitionedCall:\", \"StatefulPartitionedCall@__inference_signature_wrapper_124976\"] at fused[\"StatefulPartitionedCall:\", \"StatefulPartitionedCall_1\"]))): Error code: ERROR_NEEDS_FLEX_OPS\n<unknown>:0: error: loc(callsite(fused[\"Conv2D:\", \"rgnet_practical_1/efficientnetv2-b0_1/block4a_se_reduce_1/convolution@__inference_function_123465\"] at callsite(fused[\"StatefulPartitionedCall:\", \"StatefulPartitionedCall@__inference_signature_wrapper_124976\"] at fused[\"StatefulPartitionedCall:\", \"StatefulPartitionedCall_1\"]))): 'tf.Conv2D' op is neither a custom op nor a flex op\n<unknown>:0: note: loc(callsite(fused[\"StatefulPartitionedCall:\", \"StatefulPartitionedCall@__inference_signature_wrapper_124976\"] at fused[\"StatefulPartitionedCall:\", \"StatefulPartitionedCall_1\"])): called from\n<unknown>:0: note: loc(fused[\"StatefulPartitionedCall:\", \"StatefulPartitionedCall_1\"]): called from\n<unknown>:0: note: loc(callsite(fused[\"Conv2D:\", \"rgnet_practical_1/efficientnetv2-b0_1/block4a_se_reduce_1/convolution@__inference_function_123465\"] at callsite(fused[\"StatefulPartitionedCall:\", \"StatefulPartitionedCall@__inference_signature_wrapper_124976\"] at fused[\"StatefulPartitionedCall:\", \"StatefulPartitionedCall_1\"]))): see current operation: %365 = \"tf.Conv2D\"(%364, %219) <{data_format = \"NHWC\", dilations = [1, 1, 1, 1], explicit_paddings = [], padding = \"SAME\", strides = [1, 1, 1, 1], use_cudnn_on_gpu = true}> {device = \"\"} : (tensor<?x1x1x192xf16>, tensor<1x1x192x12xf16>) -> tensor<?x1x1x12xf16>\n<unknown>:0: note: loc(callsite(fused[\"Conv2D:\", \"rgnet_practical_1/efficientnetv2-b0_1/block4a_se_reduce_1/convolution@__inference_function_123465\"] at callsite(fused[\"StatefulPartitionedCall:\", \"StatefulPartitionedCall@__inference_signature_wrapper_124976\"] at fused[\"StatefulPartitionedCall:\", \"StatefulPartitionedCall_1\"]))): Error code: ERROR_NEEDS_FLEX_OPS\n<unknown>:0: error: loc(callsite(fused[\"BiasAdd:\", \"rgnet_practical_1/efficientnetv2-b0_1/block4a_se_reduce_1/BiasAdd@__inference_function_123465\"] at callsite(fused[\"StatefulPartitionedCall:\", \"StatefulPartitionedCall@__inference_signature_wrapper_124976\"] at fused[\"StatefulPartitionedCall:\", \"StatefulPartitionedCall_1\"]))): 'tf.BiasAdd' op is neither a custom op nor a flex op\n<unknown>:0: note: loc(callsite(fused[\"StatefulPartitionedCall:\", \"StatefulPartitionedCall@__inference_signature_wrapper_124976\"] at fused[\"StatefulPartitionedCall:\", \"StatefulPartitionedCall_1\"])): called from\n<unknown>:0: note: loc(fused[\"StatefulPartitionedCall:\", \"StatefulPartitionedCall_1\"]): called from\n<unknown>:0: note: loc(callsite(fused[\"BiasAdd:\", \"rgnet_practical_1/efficientnetv2-b0_1/block4a_se_reduce_1/BiasAdd@__inference_function_123465\"] at callsite(fused[\"StatefulPartitionedCall:\", \"StatefulPartitionedCall@__inference_signature_wrapper_124976\"] at fused[\"StatefulPartitionedCall:\", \"StatefulPartitionedCall_1\"]))): see current operation: %366 = \"tf.BiasAdd\"(%365, %218) <{data_format = \"NHWC\"}> {device = \"\"} : (tensor<?x1x1x12xf16>, tensor<12xf16>) -> tensor<?x1x1x12xf16>\n<unknown>:0: note: loc(callsite(fused[\"BiasAdd:\", \"rgnet_practical_1/efficientnetv2-b0_1/block4a_se_reduce_1/BiasAdd@__inference_function_123465\"] at callsite(fused[\"StatefulPartitionedCall:\", \"StatefulPartitionedCall@__inference_signature_wrapper_124976\"] at fused[\"StatefulPartitionedCall:\", \"StatefulPartitionedCall_1\"]))): Error code: ERROR_NEEDS_FLEX_OPS\n<unknown>:0: error: loc(callsite(fused[\"Sigmoid:\", \"rgnet_practical_1/efficientnetv2-b0_1/block4a_se_reduce_1/Sigmoid@__inference_function_123465\"] at callsite(fused[\"StatefulPartitionedCall:\", \"StatefulPartitionedCall@__inference_signature_wrapper_124976\"] at fused[\"StatefulPartitionedCall:\", \"StatefulPartitionedCall_1\"]))): 'tf.Sigmoid' op is neither a custom op nor a flex op\n<unknown>:0: note: loc(callsite(fused[\"StatefulPartitionedCall:\", \"StatefulPartitionedCall@__inference_signature_wrapper_124976\"] at fused[\"StatefulPartitionedCall:\", \"StatefulPartitionedCall_1\"])): called from\n<unknown>:0: note: loc(fused[\"StatefulPartitionedCall:\", \"StatefulPartitionedCall_1\"]): called from\n<unknown>:0: note: loc(callsite(fused[\"Sigmoid:\", \"rgnet_practical_1/efficientnetv2-b0_1/block4a_se_reduce_1/Sigmoid@__inference_function_123465\"] at callsite(fused[\"StatefulPartitionedCall:\", \"StatefulPartitionedCall@__inference_signature_wrapper_124976\"] at fused[\"StatefulPartitionedCall:\", \"StatefulPartitionedCall_1\"]))): see current operation: %367 = \"tf.Sigmoid\"(%366) {device = \"\"} : (tensor<?x1x1x12xf16>) -> tensor<?x1x1x12xf16>\n<unknown>:0: note: loc(callsite(fused[\"Sigmoid:\", \"rgnet_practical_1/efficientnetv2-b0_1/block4a_se_reduce_1/Sigmoid@__inference_function_123465\"] at callsite(fused[\"StatefulPartitionedCall:\", \"StatefulPartitionedCall@__inference_signature_wrapper_124976\"] at fused[\"StatefulPartitionedCall:\", \"StatefulPartitionedCall_1\"]))): Error code: ERROR_NEEDS_FLEX_OPS\n<unknown>:0: error: loc(callsite(fused[\"Mul:\", \"rgnet_practical_1/efficientnetv2-b0_1/block4a_se_reduce_1/mul_1@__inference_function_123465\"] at callsite(fused[\"StatefulPartitionedCall:\", \"StatefulPartitionedCall@__inference_signature_wrapper_124976\"] at fused[\"StatefulPartitionedCall:\", \"StatefulPartitionedCall_1\"]))): 'tf.Mul' op is neither a custom op nor a flex op\n<unknown>:0: note: loc(callsite(fused[\"StatefulPartitionedCall:\", \"StatefulPartitionedCall@__inference_signature_wrapper_124976\"] at fused[\"StatefulPartitionedCall:\", \"StatefulPartitionedCall_1\"])): called from\n<unknown>:0: note: loc(fused[\"StatefulPartitionedCall:\", \"StatefulPartitionedCall_1\"]): called from\n<unknown>:0: note: loc(callsite(fused[\"Mul:\", \"rgnet_practical_1/efficientnetv2-b0_1/block4a_se_reduce_1/mul_1@__inference_function_123465\"] at callsite(fused[\"StatefulPartitionedCall:\", \"StatefulPartitionedCall@__inference_signature_wrapper_124976\"] at fused[\"StatefulPartitionedCall:\", \"StatefulPartitionedCall_1\"]))): see current operation: %368 = \"tf.Mul\"(%366, %367) {device = \"\"} : (tensor<?x1x1x12xf16>, tensor<?x1x1x12xf16>) -> tensor<?x1x1x12xf16>\n<unknown>:0: note: loc(callsite(fused[\"Mul:\", \"rgnet_practical_1/efficientnetv2-b0_1/block4a_se_reduce_1/mul_1@__inference_function_123465\"] at callsite(fused[\"StatefulPartitionedCall:\", \"StatefulPartitionedCall@__inference_signature_wrapper_124976\"] at fused[\"StatefulPartitionedCall:\", \"StatefulPartitionedCall_1\"]))): Error code: ERROR_NEEDS_FLEX_OPS\n<unknown>:0: error: loc(callsite(fused[\"Conv2D:\", \"rgnet_practical_1/efficientnetv2-b0_1/block4a_se_expand_1/convolution@__inference_function_123465\"] at callsite(fused[\"StatefulPartitionedCall:\", \"StatefulPartitionedCall@__inference_signature_wrapper_124976\"] at fused[\"StatefulPartitionedCall:\", \"StatefulPartitionedCall_1\"]))): 'tf.Conv2D' op is neither a custom op nor a flex op\n<unknown>:0: note: loc(callsite(fused[\"StatefulPartitionedCall:\", \"StatefulPartitionedCall@__inference_signature_wrapper_124976\"] at fused[\"StatefulPartitionedCall:\", \"StatefulPartitionedCall_1\"])): called from\n<unknown>:0: note: loc(fused[\"StatefulPartitionedCall:\", \"StatefulPartitionedCall_1\"]): called from\n<unknown>:0: note: loc(callsite(fused[\"Conv2D:\", \"rgnet_practical_1/efficientnetv2-b0_1/block4a_se_expand_1/convolution@__inference_function_123465\"] at callsite(fused[\"StatefulPartitionedCall:\", \"StatefulPartitionedCall@__inference_signature_wrapper_124976\"] at fused[\"StatefulPartitionedCall:\", \"StatefulPartitionedCall_1\"]))): see current operation: %369 = \"tf.Conv2D\"(%368, %221) <{data_format = \"NHWC\", dilations = [1, 1, 1, 1], explicit_paddings = [], padding = \"SAME\", strides = [1, 1, 1, 1], use_cudnn_on_gpu = true}> {device = \"\"} : (tensor<?x1x1x12xf16>, tensor<1x1x12x192xf16>) -> tensor<?x1x1x192xf16>\n<unknown>:0: note: loc(callsite(fused[\"Conv2D:\", \"rgnet_practical_1/efficientnetv2-b0_1/block4a_se_expand_1/convolution@__inference_function_123465\"] at callsite(fused[\"StatefulPartitionedCall:\", \"StatefulPartitionedCall@__inference_signature_wrapper_124976\"] at fused[\"StatefulPartitionedCall:\", \"StatefulPartitionedCall_1\"]))): Error code: ERROR_NEEDS_FLEX_OPS\n<unknown>:0: error: loc(callsite(fused[\"BiasAdd:\", \"rgnet_practical_1/efficientnetv2-b0_1/block4a_se_expand_1/BiasAdd@__inference_function_123465\"] at callsite(fused[\"StatefulPartitionedCall:\", \"StatefulPartitionedCall@__inference_signature_wrapper_124976\"] at fused[\"StatefulPartitionedCall:\", \"StatefulPartitionedCall_1\"]))): 'tf.BiasAdd' op is neither a custom op nor a flex op\n<unknown>:0: note: loc(callsite(fused[\"StatefulPartitionedCall:\", \"StatefulPartitionedCall@__inference_signature_wrapper_124976\"] at fused[\"StatefulPartitionedCall:\", \"StatefulPartitionedCall_1\"])): called from\n<unknown>:0: note: loc(fused[\"StatefulPartitionedCall:\", \"StatefulPartitionedCall_1\"]): called from\n<unknown>:0: note: loc(callsite(fused[\"BiasAdd:\", \"rgnet_practical_1/efficientnetv2-b0_1/block4a_se_expand_1/BiasAdd@__inference_function_123465\"] at callsite(fused[\"StatefulPartitionedCall:\", \"StatefulPartitionedCall@__inference_signature_wrapper_124976\"] at fused[\"StatefulPartitionedCall:\", \"StatefulPartitionedCall_1\"]))): see current operation: %370 = \"tf.BiasAdd\"(%369, %220) <{data_format = \"NHWC\"}> {device = \"\"} : (tensor<?x1x1x192xf16>, tensor<192xf16>) -> tensor<?x1x1x192xf16>\n<unknown>:0: note: loc(callsite(fused[\"BiasAdd:\", \"rgnet_practical_1/efficientnetv2-b0_1/block4a_se_expand_1/BiasAdd@__inference_function_123465\"] at callsite(fused[\"StatefulPartitionedCall:\", \"StatefulPartitionedCall@__inference_signature_wrapper_124976\"] at fused[\"StatefulPartitionedCall:\", \"StatefulPartitionedCall_1\"]))): Error code: ERROR_NEEDS_FLEX_OPS\n<unknown>:0: error: loc(callsite(fused[\"Sigmoid:\", \"rgnet_practical_1/efficientnetv2-b0_1/block4a_se_expand_1/Sigmoid@__inference_function_123465\"] at callsite(fused[\"StatefulPartitionedCall:\", \"StatefulPartitionedCall@__inference_signature_wrapper_124976\"] at fused[\"StatefulPartitionedCall:\", \"StatefulPartitionedCall_1\"]))): 'tf.Sigmoid' op is neither a custom op nor a flex op\n<unknown>:0: note: loc(callsite(fused[\"StatefulPartitionedCall:\", \"StatefulPartitionedCall@__inference_signature_wrapper_124976\"] at fused[\"StatefulPartitionedCall:\", \"StatefulPartitionedCall_1\"])): called from\n<unknown>:0: note: loc(fused[\"StatefulPartitionedCall:\", \"StatefulPartitionedCall_1\"]): called from\n<unknown>:0: note: loc(callsite(fused[\"Sigmoid:\", \"rgnet_practical_1/efficientnetv2-b0_1/block4a_se_expand_1/Sigmoid@__inference_function_123465\"] at callsite(fused[\"StatefulPartitionedCall:\", \"StatefulPartitionedCall@__inference_signature_wrapper_124976\"] at fused[\"StatefulPartitionedCall:\", \"StatefulPartitionedCall_1\"]))): see current operation: %371 = \"tf.Sigmoid\"(%370) {device = \"\"} : (tensor<?x1x1x192xf16>) -> tensor<?x1x1x192xf16>\n<unknown>:0: note: loc(callsite(fused[\"Sigmoid:\", \"rgnet_practical_1/efficientnetv2-b0_1/block4a_se_expand_1/Sigmoid@__inference_function_123465\"] at callsite(fused[\"StatefulPartitionedCall:\", \"StatefulPartitionedCall@__inference_signature_wrapper_124976\"] at fused[\"StatefulPartitionedCall:\", \"StatefulPartitionedCall_1\"]))): Error code: ERROR_NEEDS_FLEX_OPS\n<unknown>:0: error: loc(callsite(fused[\"Mul:\", \"rgnet_practical_1/efficientnetv2-b0_1/block4a_se_excite_1/Mul@__inference_function_123465\"] at callsite(fused[\"StatefulPartitionedCall:\", \"StatefulPartitionedCall@__inference_signature_wrapper_124976\"] at fused[\"StatefulPartitionedCall:\", \"StatefulPartitionedCall_1\"]))): 'tf.Mul' op is neither a custom op nor a flex op\n<unknown>:0: note: loc(callsite(fused[\"StatefulPartitionedCall:\", \"StatefulPartitionedCall@__inference_signature_wrapper_124976\"] at fused[\"StatefulPartitionedCall:\", \"StatefulPartitionedCall_1\"])): called from\n<unknown>:0: note: loc(fused[\"StatefulPartitionedCall:\", \"StatefulPartitionedCall_1\"]): called from\n<unknown>:0: note: loc(callsite(fused[\"Mul:\", \"rgnet_practical_1/efficientnetv2-b0_1/block4a_se_excite_1/Mul@__inference_function_123465\"] at callsite(fused[\"StatefulPartitionedCall:\", \"StatefulPartitionedCall@__inference_signature_wrapper_124976\"] at fused[\"StatefulPartitionedCall:\", \"StatefulPartitionedCall_1\"]))): see current operation: %372 = \"tf.Mul\"(%357, %371) {device = \"\"} : (tensor<?x16x16x192xf16>, tensor<?x1x1x192xf16>) -> tensor<?x16x16x192xf16>\n<unknown>:0: note: loc(callsite(fused[\"Mul:\", \"rgnet_practical_1/efficientnetv2-b0_1/block4a_se_excite_1/Mul@__inference_function_123465\"] at callsite(fused[\"StatefulPartitionedCall:\", \"StatefulPartitionedCall@__inference_signature_wrapper_124976\"] at fused[\"StatefulPartitionedCall:\", \"StatefulPartitionedCall_1\"]))): Error code: ERROR_NEEDS_FLEX_OPS\n<unknown>:0: error: loc(callsite(fused[\"Conv2D:\", \"rgnet_practical_1/efficientnetv2-b0_1/block4a_project_conv_1/convolution@__inference_function_123465\"] at callsite(fused[\"StatefulPartitionedCall:\", \"StatefulPartitionedCall@__inference_signature_wrapper_124976\"] at fused[\"StatefulPartitionedCall:\", \"StatefulPartitionedCall_1\"]))): 'tf.Conv2D' op is neither a custom op nor a flex op\n<unknown>:0: note: loc(callsite(fused[\"StatefulPartitionedCall:\", \"StatefulPartitionedCall@__inference_signature_wrapper_124976\"] at fused[\"StatefulPartitionedCall:\", \"StatefulPartitionedCall_1\"])): called from\n<unknown>:0: note: loc(fused[\"StatefulPartitionedCall:\", \"StatefulPartitionedCall_1\"]): called from\n<unknown>:0: note: loc(callsite(fused[\"Conv2D:\", \"rgnet_practical_1/efficientnetv2-b0_1/block4a_project_conv_1/convolution@__inference_function_123465\"] at callsite(fused[\"StatefulPartitionedCall:\", \"StatefulPartitionedCall@__inference_signature_wrapper_124976\"] at fused[\"StatefulPartitionedCall:\", \"StatefulPartitionedCall_1\"]))): see current operation: %373 = \"tf.Conv2D\"(%372, %222) <{data_format = \"NHWC\", dilations = [1, 1, 1, 1], explicit_paddings = [], padding = \"SAME\", strides = [1, 1, 1, 1], use_cudnn_on_gpu = true}> {device = \"\"} : (tensor<?x16x16x192xf16>, tensor<1x1x192x96xf16>) -> tensor<?x16x16x96xf16>\n<unknown>:0: note: loc(callsite(fused[\"Conv2D:\", \"rgnet_practical_1/efficientnetv2-b0_1/block4a_project_conv_1/convolution@__inference_function_123465\"] at callsite(fused[\"StatefulPartitionedCall:\", \"StatefulPartitionedCall@__inference_signature_wrapper_124976\"] at fused[\"StatefulPartitionedCall:\", \"StatefulPartitionedCall_1\"]))): Error code: ERROR_NEEDS_FLEX_OPS\n<unknown>:0: error: loc(callsite(fused[\"Conv2D:\", \"rgnet_practical_1/efficientnetv2-b0_1/block4b_expand_conv_1/convolution@__inference_function_123465\"] at callsite(fused[\"StatefulPartitionedCall:\", \"StatefulPartitionedCall@__inference_signature_wrapper_124976\"] at fused[\"StatefulPartitionedCall:\", \"StatefulPartitionedCall_1\"]))): 'tf.Conv2D' op is neither a custom op nor a flex op\n<unknown>:0: note: loc(callsite(fused[\"StatefulPartitionedCall:\", \"StatefulPartitionedCall@__inference_signature_wrapper_124976\"] at fused[\"StatefulPartitionedCall:\", \"StatefulPartitionedCall_1\"])): called from\n<unknown>:0: note: loc(fused[\"StatefulPartitionedCall:\", \"StatefulPartitionedCall_1\"]): called from\n<unknown>:0: note: loc(callsite(fused[\"Conv2D:\", \"rgnet_practical_1/efficientnetv2-b0_1/block4b_expand_conv_1/convolution@__inference_function_123465\"] at callsite(fused[\"StatefulPartitionedCall:\", \"StatefulPartitionedCall@__inference_signature_wrapper_124976\"] at fused[\"StatefulPartitionedCall:\", \"StatefulPartitionedCall_1\"]))): see current operation: %378 = \"tf.Conv2D\"(%377, %212) <{data_format = \"NHWC\", dilations = [1, 1, 1, 1], explicit_paddings = [], padding = \"SAME\", strides = [1, 1, 1, 1], use_cudnn_on_gpu = true}> {device = \"\"} : (tensor<?x16x16x96xf16>, tensor<1x1x96x384xf16>) -> tensor<?x16x16x384xf16>\n<unknown>:0: note: loc(callsite(fused[\"Conv2D:\", \"rgnet_practical_1/efficientnetv2-b0_1/block4b_expand_conv_1/convolution@__inference_function_123465\"] at callsite(fused[\"StatefulPartitionedCall:\", \"StatefulPartitionedCall@__inference_signature_wrapper_124976\"] at fused[\"StatefulPartitionedCall:\", \"StatefulPartitionedCall_1\"]))): Error code: ERROR_NEEDS_FLEX_OPS\n<unknown>:0: error: loc(callsite(fused[\"Sigmoid:\", \"rgnet_practical_1/efficientnetv2-b0_1/block4b_expand_activation_1/Sigmoid@__inference_function_123465\"] at callsite(fused[\"StatefulPartitionedCall:\", \"StatefulPartitionedCall@__inference_signature_wrapper_124976\"] at fused[\"StatefulPartitionedCall:\", \"StatefulPartitionedCall_1\"]))): 'tf.Sigmoid' op is neither a custom op nor a flex op\n<unknown>:0: note: loc(callsite(fused[\"StatefulPartitionedCall:\", \"StatefulPartitionedCall@__inference_signature_wrapper_124976\"] at fused[\"StatefulPartitionedCall:\", \"StatefulPartitionedCall_1\"])): called from\n<unknown>:0: note: loc(fused[\"StatefulPartitionedCall:\", \"StatefulPartitionedCall_1\"]): called from\n<unknown>:0: note: loc(callsite(fused[\"Sigmoid:\", \"rgnet_practical_1/efficientnetv2-b0_1/block4b_expand_activation_1/Sigmoid@__inference_function_123465\"] at callsite(fused[\"StatefulPartitionedCall:\", \"StatefulPartitionedCall@__inference_signature_wrapper_124976\"] at fused[\"StatefulPartitionedCall:\", \"StatefulPartitionedCall_1\"]))): see current operation: %383 = \"tf.Sigmoid\"(%382) {device = \"\"} : (tensor<?x16x16x384xf16>) -> tensor<?x16x16x384xf16>\n<unknown>:0: note: loc(callsite(fused[\"Sigmoid:\", \"rgnet_practical_1/efficientnetv2-b0_1/block4b_expand_activation_1/Sigmoid@__inference_function_123465\"] at callsite(fused[\"StatefulPartitionedCall:\", \"StatefulPartitionedCall@__inference_signature_wrapper_124976\"] at fused[\"StatefulPartitionedCall:\", \"StatefulPartitionedCall_1\"]))): Error code: ERROR_NEEDS_FLEX_OPS\n<unknown>:0: error: loc(callsite(fused[\"Mul:\", \"rgnet_practical_1/efficientnetv2-b0_1/block4b_expand_activation_1/mul_1@__inference_function_123465\"] at callsite(fused[\"StatefulPartitionedCall:\", \"StatefulPartitionedCall@__inference_signature_wrapper_124976\"] at fused[\"StatefulPartitionedCall:\", \"StatefulPartitionedCall_1\"]))): 'tf.Mul' op is neither a custom op nor a flex op\n<unknown>:0: note: loc(callsite(fused[\"StatefulPartitionedCall:\", \"StatefulPartitionedCall@__inference_signature_wrapper_124976\"] at fused[\"StatefulPartitionedCall:\", \"StatefulPartitionedCall_1\"])): called from\n<unknown>:0: note: loc(fused[\"StatefulPartitionedCall:\", \"StatefulPartitionedCall_1\"]): called from\n<unknown>:0: note: loc(callsite(fused[\"Mul:\", \"rgnet_practical_1/efficientnetv2-b0_1/block4b_expand_activation_1/mul_1@__inference_function_123465\"] at callsite(fused[\"StatefulPartitionedCall:\", \"StatefulPartitionedCall@__inference_signature_wrapper_124976\"] at fused[\"StatefulPartitionedCall:\", \"StatefulPartitionedCall_1\"]))): see current operation: %384 = \"tf.Mul\"(%382, %383) {device = \"\"} : (tensor<?x16x16x384xf16>, tensor<?x16x16x384xf16>) -> tensor<?x16x16x384xf16>\n<unknown>:0: note: loc(callsite(fused[\"Mul:\", \"rgnet_practical_1/efficientnetv2-b0_1/block4b_expand_activation_1/mul_1@__inference_function_123465\"] at callsite(fused[\"StatefulPartitionedCall:\", \"StatefulPartitionedCall@__inference_signature_wrapper_124976\"] at fused[\"StatefulPartitionedCall:\", \"StatefulPartitionedCall_1\"]))): Error code: ERROR_NEEDS_FLEX_OPS\n<unknown>:0: error: loc(callsite(fused[\"DepthwiseConv2dNative:\", \"rgnet_practical_1/efficientnetv2-b0_1/block4b_dwconv2_1/depthwise@__inference_function_123465\"] at callsite(fused[\"StatefulPartitionedCall:\", \"StatefulPartitionedCall@__inference_signature_wrapper_124976\"] at fused[\"StatefulPartitionedCall:\", \"StatefulPartitionedCall_1\"]))): 'tf.DepthwiseConv2dNative' op is neither a custom op nor a flex op\n<unknown>:0: note: loc(callsite(fused[\"StatefulPartitionedCall:\", \"StatefulPartitionedCall@__inference_signature_wrapper_124976\"] at fused[\"StatefulPartitionedCall:\", \"StatefulPartitionedCall_1\"])): called from\n<unknown>:0: note: loc(fused[\"StatefulPartitionedCall:\", \"StatefulPartitionedCall_1\"]): called from\n<unknown>:0: note: loc(callsite(fused[\"DepthwiseConv2dNative:\", \"rgnet_practical_1/efficientnetv2-b0_1/block4b_dwconv2_1/depthwise@__inference_function_123465\"] at callsite(fused[\"StatefulPartitionedCall:\", \"StatefulPartitionedCall@__inference_signature_wrapper_124976\"] at fused[\"StatefulPartitionedCall:\", \"StatefulPartitionedCall_1\"]))): see current operation: %385 = \"tf.DepthwiseConv2dNative\"(%384, %215) <{data_format = \"NHWC\", dilations = [1, 1, 1, 1], explicit_paddings = [], padding = \"SAME\", strides = [1, 1, 1, 1]}> {device = \"\"} : (tensor<?x16x16x384xf16>, tensor<3x3x384x1xf16>) -> tensor<?x16x16x384xf16>\n<unknown>:0: note: loc(callsite(fused[\"DepthwiseConv2dNative:\", \"rgnet_practical_1/efficientnetv2-b0_1/block4b_dwconv2_1/depthwise@__inference_function_123465\"] at callsite(fused[\"StatefulPartitionedCall:\", \"StatefulPartitionedCall@__inference_signature_wrapper_124976\"] at fused[\"StatefulPartitionedCall:\", \"StatefulPartitionedCall_1\"]))): Error code: ERROR_NEEDS_FLEX_OPS\n<unknown>:0: error: loc(callsite(fused[\"Sigmoid:\", \"rgnet_practical_1/efficientnetv2-b0_1/block4b_activation_1/Sigmoid@__inference_function_123465\"] at callsite(fused[\"StatefulPartitionedCall:\", \"StatefulPartitionedCall@__inference_signature_wrapper_124976\"] at fused[\"StatefulPartitionedCall:\", \"StatefulPartitionedCall_1\"]))): 'tf.Sigmoid' op is neither a custom op nor a flex op\n<unknown>:0: note: loc(callsite(fused[\"StatefulPartitionedCall:\", \"StatefulPartitionedCall@__inference_signature_wrapper_124976\"] at fused[\"StatefulPartitionedCall:\", \"StatefulPartitionedCall_1\"])): called from\n<unknown>:0: note: loc(fused[\"StatefulPartitionedCall:\", \"StatefulPartitionedCall_1\"]): called from\n<unknown>:0: note: loc(callsite(fused[\"Sigmoid:\", \"rgnet_practical_1/efficientnetv2-b0_1/block4b_activation_1/Sigmoid@__inference_function_123465\"] at callsite(fused[\"StatefulPartitionedCall:\", \"StatefulPartitionedCall@__inference_signature_wrapper_124976\"] at fused[\"StatefulPartitionedCall:\", \"StatefulPartitionedCall_1\"]))): see current operation: %390 = \"tf.Sigmoid\"(%389) {device = \"\"} : (tensor<?x16x16x384xf16>) -> tensor<?x16x16x384xf16>\n<unknown>:0: note: loc(callsite(fused[\"Sigmoid:\", \"rgnet_practical_1/efficientnetv2-b0_1/block4b_activation_1/Sigmoid@__inference_function_123465\"] at callsite(fused[\"StatefulPartitionedCall:\", \"StatefulPartitionedCall@__inference_signature_wrapper_124976\"] at fused[\"StatefulPartitionedCall:\", \"StatefulPartitionedCall_1\"]))): Error code: ERROR_NEEDS_FLEX_OPS\n<unknown>:0: error: loc(callsite(fused[\"Mul:\", \"rgnet_practical_1/efficientnetv2-b0_1/block4b_activation_1/mul_1@__inference_function_123465\"] at callsite(fused[\"StatefulPartitionedCall:\", \"StatefulPartitionedCall@__inference_signature_wrapper_124976\"] at fused[\"StatefulPartitionedCall:\", \"StatefulPartitionedCall_1\"]))): 'tf.Mul' op is neither a custom op nor a flex op\n<unknown>:0: note: loc(callsite(fused[\"StatefulPartitionedCall:\", \"StatefulPartitionedCall@__inference_signature_wrapper_124976\"] at fused[\"StatefulPartitionedCall:\", \"StatefulPartitionedCall_1\"])): called from\n<unknown>:0: note: loc(fused[\"StatefulPartitionedCall:\", \"StatefulPartitionedCall_1\"]): called from\n<unknown>:0: note: loc(callsite(fused[\"Mul:\", \"rgnet_practical_1/efficientnetv2-b0_1/block4b_activation_1/mul_1@__inference_function_123465\"] at callsite(fused[\"StatefulPartitionedCall:\", \"StatefulPartitionedCall@__inference_signature_wrapper_124976\"] at fused[\"StatefulPartitionedCall:\", \"StatefulPartitionedCall_1\"]))): see current operation: %391 = \"tf.Mul\"(%389, %390) {device = \"\"} : (tensor<?x16x16x384xf16>, tensor<?x16x16x384xf16>) -> tensor<?x16x16x384xf16>\n<unknown>:0: note: loc(callsite(fused[\"Mul:\", \"rgnet_practical_1/efficientnetv2-b0_1/block4b_activation_1/mul_1@__inference_function_123465\"] at callsite(fused[\"StatefulPartitionedCall:\", \"StatefulPartitionedCall@__inference_signature_wrapper_124976\"] at fused[\"StatefulPartitionedCall:\", \"StatefulPartitionedCall_1\"]))): Error code: ERROR_NEEDS_FLEX_OPS\n<unknown>:0: error: loc(callsite(fused[\"Conv2D:\", \"rgnet_practical_1/efficientnetv2-b0_1/block4b_se_reduce_1/convolution@__inference_function_123465\"] at callsite(fused[\"StatefulPartitionedCall:\", \"StatefulPartitionedCall@__inference_signature_wrapper_124976\"] at fused[\"StatefulPartitionedCall:\", \"StatefulPartitionedCall_1\"]))): 'tf.Conv2D' op is neither a custom op nor a flex op\n<unknown>:0: note: loc(callsite(fused[\"StatefulPartitionedCall:\", \"StatefulPartitionedCall@__inference_signature_wrapper_124976\"] at fused[\"StatefulPartitionedCall:\", \"StatefulPartitionedCall_1\"])): called from\n<unknown>:0: note: loc(fused[\"StatefulPartitionedCall:\", \"StatefulPartitionedCall_1\"]): called from\n<unknown>:0: note: loc(callsite(fused[\"Conv2D:\", \"rgnet_practical_1/efficientnetv2-b0_1/block4b_se_reduce_1/convolution@__inference_function_123465\"] at callsite(fused[\"StatefulPartitionedCall:\", \"StatefulPartitionedCall@__inference_signature_wrapper_124976\"] at fused[\"StatefulPartitionedCall:\", \"StatefulPartitionedCall_1\"]))): see current operation: %399 = \"tf.Conv2D\"(%398, %206) <{data_format = \"NHWC\", dilations = [1, 1, 1, 1], explicit_paddings = [], padding = \"SAME\", strides = [1, 1, 1, 1], use_cudnn_on_gpu = true}> {device = \"\"} : (tensor<?x1x1x384xf16>, tensor<1x1x384x24xf16>) -> tensor<?x1x1x24xf16>\n<unknown>:0: note: loc(callsite(fused[\"Conv2D:\", \"rgnet_practical_1/efficientnetv2-b0_1/block4b_se_reduce_1/convolution@__inference_function_123465\"] at callsite(fused[\"StatefulPartitionedCall:\", \"StatefulPartitionedCall@__inference_signature_wrapper_124976\"] at fused[\"StatefulPartitionedCall:\", \"StatefulPartitionedCall_1\"]))): Error code: ERROR_NEEDS_FLEX_OPS\n<unknown>:0: error: loc(callsite(fused[\"BiasAdd:\", \"rgnet_practical_1/efficientnetv2-b0_1/block4b_se_reduce_1/BiasAdd@__inference_function_123465\"] at callsite(fused[\"StatefulPartitionedCall:\", \"StatefulPartitionedCall@__inference_signature_wrapper_124976\"] at fused[\"StatefulPartitionedCall:\", \"StatefulPartitionedCall_1\"]))): 'tf.BiasAdd' op is neither a custom op nor a flex op\n<unknown>:0: note: loc(callsite(fused[\"StatefulPartitionedCall:\", \"StatefulPartitionedCall@__inference_signature_wrapper_124976\"] at fused[\"StatefulPartitionedCall:\", \"StatefulPartitionedCall_1\"])): called from\n<unknown>:0: note: loc(fused[\"StatefulPartitionedCall:\", \"StatefulPartitionedCall_1\"]): called from\n<unknown>:0: note: loc(callsite(fused[\"BiasAdd:\", \"rgnet_practical_1/efficientnetv2-b0_1/block4b_se_reduce_1/BiasAdd@__inference_function_123465\"] at callsite(fused[\"StatefulPartitionedCall:\", \"StatefulPartitionedCall@__inference_signature_wrapper_124976\"] at fused[\"StatefulPartitionedCall:\", \"StatefulPartitionedCall_1\"]))): see current operation: %400 = \"tf.BiasAdd\"(%399, %205) <{data_format = \"NHWC\"}> {device = \"\"} : (tensor<?x1x1x24xf16>, tensor<24xf16>) -> tensor<?x1x1x24xf16>\n<unknown>:0: note: loc(callsite(fused[\"BiasAdd:\", \"rgnet_practical_1/efficientnetv2-b0_1/block4b_se_reduce_1/BiasAdd@__inference_function_123465\"] at callsite(fused[\"StatefulPartitionedCall:\", \"StatefulPartitionedCall@__inference_signature_wrapper_124976\"] at fused[\"StatefulPartitionedCall:\", \"StatefulPartitionedCall_1\"]))): Error code: ERROR_NEEDS_FLEX_OPS\n<unknown>:0: error: loc(callsite(fused[\"Sigmoid:\", \"rgnet_practical_1/efficientnetv2-b0_1/block4b_se_reduce_1/Sigmoid@__inference_function_123465\"] at callsite(fused[\"StatefulPartitionedCall:\", \"StatefulPartitionedCall@__inference_signature_wrapper_124976\"] at fused[\"StatefulPartitionedCall:\", \"StatefulPartitionedCall_1\"]))): 'tf.Sigmoid' op is neither a custom op nor a flex op\n<unknown>:0: note: loc(callsite(fused[\"StatefulPartitionedCall:\", \"StatefulPartitionedCall@__inference_signature_wrapper_124976\"] at fused[\"StatefulPartitionedCall:\", \"StatefulPartitionedCall_1\"])): called from\n<unknown>:0: note: loc(fused[\"StatefulPartitionedCall:\", \"StatefulPartitionedCall_1\"]): called from\n<unknown>:0: note: loc(callsite(fused[\"Sigmoid:\", \"rgnet_practical_1/efficientnetv2-b0_1/block4b_se_reduce_1/Sigmoid@__inference_function_123465\"] at callsite(fused[\"StatefulPartitionedCall:\", \"StatefulPartitionedCall@__inference_signature_wrapper_124976\"] at fused[\"StatefulPartitionedCall:\", \"StatefulPartitionedCall_1\"]))): see current operation: %401 = \"tf.Sigmoid\"(%400) {device = \"\"} : (tensor<?x1x1x24xf16>) -> tensor<?x1x1x24xf16>\n<unknown>:0: note: loc(callsite(fused[\"Sigmoid:\", \"rgnet_practical_1/efficientnetv2-b0_1/block4b_se_reduce_1/Sigmoid@__inference_function_123465\"] at callsite(fused[\"StatefulPartitionedCall:\", \"StatefulPartitionedCall@__inference_signature_wrapper_124976\"] at fused[\"StatefulPartitionedCall:\", \"StatefulPartitionedCall_1\"]))): Error code: ERROR_NEEDS_FLEX_OPS\n<unknown>:0: error: loc(callsite(fused[\"Mul:\", \"rgnet_practical_1/efficientnetv2-b0_1/block4b_se_reduce_1/mul_1@__inference_function_123465\"] at callsite(fused[\"StatefulPartitionedCall:\", \"StatefulPartitionedCall@__inference_signature_wrapper_124976\"] at fused[\"StatefulPartitionedCall:\", \"StatefulPartitionedCall_1\"]))): 'tf.Mul' op is neither a custom op nor a flex op\n<unknown>:0: note: loc(callsite(fused[\"StatefulPartitionedCall:\", \"StatefulPartitionedCall@__inference_signature_wrapper_124976\"] at fused[\"StatefulPartitionedCall:\", \"StatefulPartitionedCall_1\"])): called from\n<unknown>:0: note: loc(fused[\"StatefulPartitionedCall:\", \"StatefulPartitionedCall_1\"]): called from\n<unknown>:0: note: loc(callsite(fused[\"Mul:\", \"rgnet_practical_1/efficientnetv2-b0_1/block4b_se_reduce_1/mul_1@__inference_function_123465\"] at callsite(fused[\"StatefulPartitionedCall:\", \"StatefulPartitionedCall@__inference_signature_wrapper_124976\"] at fused[\"StatefulPartitionedCall:\", \"StatefulPartitionedCall_1\"]))): see current operation: %402 = \"tf.Mul\"(%400, %401) {device = \"\"} : (tensor<?x1x1x24xf16>, tensor<?x1x1x24xf16>) -> tensor<?x1x1x24xf16>\n<unknown>:0: note: loc(callsite(fused[\"Mul:\", \"rgnet_practical_1/efficientnetv2-b0_1/block4b_se_reduce_1/mul_1@__inference_function_123465\"] at callsite(fused[\"StatefulPartitionedCall:\", \"StatefulPartitionedCall@__inference_signature_wrapper_124976\"] at fused[\"StatefulPartitionedCall:\", \"StatefulPartitionedCall_1\"]))): Error code: ERROR_NEEDS_FLEX_OPS\n<unknown>:0: error: loc(callsite(fused[\"Conv2D:\", \"rgnet_practical_1/efficientnetv2-b0_1/block4b_se_expand_1/convolution@__inference_function_123465\"] at callsite(fused[\"StatefulPartitionedCall:\", \"StatefulPartitionedCall@__inference_signature_wrapper_124976\"] at fused[\"StatefulPartitionedCall:\", \"StatefulPartitionedCall_1\"]))): 'tf.Conv2D' op is neither a custom op nor a flex op\n<unknown>:0: note: loc(callsite(fused[\"StatefulPartitionedCall:\", \"StatefulPartitionedCall@__inference_signature_wrapper_124976\"] at fused[\"StatefulPartitionedCall:\", \"StatefulPartitionedCall_1\"])): called from\n<unknown>:0: note: loc(fused[\"StatefulPartitionedCall:\", \"StatefulPartitionedCall_1\"]): called from\n<unknown>:0: note: loc(callsite(fused[\"Conv2D:\", \"rgnet_practical_1/efficientnetv2-b0_1/block4b_se_expand_1/convolution@__inference_function_123465\"] at callsite(fused[\"StatefulPartitionedCall:\", \"StatefulPartitionedCall@__inference_signature_wrapper_124976\"] at fused[\"StatefulPartitionedCall:\", \"StatefulPartitionedCall_1\"]))): see current operation: %403 = \"tf.Conv2D\"(%402, %208) <{data_format = \"NHWC\", dilations = [1, 1, 1, 1], explicit_paddings = [], padding = \"SAME\", strides = [1, 1, 1, 1], use_cudnn_on_gpu = true}> {device = \"\"} : (tensor<?x1x1x24xf16>, tensor<1x1x24x384xf16>) -> tensor<?x1x1x384xf16>\n<unknown>:0: note: loc(callsite(fused[\"Conv2D:\", \"rgnet_practical_1/efficientnetv2-b0_1/block4b_se_expand_1/convolution@__inference_function_123465\"] at callsite(fused[\"StatefulPartitionedCall:\", \"StatefulPartitionedCall@__inference_signature_wrapper_124976\"] at fused[\"StatefulPartitionedCall:\", \"StatefulPartitionedCall_1\"]))): Error code: ERROR_NEEDS_FLEX_OPS\n<unknown>:0: error: loc(callsite(fused[\"BiasAdd:\", \"rgnet_practical_1/efficientnetv2-b0_1/block4b_se_expand_1/BiasAdd@__inference_function_123465\"] at callsite(fused[\"StatefulPartitionedCall:\", \"StatefulPartitionedCall@__inference_signature_wrapper_124976\"] at fused[\"StatefulPartitionedCall:\", \"StatefulPartitionedCall_1\"]))): 'tf.BiasAdd' op is neither a custom op nor a flex op\n<unknown>:0: note: loc(callsite(fused[\"StatefulPartitionedCall:\", \"StatefulPartitionedCall@__inference_signature_wrapper_124976\"] at fused[\"StatefulPartitionedCall:\", \"StatefulPartitionedCall_1\"])): called from\n<unknown>:0: note: loc(fused[\"StatefulPartitionedCall:\", \"StatefulPartitionedCall_1\"]): called from\n<unknown>:0: note: loc(callsite(fused[\"BiasAdd:\", \"rgnet_practical_1/efficientnetv2-b0_1/block4b_se_expand_1/BiasAdd@__inference_function_123465\"] at callsite(fused[\"StatefulPartitionedCall:\", \"StatefulPartitionedCall@__inference_signature_wrapper_124976\"] at fused[\"StatefulPartitionedCall:\", \"StatefulPartitionedCall_1\"]))): see current operation: %404 = \"tf.BiasAdd\"(%403, %207) <{data_format = \"NHWC\"}> {device = \"\"} : (tensor<?x1x1x384xf16>, tensor<384xf16>) -> tensor<?x1x1x384xf16>\n<unknown>:0: note: loc(callsite(fused[\"BiasAdd:\", \"rgnet_practical_1/efficientnetv2-b0_1/block4b_se_expand_1/BiasAdd@__inference_function_123465\"] at callsite(fused[\"StatefulPartitionedCall:\", \"StatefulPartitionedCall@__inference_signature_wrapper_124976\"] at fused[\"StatefulPartitionedCall:\", \"StatefulPartitionedCall_1\"]))): Error code: ERROR_NEEDS_FLEX_OPS\n<unknown>:0: error: loc(callsite(fused[\"Sigmoid:\", \"rgnet_practical_1/efficientnetv2-b0_1/block4b_se_expand_1/Sigmoid@__inference_function_123465\"] at callsite(fused[\"StatefulPartitionedCall:\", \"StatefulPartitionedCall@__inference_signature_wrapper_124976\"] at fused[\"StatefulPartitionedCall:\", \"StatefulPartitionedCall_1\"]))): 'tf.Sigmoid' op is neither a custom op nor a flex op\n<unknown>:0: note: loc(callsite(fused[\"StatefulPartitionedCall:\", \"StatefulPartitionedCall@__inference_signature_wrapper_124976\"] at fused[\"StatefulPartitionedCall:\", \"StatefulPartitionedCall_1\"])): called from\n<unknown>:0: note: loc(fused[\"StatefulPartitionedCall:\", \"StatefulPartitionedCall_1\"]): called from\n<unknown>:0: note: loc(callsite(fused[\"Sigmoid:\", \"rgnet_practical_1/efficientnetv2-b0_1/block4b_se_expand_1/Sigmoid@__inference_function_123465\"] at callsite(fused[\"StatefulPartitionedCall:\", \"StatefulPartitionedCall@__inference_signature_wrapper_124976\"] at fused[\"StatefulPartitionedCall:\", \"StatefulPartitionedCall_1\"]))): see current operation: %405 = \"tf.Sigmoid\"(%404) {device = \"\"} : (tensor<?x1x1x384xf16>) -> tensor<?x1x1x384xf16>\n<unknown>:0: note: loc(callsite(fused[\"Sigmoid:\", \"rgnet_practical_1/efficientnetv2-b0_1/block4b_se_expand_1/Sigmoid@__inference_function_123465\"] at callsite(fused[\"StatefulPartitionedCall:\", \"StatefulPartitionedCall@__inference_signature_wrapper_124976\"] at fused[\"StatefulPartitionedCall:\", \"StatefulPartitionedCall_1\"]))): Error code: ERROR_NEEDS_FLEX_OPS\n<unknown>:0: error: loc(callsite(fused[\"Mul:\", \"rgnet_practical_1/efficientnetv2-b0_1/block4b_se_excite_1/Mul@__inference_function_123465\"] at callsite(fused[\"StatefulPartitionedCall:\", \"StatefulPartitionedCall@__inference_signature_wrapper_124976\"] at fused[\"StatefulPartitionedCall:\", \"StatefulPartitionedCall_1\"]))): 'tf.Mul' op is neither a custom op nor a flex op\n<unknown>:0: note: loc(callsite(fused[\"StatefulPartitionedCall:\", \"StatefulPartitionedCall@__inference_signature_wrapper_124976\"] at fused[\"StatefulPartitionedCall:\", \"StatefulPartitionedCall_1\"])): called from\n<unknown>:0: note: loc(fused[\"StatefulPartitionedCall:\", \"StatefulPartitionedCall_1\"]): called from\n<unknown>:0: note: loc(callsite(fused[\"Mul:\", \"rgnet_practical_1/efficientnetv2-b0_1/block4b_se_excite_1/Mul@__inference_function_123465\"] at callsite(fused[\"StatefulPartitionedCall:\", \"StatefulPartitionedCall@__inference_signature_wrapper_124976\"] at fused[\"StatefulPartitionedCall:\", \"StatefulPartitionedCall_1\"]))): see current operation: %406 = \"tf.Mul\"(%391, %405) {device = \"\"} : (tensor<?x16x16x384xf16>, tensor<?x1x1x384xf16>) -> tensor<?x16x16x384xf16>\n<unknown>:0: note: loc(callsite(fused[\"Mul:\", \"rgnet_practical_1/efficientnetv2-b0_1/block4b_se_excite_1/Mul@__inference_function_123465\"] at callsite(fused[\"StatefulPartitionedCall:\", \"StatefulPartitionedCall@__inference_signature_wrapper_124976\"] at fused[\"StatefulPartitionedCall:\", \"StatefulPartitionedCall_1\"]))): Error code: ERROR_NEEDS_FLEX_OPS\n<unknown>:0: error: loc(callsite(fused[\"Conv2D:\", \"rgnet_practical_1/efficientnetv2-b0_1/block4b_project_conv_1/convolution@__inference_function_123465\"] at callsite(fused[\"StatefulPartitionedCall:\", \"StatefulPartitionedCall@__inference_signature_wrapper_124976\"] at fused[\"StatefulPartitionedCall:\", \"StatefulPartitionedCall_1\"]))): 'tf.Conv2D' op is neither a custom op nor a flex op\n<unknown>:0: note: loc(callsite(fused[\"StatefulPartitionedCall:\", \"StatefulPartitionedCall@__inference_signature_wrapper_124976\"] at fused[\"StatefulPartitionedCall:\", \"StatefulPartitionedCall_1\"])): called from\n<unknown>:0: note: loc(fused[\"StatefulPartitionedCall:\", \"StatefulPartitionedCall_1\"]): called from\n<unknown>:0: note: loc(callsite(fused[\"Conv2D:\", \"rgnet_practical_1/efficientnetv2-b0_1/block4b_project_conv_1/convolution@__inference_function_123465\"] at callsite(fused[\"StatefulPartitionedCall:\", \"StatefulPartitionedCall@__inference_signature_wrapper_124976\"] at fused[\"StatefulPartitionedCall:\", \"StatefulPartitionedCall_1\"]))): see current operation: %407 = \"tf.Conv2D\"(%406, %209) <{data_format = \"NHWC\", dilations = [1, 1, 1, 1], explicit_paddings = [], padding = \"SAME\", strides = [1, 1, 1, 1], use_cudnn_on_gpu = true}> {device = \"\"} : (tensor<?x16x16x384xf16>, tensor<1x1x384x96xf16>) -> tensor<?x16x16x96xf16>\n<unknown>:0: note: loc(callsite(fused[\"Conv2D:\", \"rgnet_practical_1/efficientnetv2-b0_1/block4b_project_conv_1/convolution@__inference_function_123465\"] at callsite(fused[\"StatefulPartitionedCall:\", \"StatefulPartitionedCall@__inference_signature_wrapper_124976\"] at fused[\"StatefulPartitionedCall:\", \"StatefulPartitionedCall_1\"]))): Error code: ERROR_NEEDS_FLEX_OPS\n<unknown>:0: error: loc(callsite(fused[\"AddV2:\", \"rgnet_practical_1/efficientnetv2-b0_1/block4b_add_1/Add@__inference_function_123465\"] at callsite(fused[\"StatefulPartitionedCall:\", \"StatefulPartitionedCall@__inference_signature_wrapper_124976\"] at fused[\"StatefulPartitionedCall:\", \"StatefulPartitionedCall_1\"]))): 'tf.AddV2' op is neither a custom op nor a flex op\n<unknown>:0: note: loc(callsite(fused[\"StatefulPartitionedCall:\", \"StatefulPartitionedCall@__inference_signature_wrapper_124976\"] at fused[\"StatefulPartitionedCall:\", \"StatefulPartitionedCall_1\"])): called from\n<unknown>:0: note: loc(fused[\"StatefulPartitionedCall:\", \"StatefulPartitionedCall_1\"]): called from\n<unknown>:0: note: loc(callsite(fused[\"AddV2:\", \"rgnet_practical_1/efficientnetv2-b0_1/block4b_add_1/Add@__inference_function_123465\"] at callsite(fused[\"StatefulPartitionedCall:\", \"StatefulPartitionedCall@__inference_signature_wrapper_124976\"] at fused[\"StatefulPartitionedCall:\", \"StatefulPartitionedCall_1\"]))): see current operation: %412 = \"tf.AddV2\"(%411, %377) {device = \"\"} : (tensor<?x16x16x96xf16>, tensor<?x16x16x96xf16>) -> tensor<?x16x16x96xf16>\n<unknown>:0: note: loc(callsite(fused[\"AddV2:\", \"rgnet_practical_1/efficientnetv2-b0_1/block4b_add_1/Add@__inference_function_123465\"] at callsite(fused[\"StatefulPartitionedCall:\", \"StatefulPartitionedCall@__inference_signature_wrapper_124976\"] at fused[\"StatefulPartitionedCall:\", \"StatefulPartitionedCall_1\"]))): Error code: ERROR_NEEDS_FLEX_OPS\n<unknown>:0: error: loc(callsite(fused[\"Conv2D:\", \"rgnet_practical_1/efficientnetv2-b0_1/block4c_expand_conv_1/convolution@__inference_function_123465\"] at callsite(fused[\"StatefulPartitionedCall:\", \"StatefulPartitionedCall@__inference_signature_wrapper_124976\"] at fused[\"StatefulPartitionedCall:\", \"StatefulPartitionedCall_1\"]))): 'tf.Conv2D' op is neither a custom op nor a flex op\n<unknown>:0: note: loc(callsite(fused[\"StatefulPartitionedCall:\", \"StatefulPartitionedCall@__inference_signature_wrapper_124976\"] at fused[\"StatefulPartitionedCall:\", \"StatefulPartitionedCall_1\"])): called from\n<unknown>:0: note: loc(fused[\"StatefulPartitionedCall:\", \"StatefulPartitionedCall_1\"]): called from\n<unknown>:0: note: loc(callsite(fused[\"Conv2D:\", \"rgnet_practical_1/efficientnetv2-b0_1/block4c_expand_conv_1/convolution@__inference_function_123465\"] at callsite(fused[\"StatefulPartitionedCall:\", \"StatefulPartitionedCall@__inference_signature_wrapper_124976\"] at fused[\"StatefulPartitionedCall:\", \"StatefulPartitionedCall_1\"]))): see current operation: %413 = \"tf.Conv2D\"(%412, %199) <{data_format = \"NHWC\", dilations = [1, 1, 1, 1], explicit_paddings = [], padding = \"SAME\", strides = [1, 1, 1, 1], use_cudnn_on_gpu = true}> {device = \"\"} : (tensor<?x16x16x96xf16>, tensor<1x1x96x384xf16>) -> tensor<?x16x16x384xf16>\n<unknown>:0: note: loc(callsite(fused[\"Conv2D:\", \"rgnet_practical_1/efficientnetv2-b0_1/block4c_expand_conv_1/convolution@__inference_function_123465\"] at callsite(fused[\"StatefulPartitionedCall:\", \"StatefulPartitionedCall@__inference_signature_wrapper_124976\"] at fused[\"StatefulPartitionedCall:\", \"StatefulPartitionedCall_1\"]))): Error code: ERROR_NEEDS_FLEX_OPS\n<unknown>:0: error: loc(callsite(fused[\"Sigmoid:\", \"rgnet_practical_1/efficientnetv2-b0_1/block4c_expand_activation_1/Sigmoid@__inference_function_123465\"] at callsite(fused[\"StatefulPartitionedCall:\", \"StatefulPartitionedCall@__inference_signature_wrapper_124976\"] at fused[\"StatefulPartitionedCall:\", \"StatefulPartitionedCall_1\"]))): 'tf.Sigmoid' op is neither a custom op nor a flex op\n<unknown>:0: note: loc(callsite(fused[\"StatefulPartitionedCall:\", \"StatefulPartitionedCall@__inference_signature_wrapper_124976\"] at fused[\"StatefulPartitionedCall:\", \"StatefulPartitionedCall_1\"])): called from\n<unknown>:0: note: loc(fused[\"StatefulPartitionedCall:\", \"StatefulPartitionedCall_1\"]): called from\n<unknown>:0: note: loc(callsite(fused[\"Sigmoid:\", \"rgnet_practical_1/efficientnetv2-b0_1/block4c_expand_activation_1/Sigmoid@__inference_function_123465\"] at callsite(fused[\"StatefulPartitionedCall:\", \"StatefulPartitionedCall@__inference_signature_wrapper_124976\"] at fused[\"StatefulPartitionedCall:\", \"StatefulPartitionedCall_1\"]))): see current operation: %418 = \"tf.Sigmoid\"(%417) {device = \"\"} : (tensor<?x16x16x384xf16>) -> tensor<?x16x16x384xf16>\n<unknown>:0: note: loc(callsite(fused[\"Sigmoid:\", \"rgnet_practical_1/efficientnetv2-b0_1/block4c_expand_activation_1/Sigmoid@__inference_function_123465\"] at callsite(fused[\"StatefulPartitionedCall:\", \"StatefulPartitionedCall@__inference_signature_wrapper_124976\"] at fused[\"StatefulPartitionedCall:\", \"StatefulPartitionedCall_1\"]))): Error code: ERROR_NEEDS_FLEX_OPS\n<unknown>:0: error: loc(callsite(fused[\"Mul:\", \"rgnet_practical_1/efficientnetv2-b0_1/block4c_expand_activation_1/mul_1@__inference_function_123465\"] at callsite(fused[\"StatefulPartitionedCall:\", \"StatefulPartitionedCall@__inference_signature_wrapper_124976\"] at fused[\"StatefulPartitionedCall:\", \"StatefulPartitionedCall_1\"]))): 'tf.Mul' op is neither a custom op nor a flex op\n<unknown>:0: note: loc(callsite(fused[\"StatefulPartitionedCall:\", \"StatefulPartitionedCall@__inference_signature_wrapper_124976\"] at fused[\"StatefulPartitionedCall:\", \"StatefulPartitionedCall_1\"])): called from\n<unknown>:0: note: loc(fused[\"StatefulPartitionedCall:\", \"StatefulPartitionedCall_1\"]): called from\n<unknown>:0: note: loc(callsite(fused[\"Mul:\", \"rgnet_practical_1/efficientnetv2-b0_1/block4c_expand_activation_1/mul_1@__inference_function_123465\"] at callsite(fused[\"StatefulPartitionedCall:\", \"StatefulPartitionedCall@__inference_signature_wrapper_124976\"] at fused[\"StatefulPartitionedCall:\", \"StatefulPartitionedCall_1\"]))): see current operation: %419 = \"tf.Mul\"(%417, %418) {device = \"\"} : (tensor<?x16x16x384xf16>, tensor<?x16x16x384xf16>) -> tensor<?x16x16x384xf16>\n<unknown>:0: note: loc(callsite(fused[\"Mul:\", \"rgnet_practical_1/efficientnetv2-b0_1/block4c_expand_activation_1/mul_1@__inference_function_123465\"] at callsite(fused[\"StatefulPartitionedCall:\", \"StatefulPartitionedCall@__inference_signature_wrapper_124976\"] at fused[\"StatefulPartitionedCall:\", \"StatefulPartitionedCall_1\"]))): Error code: ERROR_NEEDS_FLEX_OPS\n<unknown>:0: error: loc(callsite(fused[\"DepthwiseConv2dNative:\", \"rgnet_practical_1/efficientnetv2-b0_1/block4c_dwconv2_1/depthwise@__inference_function_123465\"] at callsite(fused[\"StatefulPartitionedCall:\", \"StatefulPartitionedCall@__inference_signature_wrapper_124976\"] at fused[\"StatefulPartitionedCall:\", \"StatefulPartitionedCall_1\"]))): 'tf.DepthwiseConv2dNative' op is neither a custom op nor a flex op\n<unknown>:0: note: loc(callsite(fused[\"StatefulPartitionedCall:\", \"StatefulPartitionedCall@__inference_signature_wrapper_124976\"] at fused[\"StatefulPartitionedCall:\", \"StatefulPartitionedCall_1\"])): called from\n<unknown>:0: note: loc(fused[\"StatefulPartitionedCall:\", \"StatefulPartitionedCall_1\"]): called from\n<unknown>:0: note: loc(callsite(fused[\"DepthwiseConv2dNative:\", \"rgnet_practical_1/efficientnetv2-b0_1/block4c_dwconv2_1/depthwise@__inference_function_123465\"] at callsite(fused[\"StatefulPartitionedCall:\", \"StatefulPartitionedCall@__inference_signature_wrapper_124976\"] at fused[\"StatefulPartitionedCall:\", \"StatefulPartitionedCall_1\"]))): see current operation: %420 = \"tf.DepthwiseConv2dNative\"(%419, %202) <{data_format = \"NHWC\", dilations = [1, 1, 1, 1], explicit_paddings = [], padding = \"SAME\", strides = [1, 1, 1, 1]}> {device = \"\"} : (tensor<?x16x16x384xf16>, tensor<3x3x384x1xf16>) -> tensor<?x16x16x384xf16>\n<unknown>:0: note: loc(callsite(fused[\"DepthwiseConv2dNative:\", \"rgnet_practical_1/efficientnetv2-b0_1/block4c_dwconv2_1/depthwise@__inference_function_123465\"] at callsite(fused[\"StatefulPartitionedCall:\", \"StatefulPartitionedCall@__inference_signature_wrapper_124976\"] at fused[\"StatefulPartitionedCall:\", \"StatefulPartitionedCall_1\"]))): Error code: ERROR_NEEDS_FLEX_OPS\n<unknown>:0: error: loc(callsite(fused[\"Sigmoid:\", \"rgnet_practical_1/efficientnetv2-b0_1/block4c_activation_1/Sigmoid@__inference_function_123465\"] at callsite(fused[\"StatefulPartitionedCall:\", \"StatefulPartitionedCall@__inference_signature_wrapper_124976\"] at fused[\"StatefulPartitionedCall:\", \"StatefulPartitionedCall_1\"]))): 'tf.Sigmoid' op is neither a custom op nor a flex op\n<unknown>:0: note: loc(callsite(fused[\"StatefulPartitionedCall:\", \"StatefulPartitionedCall@__inference_signature_wrapper_124976\"] at fused[\"StatefulPartitionedCall:\", \"StatefulPartitionedCall_1\"])): called from\n<unknown>:0: note: loc(fused[\"StatefulPartitionedCall:\", \"StatefulPartitionedCall_1\"]): called from\n<unknown>:0: note: loc(callsite(fused[\"Sigmoid:\", \"rgnet_practical_1/efficientnetv2-b0_1/block4c_activation_1/Sigmoid@__inference_function_123465\"] at callsite(fused[\"StatefulPartitionedCall:\", \"StatefulPartitionedCall@__inference_signature_wrapper_124976\"] at fused[\"StatefulPartitionedCall:\", \"StatefulPartitionedCall_1\"]))): see current operation: %425 = \"tf.Sigmoid\"(%424) {device = \"\"} : (tensor<?x16x16x384xf16>) -> tensor<?x16x16x384xf16>\n<unknown>:0: note: loc(callsite(fused[\"Sigmoid:\", \"rgnet_practical_1/efficientnetv2-b0_1/block4c_activation_1/Sigmoid@__inference_function_123465\"] at callsite(fused[\"StatefulPartitionedCall:\", \"StatefulPartitionedCall@__inference_signature_wrapper_124976\"] at fused[\"StatefulPartitionedCall:\", \"StatefulPartitionedCall_1\"]))): Error code: ERROR_NEEDS_FLEX_OPS\n<unknown>:0: error: loc(callsite(fused[\"Mul:\", \"rgnet_practical_1/efficientnetv2-b0_1/block4c_activation_1/mul_1@__inference_function_123465\"] at callsite(fused[\"StatefulPartitionedCall:\", \"StatefulPartitionedCall@__inference_signature_wrapper_124976\"] at fused[\"StatefulPartitionedCall:\", \"StatefulPartitionedCall_1\"]))): 'tf.Mul' op is neither a custom op nor a flex op\n<unknown>:0: note: loc(callsite(fused[\"StatefulPartitionedCall:\", \"StatefulPartitionedCall@__inference_signature_wrapper_124976\"] at fused[\"StatefulPartitionedCall:\", \"StatefulPartitionedCall_1\"])): called from\n<unknown>:0: note: loc(fused[\"StatefulPartitionedCall:\", \"StatefulPartitionedCall_1\"]): called from\n<unknown>:0: note: loc(callsite(fused[\"Mul:\", \"rgnet_practical_1/efficientnetv2-b0_1/block4c_activation_1/mul_1@__inference_function_123465\"] at callsite(fused[\"StatefulPartitionedCall:\", \"StatefulPartitionedCall@__inference_signature_wrapper_124976\"] at fused[\"StatefulPartitionedCall:\", \"StatefulPartitionedCall_1\"]))): see current operation: %426 = \"tf.Mul\"(%424, %425) {device = \"\"} : (tensor<?x16x16x384xf16>, tensor<?x16x16x384xf16>) -> tensor<?x16x16x384xf16>\n<unknown>:0: note: loc(callsite(fused[\"Mul:\", \"rgnet_practical_1/efficientnetv2-b0_1/block4c_activation_1/mul_1@__inference_function_123465\"] at callsite(fused[\"StatefulPartitionedCall:\", \"StatefulPartitionedCall@__inference_signature_wrapper_124976\"] at fused[\"StatefulPartitionedCall:\", \"StatefulPartitionedCall_1\"]))): Error code: ERROR_NEEDS_FLEX_OPS\n<unknown>:0: error: loc(callsite(fused[\"Conv2D:\", \"rgnet_practical_1/efficientnetv2-b0_1/block4c_se_reduce_1/convolution@__inference_function_123465\"] at callsite(fused[\"StatefulPartitionedCall:\", \"StatefulPartitionedCall@__inference_signature_wrapper_124976\"] at fused[\"StatefulPartitionedCall:\", \"StatefulPartitionedCall_1\"]))): 'tf.Conv2D' op is neither a custom op nor a flex op\n<unknown>:0: note: loc(callsite(fused[\"StatefulPartitionedCall:\", \"StatefulPartitionedCall@__inference_signature_wrapper_124976\"] at fused[\"StatefulPartitionedCall:\", \"StatefulPartitionedCall_1\"])): called from\n<unknown>:0: note: loc(fused[\"StatefulPartitionedCall:\", \"StatefulPartitionedCall_1\"]): called from\n<unknown>:0: note: loc(callsite(fused[\"Conv2D:\", \"rgnet_practical_1/efficientnetv2-b0_1/block4c_se_reduce_1/convolution@__inference_function_123465\"] at callsite(fused[\"StatefulPartitionedCall:\", \"StatefulPartitionedCall@__inference_signature_wrapper_124976\"] at fused[\"StatefulPartitionedCall:\", \"StatefulPartitionedCall_1\"]))): see current operation: %434 = \"tf.Conv2D\"(%433, %193) <{data_format = \"NHWC\", dilations = [1, 1, 1, 1], explicit_paddings = [], padding = \"SAME\", strides = [1, 1, 1, 1], use_cudnn_on_gpu = true}> {device = \"\"} : (tensor<?x1x1x384xf16>, tensor<1x1x384x24xf16>) -> tensor<?x1x1x24xf16>\n<unknown>:0: note: loc(callsite(fused[\"Conv2D:\", \"rgnet_practical_1/efficientnetv2-b0_1/block4c_se_reduce_1/convolution@__inference_function_123465\"] at callsite(fused[\"StatefulPartitionedCall:\", \"StatefulPartitionedCall@__inference_signature_wrapper_124976\"] at fused[\"StatefulPartitionedCall:\", \"StatefulPartitionedCall_1\"]))): Error code: ERROR_NEEDS_FLEX_OPS\n<unknown>:0: error: loc(callsite(fused[\"BiasAdd:\", \"rgnet_practical_1/efficientnetv2-b0_1/block4c_se_reduce_1/BiasAdd@__inference_function_123465\"] at callsite(fused[\"StatefulPartitionedCall:\", \"StatefulPartitionedCall@__inference_signature_wrapper_124976\"] at fused[\"StatefulPartitionedCall:\", \"StatefulPartitionedCall_1\"]))): 'tf.BiasAdd' op is neither a custom op nor a flex op\n<unknown>:0: note: loc(callsite(fused[\"StatefulPartitionedCall:\", \"StatefulPartitionedCall@__inference_signature_wrapper_124976\"] at fused[\"StatefulPartitionedCall:\", \"StatefulPartitionedCall_1\"])): called from\n<unknown>:0: note: loc(fused[\"StatefulPartitionedCall:\", \"StatefulPartitionedCall_1\"]): called from\n<unknown>:0: note: loc(callsite(fused[\"BiasAdd:\", \"rgnet_practical_1/efficientnetv2-b0_1/block4c_se_reduce_1/BiasAdd@__inference_function_123465\"] at callsite(fused[\"StatefulPartitionedCall:\", \"StatefulPartitionedCall@__inference_signature_wrapper_124976\"] at fused[\"StatefulPartitionedCall:\", \"StatefulPartitionedCall_1\"]))): see current operation: %435 = \"tf.BiasAdd\"(%434, %192) <{data_format = \"NHWC\"}> {device = \"\"} : (tensor<?x1x1x24xf16>, tensor<24xf16>) -> tensor<?x1x1x24xf16>\n<unknown>:0: note: loc(callsite(fused[\"BiasAdd:\", \"rgnet_practical_1/efficientnetv2-b0_1/block4c_se_reduce_1/BiasAdd@__inference_function_123465\"] at callsite(fused[\"StatefulPartitionedCall:\", \"StatefulPartitionedCall@__inference_signature_wrapper_124976\"] at fused[\"StatefulPartitionedCall:\", \"StatefulPartitionedCall_1\"]))): Error code: ERROR_NEEDS_FLEX_OPS\n<unknown>:0: error: loc(callsite(fused[\"Sigmoid:\", \"rgnet_practical_1/efficientnetv2-b0_1/block4c_se_reduce_1/Sigmoid@__inference_function_123465\"] at callsite(fused[\"StatefulPartitionedCall:\", \"StatefulPartitionedCall@__inference_signature_wrapper_124976\"] at fused[\"StatefulPartitionedCall:\", \"StatefulPartitionedCall_1\"]))): 'tf.Sigmoid' op is neither a custom op nor a flex op\n<unknown>:0: note: loc(callsite(fused[\"StatefulPartitionedCall:\", \"StatefulPartitionedCall@__inference_signature_wrapper_124976\"] at fused[\"StatefulPartitionedCall:\", \"StatefulPartitionedCall_1\"])): called from\n<unknown>:0: note: loc(fused[\"StatefulPartitionedCall:\", \"StatefulPartitionedCall_1\"]): called from\n<unknown>:0: note: loc(callsite(fused[\"Sigmoid:\", \"rgnet_practical_1/efficientnetv2-b0_1/block4c_se_reduce_1/Sigmoid@__inference_function_123465\"] at callsite(fused[\"StatefulPartitionedCall:\", \"StatefulPartitionedCall@__inference_signature_wrapper_124976\"] at fused[\"StatefulPartitionedCall:\", \"StatefulPartitionedCall_1\"]))): see current operation: %436 = \"tf.Sigmoid\"(%435) {device = \"\"} : (tensor<?x1x1x24xf16>) -> tensor<?x1x1x24xf16>\n<unknown>:0: note: loc(callsite(fused[\"Sigmoid:\", \"rgnet_practical_1/efficientnetv2-b0_1/block4c_se_reduce_1/Sigmoid@__inference_function_123465\"] at callsite(fused[\"StatefulPartitionedCall:\", \"StatefulPartitionedCall@__inference_signature_wrapper_124976\"] at fused[\"StatefulPartitionedCall:\", \"StatefulPartitionedCall_1\"]))): Error code: ERROR_NEEDS_FLEX_OPS\n<unknown>:0: error: loc(callsite(fused[\"Mul:\", \"rgnet_practical_1/efficientnetv2-b0_1/block4c_se_reduce_1/mul_1@__inference_function_123465\"] at callsite(fused[\"StatefulPartitionedCall:\", \"StatefulPartitionedCall@__inference_signature_wrapper_124976\"] at fused[\"StatefulPartitionedCall:\", \"StatefulPartitionedCall_1\"]))): 'tf.Mul' op is neither a custom op nor a flex op\n<unknown>:0: note: loc(callsite(fused[\"StatefulPartitionedCall:\", \"StatefulPartitionedCall@__inference_signature_wrapper_124976\"] at fused[\"StatefulPartitionedCall:\", \"StatefulPartitionedCall_1\"])): called from\n<unknown>:0: note: loc(fused[\"StatefulPartitionedCall:\", \"StatefulPartitionedCall_1\"]): called from\n<unknown>:0: note: loc(callsite(fused[\"Mul:\", \"rgnet_practical_1/efficientnetv2-b0_1/block4c_se_reduce_1/mul_1@__inference_function_123465\"] at callsite(fused[\"StatefulPartitionedCall:\", \"StatefulPartitionedCall@__inference_signature_wrapper_124976\"] at fused[\"StatefulPartitionedCall:\", \"StatefulPartitionedCall_1\"]))): see current operation: %437 = \"tf.Mul\"(%435, %436) {device = \"\"} : (tensor<?x1x1x24xf16>, tensor<?x1x1x24xf16>) -> tensor<?x1x1x24xf16>\n<unknown>:0: note: loc(callsite(fused[\"Mul:\", \"rgnet_practical_1/efficientnetv2-b0_1/block4c_se_reduce_1/mul_1@__inference_function_123465\"] at callsite(fused[\"StatefulPartitionedCall:\", \"StatefulPartitionedCall@__inference_signature_wrapper_124976\"] at fused[\"StatefulPartitionedCall:\", \"StatefulPartitionedCall_1\"]))): Error code: ERROR_NEEDS_FLEX_OPS\n<unknown>:0: error: loc(callsite(fused[\"Conv2D:\", \"rgnet_practical_1/efficientnetv2-b0_1/block4c_se_expand_1/convolution@__inference_function_123465\"] at callsite(fused[\"StatefulPartitionedCall:\", \"StatefulPartitionedCall@__inference_signature_wrapper_124976\"] at fused[\"StatefulPartitionedCall:\", \"StatefulPartitionedCall_1\"]))): 'tf.Conv2D' op is neither a custom op nor a flex op\n<unknown>:0: note: loc(callsite(fused[\"StatefulPartitionedCall:\", \"StatefulPartitionedCall@__inference_signature_wrapper_124976\"] at fused[\"StatefulPartitionedCall:\", \"StatefulPartitionedCall_1\"])): called from\n<unknown>:0: note: loc(fused[\"StatefulPartitionedCall:\", \"StatefulPartitionedCall_1\"]): called from\n<unknown>:0: note: loc(callsite(fused[\"Conv2D:\", \"rgnet_practical_1/efficientnetv2-b0_1/block4c_se_expand_1/convolution@__inference_function_123465\"] at callsite(fused[\"StatefulPartitionedCall:\", \"StatefulPartitionedCall@__inference_signature_wrapper_124976\"] at fused[\"StatefulPartitionedCall:\", \"StatefulPartitionedCall_1\"]))): see current operation: %438 = \"tf.Conv2D\"(%437, %195) <{data_format = \"NHWC\", dilations = [1, 1, 1, 1], explicit_paddings = [], padding = \"SAME\", strides = [1, 1, 1, 1], use_cudnn_on_gpu = true}> {device = \"\"} : (tensor<?x1x1x24xf16>, tensor<1x1x24x384xf16>) -> tensor<?x1x1x384xf16>\n<unknown>:0: note: loc(callsite(fused[\"Conv2D:\", \"rgnet_practical_1/efficientnetv2-b0_1/block4c_se_expand_1/convolution@__inference_function_123465\"] at callsite(fused[\"StatefulPartitionedCall:\", \"StatefulPartitionedCall@__inference_signature_wrapper_124976\"] at fused[\"StatefulPartitionedCall:\", \"StatefulPartitionedCall_1\"]))): Error code: ERROR_NEEDS_FLEX_OPS\n<unknown>:0: error: loc(callsite(fused[\"BiasAdd:\", \"rgnet_practical_1/efficientnetv2-b0_1/block4c_se_expand_1/BiasAdd@__inference_function_123465\"] at callsite(fused[\"StatefulPartitionedCall:\", \"StatefulPartitionedCall@__inference_signature_wrapper_124976\"] at fused[\"StatefulPartitionedCall:\", \"StatefulPartitionedCall_1\"]))): 'tf.BiasAdd' op is neither a custom op nor a flex op\n<unknown>:0: note: loc(callsite(fused[\"StatefulPartitionedCall:\", \"StatefulPartitionedCall@__inference_signature_wrapper_124976\"] at fused[\"StatefulPartitionedCall:\", \"StatefulPartitionedCall_1\"])): called from\n<unknown>:0: note: loc(fused[\"StatefulPartitionedCall:\", \"StatefulPartitionedCall_1\"]): called from\n<unknown>:0: note: loc(callsite(fused[\"BiasAdd:\", \"rgnet_practical_1/efficientnetv2-b0_1/block4c_se_expand_1/BiasAdd@__inference_function_123465\"] at callsite(fused[\"StatefulPartitionedCall:\", \"StatefulPartitionedCall@__inference_signature_wrapper_124976\"] at fused[\"StatefulPartitionedCall:\", \"StatefulPartitionedCall_1\"]))): see current operation: %439 = \"tf.BiasAdd\"(%438, %194) <{data_format = \"NHWC\"}> {device = \"\"} : (tensor<?x1x1x384xf16>, tensor<384xf16>) -> tensor<?x1x1x384xf16>\n<unknown>:0: note: loc(callsite(fused[\"BiasAdd:\", \"rgnet_practical_1/efficientnetv2-b0_1/block4c_se_expand_1/BiasAdd@__inference_function_123465\"] at callsite(fused[\"StatefulPartitionedCall:\", \"StatefulPartitionedCall@__inference_signature_wrapper_124976\"] at fused[\"StatefulPartitionedCall:\", \"StatefulPartitionedCall_1\"]))): Error code: ERROR_NEEDS_FLEX_OPS\n<unknown>:0: error: loc(callsite(fused[\"Sigmoid:\", \"rgnet_practical_1/efficientnetv2-b0_1/block4c_se_expand_1/Sigmoid@__inference_function_123465\"] at callsite(fused[\"StatefulPartitionedCall:\", \"StatefulPartitionedCall@__inference_signature_wrapper_124976\"] at fused[\"StatefulPartitionedCall:\", \"StatefulPartitionedCall_1\"]))): 'tf.Sigmoid' op is neither a custom op nor a flex op\n<unknown>:0: note: loc(callsite(fused[\"StatefulPartitionedCall:\", \"StatefulPartitionedCall@__inference_signature_wrapper_124976\"] at fused[\"StatefulPartitionedCall:\", \"StatefulPartitionedCall_1\"])): called from\n<unknown>:0: note: loc(fused[\"StatefulPartitionedCall:\", \"StatefulPartitionedCall_1\"]): called from\n<unknown>:0: note: loc(callsite(fused[\"Sigmoid:\", \"rgnet_practical_1/efficientnetv2-b0_1/block4c_se_expand_1/Sigmoid@__inference_function_123465\"] at callsite(fused[\"StatefulPartitionedCall:\", \"StatefulPartitionedCall@__inference_signature_wrapper_124976\"] at fused[\"StatefulPartitionedCall:\", \"StatefulPartitionedCall_1\"]))): see current operation: %440 = \"tf.Sigmoid\"(%439) {device = \"\"} : (tensor<?x1x1x384xf16>) -> tensor<?x1x1x384xf16>\n<unknown>:0: note: loc(callsite(fused[\"Sigmoid:\", \"rgnet_practical_1/efficientnetv2-b0_1/block4c_se_expand_1/Sigmoid@__inference_function_123465\"] at callsite(fused[\"StatefulPartitionedCall:\", \"StatefulPartitionedCall@__inference_signature_wrapper_124976\"] at fused[\"StatefulPartitionedCall:\", \"StatefulPartitionedCall_1\"]))): Error code: ERROR_NEEDS_FLEX_OPS\n<unknown>:0: error: loc(callsite(fused[\"Mul:\", \"rgnet_practical_1/efficientnetv2-b0_1/block4c_se_excite_1/Mul@__inference_function_123465\"] at callsite(fused[\"StatefulPartitionedCall:\", \"StatefulPartitionedCall@__inference_signature_wrapper_124976\"] at fused[\"StatefulPartitionedCall:\", \"StatefulPartitionedCall_1\"]))): 'tf.Mul' op is neither a custom op nor a flex op\n<unknown>:0: note: loc(callsite(fused[\"StatefulPartitionedCall:\", \"StatefulPartitionedCall@__inference_signature_wrapper_124976\"] at fused[\"StatefulPartitionedCall:\", \"StatefulPartitionedCall_1\"])): called from\n<unknown>:0: note: loc(fused[\"StatefulPartitionedCall:\", \"StatefulPartitionedCall_1\"]): called from\n<unknown>:0: note: loc(callsite(fused[\"Mul:\", \"rgnet_practical_1/efficientnetv2-b0_1/block4c_se_excite_1/Mul@__inference_function_123465\"] at callsite(fused[\"StatefulPartitionedCall:\", \"StatefulPartitionedCall@__inference_signature_wrapper_124976\"] at fused[\"StatefulPartitionedCall:\", \"StatefulPartitionedCall_1\"]))): see current operation: %441 = \"tf.Mul\"(%426, %440) {device = \"\"} : (tensor<?x16x16x384xf16>, tensor<?x1x1x384xf16>) -> tensor<?x16x16x384xf16>\n<unknown>:0: note: loc(callsite(fused[\"Mul:\", \"rgnet_practical_1/efficientnetv2-b0_1/block4c_se_excite_1/Mul@__inference_function_123465\"] at callsite(fused[\"StatefulPartitionedCall:\", \"StatefulPartitionedCall@__inference_signature_wrapper_124976\"] at fused[\"StatefulPartitionedCall:\", \"StatefulPartitionedCall_1\"]))): Error code: ERROR_NEEDS_FLEX_OPS\n<unknown>:0: error: loc(callsite(fused[\"Conv2D:\", \"rgnet_practical_1/efficientnetv2-b0_1/block4c_project_conv_1/convolution@__inference_function_123465\"] at callsite(fused[\"StatefulPartitionedCall:\", \"StatefulPartitionedCall@__inference_signature_wrapper_124976\"] at fused[\"StatefulPartitionedCall:\", \"StatefulPartitionedCall_1\"]))): 'tf.Conv2D' op is neither a custom op nor a flex op\n<unknown>:0: note: loc(callsite(fused[\"StatefulPartitionedCall:\", \"StatefulPartitionedCall@__inference_signature_wrapper_124976\"] at fused[\"StatefulPartitionedCall:\", \"StatefulPartitionedCall_1\"])): called from\n<unknown>:0: note: loc(fused[\"StatefulPartitionedCall:\", \"StatefulPartitionedCall_1\"]): called from\n<unknown>:0: note: loc(callsite(fused[\"Conv2D:\", \"rgnet_practical_1/efficientnetv2-b0_1/block4c_project_conv_1/convolution@__inference_function_123465\"] at callsite(fused[\"StatefulPartitionedCall:\", \"StatefulPartitionedCall@__inference_signature_wrapper_124976\"] at fused[\"StatefulPartitionedCall:\", \"StatefulPartitionedCall_1\"]))): see current operation: %442 = \"tf.Conv2D\"(%441, %196) <{data_format = \"NHWC\", dilations = [1, 1, 1, 1], explicit_paddings = [], padding = \"SAME\", strides = [1, 1, 1, 1], use_cudnn_on_gpu = true}> {device = \"\"} : (tensor<?x16x16x384xf16>, tensor<1x1x384x96xf16>) -> tensor<?x16x16x96xf16>\n<unknown>:0: note: loc(callsite(fused[\"Conv2D:\", \"rgnet_practical_1/efficientnetv2-b0_1/block4c_project_conv_1/convolution@__inference_function_123465\"] at callsite(fused[\"StatefulPartitionedCall:\", \"StatefulPartitionedCall@__inference_signature_wrapper_124976\"] at fused[\"StatefulPartitionedCall:\", \"StatefulPartitionedCall_1\"]))): Error code: ERROR_NEEDS_FLEX_OPS\n<unknown>:0: error: loc(callsite(fused[\"AddV2:\", \"rgnet_practical_1/efficientnetv2-b0_1/block4c_add_1/Add@__inference_function_123465\"] at callsite(fused[\"StatefulPartitionedCall:\", \"StatefulPartitionedCall@__inference_signature_wrapper_124976\"] at fused[\"StatefulPartitionedCall:\", \"StatefulPartitionedCall_1\"]))): 'tf.AddV2' op is neither a custom op nor a flex op\n<unknown>:0: note: loc(callsite(fused[\"StatefulPartitionedCall:\", \"StatefulPartitionedCall@__inference_signature_wrapper_124976\"] at fused[\"StatefulPartitionedCall:\", \"StatefulPartitionedCall_1\"])): called from\n<unknown>:0: note: loc(fused[\"StatefulPartitionedCall:\", \"StatefulPartitionedCall_1\"]): called from\n<unknown>:0: note: loc(callsite(fused[\"AddV2:\", \"rgnet_practical_1/efficientnetv2-b0_1/block4c_add_1/Add@__inference_function_123465\"] at callsite(fused[\"StatefulPartitionedCall:\", \"StatefulPartitionedCall@__inference_signature_wrapper_124976\"] at fused[\"StatefulPartitionedCall:\", \"StatefulPartitionedCall_1\"]))): see current operation: %447 = \"tf.AddV2\"(%446, %412) {device = \"\"} : (tensor<?x16x16x96xf16>, tensor<?x16x16x96xf16>) -> tensor<?x16x16x96xf16>\n<unknown>:0: note: loc(callsite(fused[\"AddV2:\", \"rgnet_practical_1/efficientnetv2-b0_1/block4c_add_1/Add@__inference_function_123465\"] at callsite(fused[\"StatefulPartitionedCall:\", \"StatefulPartitionedCall@__inference_signature_wrapper_124976\"] at fused[\"StatefulPartitionedCall:\", \"StatefulPartitionedCall_1\"]))): Error code: ERROR_NEEDS_FLEX_OPS\n<unknown>:0: error: loc(callsite(fused[\"Conv2D:\", \"rgnet_practical_1/efficientnetv2-b0_1/block5a_expand_conv_1/convolution@__inference_function_123465\"] at callsite(fused[\"StatefulPartitionedCall:\", \"StatefulPartitionedCall@__inference_signature_wrapper_124976\"] at fused[\"StatefulPartitionedCall:\", \"StatefulPartitionedCall_1\"]))): 'tf.Conv2D' op is neither a custom op nor a flex op\n<unknown>:0: note: loc(callsite(fused[\"StatefulPartitionedCall:\", \"StatefulPartitionedCall@__inference_signature_wrapper_124976\"] at fused[\"StatefulPartitionedCall:\", \"StatefulPartitionedCall_1\"])): called from\n<unknown>:0: note: loc(fused[\"StatefulPartitionedCall:\", \"StatefulPartitionedCall_1\"]): called from\n<unknown>:0: note: loc(callsite(fused[\"Conv2D:\", \"rgnet_practical_1/efficientnetv2-b0_1/block5a_expand_conv_1/convolution@__inference_function_123465\"] at callsite(fused[\"StatefulPartitionedCall:\", \"StatefulPartitionedCall@__inference_signature_wrapper_124976\"] at fused[\"StatefulPartitionedCall:\", \"StatefulPartitionedCall_1\"]))): see current operation: %448 = \"tf.Conv2D\"(%447, %186) <{data_format = \"NHWC\", dilations = [1, 1, 1, 1], explicit_paddings = [], padding = \"SAME\", strides = [1, 1, 1, 1], use_cudnn_on_gpu = true}> {device = \"\"} : (tensor<?x16x16x96xf16>, tensor<1x1x96x576xf16>) -> tensor<?x16x16x576xf16>\n<unknown>:0: note: loc(callsite(fused[\"Conv2D:\", \"rgnet_practical_1/efficientnetv2-b0_1/block5a_expand_conv_1/convolution@__inference_function_123465\"] at callsite(fused[\"StatefulPartitionedCall:\", \"StatefulPartitionedCall@__inference_signature_wrapper_124976\"] at fused[\"StatefulPartitionedCall:\", \"StatefulPartitionedCall_1\"]))): Error code: ERROR_NEEDS_FLEX_OPS\n<unknown>:0: error: loc(callsite(fused[\"Sigmoid:\", \"rgnet_practical_1/efficientnetv2-b0_1/block5a_expand_activation_1/Sigmoid@__inference_function_123465\"] at callsite(fused[\"StatefulPartitionedCall:\", \"StatefulPartitionedCall@__inference_signature_wrapper_124976\"] at fused[\"StatefulPartitionedCall:\", \"StatefulPartitionedCall_1\"]))): 'tf.Sigmoid' op is neither a custom op nor a flex op\n<unknown>:0: note: loc(callsite(fused[\"StatefulPartitionedCall:\", \"StatefulPartitionedCall@__inference_signature_wrapper_124976\"] at fused[\"StatefulPartitionedCall:\", \"StatefulPartitionedCall_1\"])): called from\n<unknown>:0: note: loc(fused[\"StatefulPartitionedCall:\", \"StatefulPartitionedCall_1\"]): called from\n<unknown>:0: note: loc(callsite(fused[\"Sigmoid:\", \"rgnet_practical_1/efficientnetv2-b0_1/block5a_expand_activation_1/Sigmoid@__inference_function_123465\"] at callsite(fused[\"StatefulPartitionedCall:\", \"StatefulPartitionedCall@__inference_signature_wrapper_124976\"] at fused[\"StatefulPartitionedCall:\", \"StatefulPartitionedCall_1\"]))): see current operation: %453 = \"tf.Sigmoid\"(%452) {device = \"\"} : (tensor<?x16x16x576xf16>) -> tensor<?x16x16x576xf16>\n<unknown>:0: note: loc(callsite(fused[\"Sigmoid:\", \"rgnet_practical_1/efficientnetv2-b0_1/block5a_expand_activation_1/Sigmoid@__inference_function_123465\"] at callsite(fused[\"StatefulPartitionedCall:\", \"StatefulPartitionedCall@__inference_signature_wrapper_124976\"] at fused[\"StatefulPartitionedCall:\", \"StatefulPartitionedCall_1\"]))): Error code: ERROR_NEEDS_FLEX_OPS\n<unknown>:0: error: loc(callsite(fused[\"Mul:\", \"rgnet_practical_1/efficientnetv2-b0_1/block5a_expand_activation_1/mul_1@__inference_function_123465\"] at callsite(fused[\"StatefulPartitionedCall:\", \"StatefulPartitionedCall@__inference_signature_wrapper_124976\"] at fused[\"StatefulPartitionedCall:\", \"StatefulPartitionedCall_1\"]))): 'tf.Mul' op is neither a custom op nor a flex op\n<unknown>:0: note: loc(callsite(fused[\"StatefulPartitionedCall:\", \"StatefulPartitionedCall@__inference_signature_wrapper_124976\"] at fused[\"StatefulPartitionedCall:\", \"StatefulPartitionedCall_1\"])): called from\n<unknown>:0: note: loc(fused[\"StatefulPartitionedCall:\", \"StatefulPartitionedCall_1\"]): called from\n<unknown>:0: note: loc(callsite(fused[\"Mul:\", \"rgnet_practical_1/efficientnetv2-b0_1/block5a_expand_activation_1/mul_1@__inference_function_123465\"] at callsite(fused[\"StatefulPartitionedCall:\", \"StatefulPartitionedCall@__inference_signature_wrapper_124976\"] at fused[\"StatefulPartitionedCall:\", \"StatefulPartitionedCall_1\"]))): see current operation: %454 = \"tf.Mul\"(%452, %453) {device = \"\"} : (tensor<?x16x16x576xf16>, tensor<?x16x16x576xf16>) -> tensor<?x16x16x576xf16>\n<unknown>:0: note: loc(callsite(fused[\"Mul:\", \"rgnet_practical_1/efficientnetv2-b0_1/block5a_expand_activation_1/mul_1@__inference_function_123465\"] at callsite(fused[\"StatefulPartitionedCall:\", \"StatefulPartitionedCall@__inference_signature_wrapper_124976\"] at fused[\"StatefulPartitionedCall:\", \"StatefulPartitionedCall_1\"]))): Error code: ERROR_NEEDS_FLEX_OPS\n<unknown>:0: error: loc(callsite(fused[\"DepthwiseConv2dNative:\", \"rgnet_practical_1/efficientnetv2-b0_1/block5a_dwconv2_1/depthwise@__inference_function_123465\"] at callsite(fused[\"StatefulPartitionedCall:\", \"StatefulPartitionedCall@__inference_signature_wrapper_124976\"] at fused[\"StatefulPartitionedCall:\", \"StatefulPartitionedCall_1\"]))): 'tf.DepthwiseConv2dNative' op is neither a custom op nor a flex op\n<unknown>:0: note: loc(callsite(fused[\"StatefulPartitionedCall:\", \"StatefulPartitionedCall@__inference_signature_wrapper_124976\"] at fused[\"StatefulPartitionedCall:\", \"StatefulPartitionedCall_1\"])): called from\n<unknown>:0: note: loc(fused[\"StatefulPartitionedCall:\", \"StatefulPartitionedCall_1\"]): called from\n<unknown>:0: note: loc(callsite(fused[\"DepthwiseConv2dNative:\", \"rgnet_practical_1/efficientnetv2-b0_1/block5a_dwconv2_1/depthwise@__inference_function_123465\"] at callsite(fused[\"StatefulPartitionedCall:\", \"StatefulPartitionedCall@__inference_signature_wrapper_124976\"] at fused[\"StatefulPartitionedCall:\", \"StatefulPartitionedCall_1\"]))): see current operation: %455 = \"tf.DepthwiseConv2dNative\"(%454, %189) <{data_format = \"NHWC\", dilations = [1, 1, 1, 1], explicit_paddings = [], padding = \"SAME\", strides = [1, 1, 1, 1]}> {device = \"\"} : (tensor<?x16x16x576xf16>, tensor<3x3x576x1xf16>) -> tensor<?x16x16x576xf16>\n<unknown>:0: note: loc(callsite(fused[\"DepthwiseConv2dNative:\", \"rgnet_practical_1/efficientnetv2-b0_1/block5a_dwconv2_1/depthwise@__inference_function_123465\"] at callsite(fused[\"StatefulPartitionedCall:\", \"StatefulPartitionedCall@__inference_signature_wrapper_124976\"] at fused[\"StatefulPartitionedCall:\", \"StatefulPartitionedCall_1\"]))): Error code: ERROR_NEEDS_FLEX_OPS\n<unknown>:0: error: loc(callsite(fused[\"Sigmoid:\", \"rgnet_practical_1/efficientnetv2-b0_1/block5a_activation_1/Sigmoid@__inference_function_123465\"] at callsite(fused[\"StatefulPartitionedCall:\", \"StatefulPartitionedCall@__inference_signature_wrapper_124976\"] at fused[\"StatefulPartitionedCall:\", \"StatefulPartitionedCall_1\"]))): 'tf.Sigmoid' op is neither a custom op nor a flex op\n<unknown>:0: note: loc(callsite(fused[\"StatefulPartitionedCall:\", \"StatefulPartitionedCall@__inference_signature_wrapper_124976\"] at fused[\"StatefulPartitionedCall:\", \"StatefulPartitionedCall_1\"])): called from\n<unknown>:0: note: loc(fused[\"StatefulPartitionedCall:\", \"StatefulPartitionedCall_1\"]): called from\n<unknown>:0: note: loc(callsite(fused[\"Sigmoid:\", \"rgnet_practical_1/efficientnetv2-b0_1/block5a_activation_1/Sigmoid@__inference_function_123465\"] at callsite(fused[\"StatefulPartitionedCall:\", \"StatefulPartitionedCall@__inference_signature_wrapper_124976\"] at fused[\"StatefulPartitionedCall:\", \"StatefulPartitionedCall_1\"]))): see current operation: %460 = \"tf.Sigmoid\"(%459) {device = \"\"} : (tensor<?x16x16x576xf16>) -> tensor<?x16x16x576xf16>\n<unknown>:0: note: loc(callsite(fused[\"Sigmoid:\", \"rgnet_practical_1/efficientnetv2-b0_1/block5a_activation_1/Sigmoid@__inference_function_123465\"] at callsite(fused[\"StatefulPartitionedCall:\", \"StatefulPartitionedCall@__inference_signature_wrapper_124976\"] at fused[\"StatefulPartitionedCall:\", \"StatefulPartitionedCall_1\"]))): Error code: ERROR_NEEDS_FLEX_OPS\n<unknown>:0: error: loc(callsite(fused[\"Mul:\", \"rgnet_practical_1/efficientnetv2-b0_1/block5a_activation_1/mul_1@__inference_function_123465\"] at callsite(fused[\"StatefulPartitionedCall:\", \"StatefulPartitionedCall@__inference_signature_wrapper_124976\"] at fused[\"StatefulPartitionedCall:\", \"StatefulPartitionedCall_1\"]))): 'tf.Mul' op is neither a custom op nor a flex op\n<unknown>:0: note: loc(callsite(fused[\"StatefulPartitionedCall:\", \"StatefulPartitionedCall@__inference_signature_wrapper_124976\"] at fused[\"StatefulPartitionedCall:\", \"StatefulPartitionedCall_1\"])): called from\n<unknown>:0: note: loc(fused[\"StatefulPartitionedCall:\", \"StatefulPartitionedCall_1\"]): called from\n<unknown>:0: note: loc(callsite(fused[\"Mul:\", \"rgnet_practical_1/efficientnetv2-b0_1/block5a_activation_1/mul_1@__inference_function_123465\"] at callsite(fused[\"StatefulPartitionedCall:\", \"StatefulPartitionedCall@__inference_signature_wrapper_124976\"] at fused[\"StatefulPartitionedCall:\", \"StatefulPartitionedCall_1\"]))): see current operation: %461 = \"tf.Mul\"(%459, %460) {device = \"\"} : (tensor<?x16x16x576xf16>, tensor<?x16x16x576xf16>) -> tensor<?x16x16x576xf16>\n<unknown>:0: note: loc(callsite(fused[\"Mul:\", \"rgnet_practical_1/efficientnetv2-b0_1/block5a_activation_1/mul_1@__inference_function_123465\"] at callsite(fused[\"StatefulPartitionedCall:\", \"StatefulPartitionedCall@__inference_signature_wrapper_124976\"] at fused[\"StatefulPartitionedCall:\", \"StatefulPartitionedCall_1\"]))): Error code: ERROR_NEEDS_FLEX_OPS\n<unknown>:0: error: loc(callsite(fused[\"Conv2D:\", \"rgnet_practical_1/efficientnetv2-b0_1/block5a_se_reduce_1/convolution@__inference_function_123465\"] at callsite(fused[\"StatefulPartitionedCall:\", \"StatefulPartitionedCall@__inference_signature_wrapper_124976\"] at fused[\"StatefulPartitionedCall:\", \"StatefulPartitionedCall_1\"]))): 'tf.Conv2D' op is neither a custom op nor a flex op\n<unknown>:0: note: loc(callsite(fused[\"StatefulPartitionedCall:\", \"StatefulPartitionedCall@__inference_signature_wrapper_124976\"] at fused[\"StatefulPartitionedCall:\", \"StatefulPartitionedCall_1\"])): called from\n<unknown>:0: note: loc(fused[\"StatefulPartitionedCall:\", \"StatefulPartitionedCall_1\"]): called from\n<unknown>:0: note: loc(callsite(fused[\"Conv2D:\", \"rgnet_practical_1/efficientnetv2-b0_1/block5a_se_reduce_1/convolution@__inference_function_123465\"] at callsite(fused[\"StatefulPartitionedCall:\", \"StatefulPartitionedCall@__inference_signature_wrapper_124976\"] at fused[\"StatefulPartitionedCall:\", \"StatefulPartitionedCall_1\"]))): see current operation: %469 = \"tf.Conv2D\"(%468, %180) <{data_format = \"NHWC\", dilations = [1, 1, 1, 1], explicit_paddings = [], padding = \"SAME\", strides = [1, 1, 1, 1], use_cudnn_on_gpu = true}> {device = \"\"} : (tensor<?x1x1x576xf16>, tensor<1x1x576x24xf16>) -> tensor<?x1x1x24xf16>\n<unknown>:0: note: loc(callsite(fused[\"Conv2D:\", \"rgnet_practical_1/efficientnetv2-b0_1/block5a_se_reduce_1/convolution@__inference_function_123465\"] at callsite(fused[\"StatefulPartitionedCall:\", \"StatefulPartitionedCall@__inference_signature_wrapper_124976\"] at fused[\"StatefulPartitionedCall:\", \"StatefulPartitionedCall_1\"]))): Error code: ERROR_NEEDS_FLEX_OPS\n<unknown>:0: error: loc(callsite(fused[\"BiasAdd:\", \"rgnet_practical_1/efficientnetv2-b0_1/block5a_se_reduce_1/BiasAdd@__inference_function_123465\"] at callsite(fused[\"StatefulPartitionedCall:\", \"StatefulPartitionedCall@__inference_signature_wrapper_124976\"] at fused[\"StatefulPartitionedCall:\", \"StatefulPartitionedCall_1\"]))): 'tf.BiasAdd' op is neither a custom op nor a flex op\n<unknown>:0: note: loc(callsite(fused[\"StatefulPartitionedCall:\", \"StatefulPartitionedCall@__inference_signature_wrapper_124976\"] at fused[\"StatefulPartitionedCall:\", \"StatefulPartitionedCall_1\"])): called from\n<unknown>:0: note: loc(fused[\"StatefulPartitionedCall:\", \"StatefulPartitionedCall_1\"]): called from\n<unknown>:0: note: loc(callsite(fused[\"BiasAdd:\", \"rgnet_practical_1/efficientnetv2-b0_1/block5a_se_reduce_1/BiasAdd@__inference_function_123465\"] at callsite(fused[\"StatefulPartitionedCall:\", \"StatefulPartitionedCall@__inference_signature_wrapper_124976\"] at fused[\"StatefulPartitionedCall:\", \"StatefulPartitionedCall_1\"]))): see current operation: %470 = \"tf.BiasAdd\"(%469, %179) <{data_format = \"NHWC\"}> {device = \"\"} : (tensor<?x1x1x24xf16>, tensor<24xf16>) -> tensor<?x1x1x24xf16>\n<unknown>:0: note: loc(callsite(fused[\"BiasAdd:\", \"rgnet_practical_1/efficientnetv2-b0_1/block5a_se_reduce_1/BiasAdd@__inference_function_123465\"] at callsite(fused[\"StatefulPartitionedCall:\", \"StatefulPartitionedCall@__inference_signature_wrapper_124976\"] at fused[\"StatefulPartitionedCall:\", \"StatefulPartitionedCall_1\"]))): Error code: ERROR_NEEDS_FLEX_OPS\n<unknown>:0: error: loc(callsite(fused[\"Sigmoid:\", \"rgnet_practical_1/efficientnetv2-b0_1/block5a_se_reduce_1/Sigmoid@__inference_function_123465\"] at callsite(fused[\"StatefulPartitionedCall:\", \"StatefulPartitionedCall@__inference_signature_wrapper_124976\"] at fused[\"StatefulPartitionedCall:\", \"StatefulPartitionedCall_1\"]))): 'tf.Sigmoid' op is neither a custom op nor a flex op\n<unknown>:0: note: loc(callsite(fused[\"StatefulPartitionedCall:\", \"StatefulPartitionedCall@__inference_signature_wrapper_124976\"] at fused[\"StatefulPartitionedCall:\", \"StatefulPartitionedCall_1\"])): called from\n<unknown>:0: note: loc(fused[\"StatefulPartitionedCall:\", \"StatefulPartitionedCall_1\"]): called from\n<unknown>:0: note: loc(callsite(fused[\"Sigmoid:\", \"rgnet_practical_1/efficientnetv2-b0_1/block5a_se_reduce_1/Sigmoid@__inference_function_123465\"] at callsite(fused[\"StatefulPartitionedCall:\", \"StatefulPartitionedCall@__inference_signature_wrapper_124976\"] at fused[\"StatefulPartitionedCall:\", \"StatefulPartitionedCall_1\"]))): see current operation: %471 = \"tf.Sigmoid\"(%470) {device = \"\"} : (tensor<?x1x1x24xf16>) -> tensor<?x1x1x24xf16>\n<unknown>:0: note: loc(callsite(fused[\"Sigmoid:\", \"rgnet_practical_1/efficientnetv2-b0_1/block5a_se_reduce_1/Sigmoid@__inference_function_123465\"] at callsite(fused[\"StatefulPartitionedCall:\", \"StatefulPartitionedCall@__inference_signature_wrapper_124976\"] at fused[\"StatefulPartitionedCall:\", \"StatefulPartitionedCall_1\"]))): Error code: ERROR_NEEDS_FLEX_OPS\n<unknown>:0: error: loc(callsite(fused[\"Mul:\", \"rgnet_practical_1/efficientnetv2-b0_1/block5a_se_reduce_1/mul_1@__inference_function_123465\"] at callsite(fused[\"StatefulPartitionedCall:\", \"StatefulPartitionedCall@__inference_signature_wrapper_124976\"] at fused[\"StatefulPartitionedCall:\", \"StatefulPartitionedCall_1\"]))): 'tf.Mul' op is neither a custom op nor a flex op\n<unknown>:0: note: loc(callsite(fused[\"StatefulPartitionedCall:\", \"StatefulPartitionedCall@__inference_signature_wrapper_124976\"] at fused[\"StatefulPartitionedCall:\", \"StatefulPartitionedCall_1\"])): called from\n<unknown>:0: note: loc(fused[\"StatefulPartitionedCall:\", \"StatefulPartitionedCall_1\"]): called from\n<unknown>:0: note: loc(callsite(fused[\"Mul:\", \"rgnet_practical_1/efficientnetv2-b0_1/block5a_se_reduce_1/mul_1@__inference_function_123465\"] at callsite(fused[\"StatefulPartitionedCall:\", \"StatefulPartitionedCall@__inference_signature_wrapper_124976\"] at fused[\"StatefulPartitionedCall:\", \"StatefulPartitionedCall_1\"]))): see current operation: %472 = \"tf.Mul\"(%470, %471) {device = \"\"} : (tensor<?x1x1x24xf16>, tensor<?x1x1x24xf16>) -> tensor<?x1x1x24xf16>\n<unknown>:0: note: loc(callsite(fused[\"Mul:\", \"rgnet_practical_1/efficientnetv2-b0_1/block5a_se_reduce_1/mul_1@__inference_function_123465\"] at callsite(fused[\"StatefulPartitionedCall:\", \"StatefulPartitionedCall@__inference_signature_wrapper_124976\"] at fused[\"StatefulPartitionedCall:\", \"StatefulPartitionedCall_1\"]))): Error code: ERROR_NEEDS_FLEX_OPS\n<unknown>:0: error: loc(callsite(fused[\"Conv2D:\", \"rgnet_practical_1/efficientnetv2-b0_1/block5a_se_expand_1/convolution@__inference_function_123465\"] at callsite(fused[\"StatefulPartitionedCall:\", \"StatefulPartitionedCall@__inference_signature_wrapper_124976\"] at fused[\"StatefulPartitionedCall:\", \"StatefulPartitionedCall_1\"]))): 'tf.Conv2D' op is neither a custom op nor a flex op\n<unknown>:0: note: loc(callsite(fused[\"StatefulPartitionedCall:\", \"StatefulPartitionedCall@__inference_signature_wrapper_124976\"] at fused[\"StatefulPartitionedCall:\", \"StatefulPartitionedCall_1\"])): called from\n<unknown>:0: note: loc(fused[\"StatefulPartitionedCall:\", \"StatefulPartitionedCall_1\"]): called from\n<unknown>:0: note: loc(callsite(fused[\"Conv2D:\", \"rgnet_practical_1/efficientnetv2-b0_1/block5a_se_expand_1/convolution@__inference_function_123465\"] at callsite(fused[\"StatefulPartitionedCall:\", \"StatefulPartitionedCall@__inference_signature_wrapper_124976\"] at fused[\"StatefulPartitionedCall:\", \"StatefulPartitionedCall_1\"]))): see current operation: %473 = \"tf.Conv2D\"(%472, %182) <{data_format = \"NHWC\", dilations = [1, 1, 1, 1], explicit_paddings = [], padding = \"SAME\", strides = [1, 1, 1, 1], use_cudnn_on_gpu = true}> {device = \"\"} : (tensor<?x1x1x24xf16>, tensor<1x1x24x576xf16>) -> tensor<?x1x1x576xf16>\n<unknown>:0: note: loc(callsite(fused[\"Conv2D:\", \"rgnet_practical_1/efficientnetv2-b0_1/block5a_se_expand_1/convolution@__inference_function_123465\"] at callsite(fused[\"StatefulPartitionedCall:\", \"StatefulPartitionedCall@__inference_signature_wrapper_124976\"] at fused[\"StatefulPartitionedCall:\", \"StatefulPartitionedCall_1\"]))): Error code: ERROR_NEEDS_FLEX_OPS\n<unknown>:0: error: loc(callsite(fused[\"BiasAdd:\", \"rgnet_practical_1/efficientnetv2-b0_1/block5a_se_expand_1/BiasAdd@__inference_function_123465\"] at callsite(fused[\"StatefulPartitionedCall:\", \"StatefulPartitionedCall@__inference_signature_wrapper_124976\"] at fused[\"StatefulPartitionedCall:\", \"StatefulPartitionedCall_1\"]))): 'tf.BiasAdd' op is neither a custom op nor a flex op\n<unknown>:0: note: loc(callsite(fused[\"StatefulPartitionedCall:\", \"StatefulPartitionedCall@__inference_signature_wrapper_124976\"] at fused[\"StatefulPartitionedCall:\", \"StatefulPartitionedCall_1\"])): called from\n<unknown>:0: note: loc(fused[\"StatefulPartitionedCall:\", \"StatefulPartitionedCall_1\"]): called from\n<unknown>:0: note: loc(callsite(fused[\"BiasAdd:\", \"rgnet_practical_1/efficientnetv2-b0_1/block5a_se_expand_1/BiasAdd@__inference_function_123465\"] at callsite(fused[\"StatefulPartitionedCall:\", \"StatefulPartitionedCall@__inference_signature_wrapper_124976\"] at fused[\"StatefulPartitionedCall:\", \"StatefulPartitionedCall_1\"]))): see current operation: %474 = \"tf.BiasAdd\"(%473, %181) <{data_format = \"NHWC\"}> {device = \"\"} : (tensor<?x1x1x576xf16>, tensor<576xf16>) -> tensor<?x1x1x576xf16>\n<unknown>:0: note: loc(callsite(fused[\"BiasAdd:\", \"rgnet_practical_1/efficientnetv2-b0_1/block5a_se_expand_1/BiasAdd@__inference_function_123465\"] at callsite(fused[\"StatefulPartitionedCall:\", \"StatefulPartitionedCall@__inference_signature_wrapper_124976\"] at fused[\"StatefulPartitionedCall:\", \"StatefulPartitionedCall_1\"]))): Error code: ERROR_NEEDS_FLEX_OPS\n<unknown>:0: error: loc(callsite(fused[\"Sigmoid:\", \"rgnet_practical_1/efficientnetv2-b0_1/block5a_se_expand_1/Sigmoid@__inference_function_123465\"] at callsite(fused[\"StatefulPartitionedCall:\", \"StatefulPartitionedCall@__inference_signature_wrapper_124976\"] at fused[\"StatefulPartitionedCall:\", \"StatefulPartitionedCall_1\"]))): 'tf.Sigmoid' op is neither a custom op nor a flex op\n<unknown>:0: note: loc(callsite(fused[\"StatefulPartitionedCall:\", \"StatefulPartitionedCall@__inference_signature_wrapper_124976\"] at fused[\"StatefulPartitionedCall:\", \"StatefulPartitionedCall_1\"])): called from\n<unknown>:0: note: loc(fused[\"StatefulPartitionedCall:\", \"StatefulPartitionedCall_1\"]): called from\n<unknown>:0: note: loc(callsite(fused[\"Sigmoid:\", \"rgnet_practical_1/efficientnetv2-b0_1/block5a_se_expand_1/Sigmoid@__inference_function_123465\"] at callsite(fused[\"StatefulPartitionedCall:\", \"StatefulPartitionedCall@__inference_signature_wrapper_124976\"] at fused[\"StatefulPartitionedCall:\", \"StatefulPartitionedCall_1\"]))): see current operation: %475 = \"tf.Sigmoid\"(%474) {device = \"\"} : (tensor<?x1x1x576xf16>) -> tensor<?x1x1x576xf16>\n<unknown>:0: note: loc(callsite(fused[\"Sigmoid:\", \"rgnet_practical_1/efficientnetv2-b0_1/block5a_se_expand_1/Sigmoid@__inference_function_123465\"] at callsite(fused[\"StatefulPartitionedCall:\", \"StatefulPartitionedCall@__inference_signature_wrapper_124976\"] at fused[\"StatefulPartitionedCall:\", \"StatefulPartitionedCall_1\"]))): Error code: ERROR_NEEDS_FLEX_OPS\n<unknown>:0: error: loc(callsite(fused[\"Mul:\", \"rgnet_practical_1/efficientnetv2-b0_1/block5a_se_excite_1/Mul@__inference_function_123465\"] at callsite(fused[\"StatefulPartitionedCall:\", \"StatefulPartitionedCall@__inference_signature_wrapper_124976\"] at fused[\"StatefulPartitionedCall:\", \"StatefulPartitionedCall_1\"]))): 'tf.Mul' op is neither a custom op nor a flex op\n<unknown>:0: note: loc(callsite(fused[\"StatefulPartitionedCall:\", \"StatefulPartitionedCall@__inference_signature_wrapper_124976\"] at fused[\"StatefulPartitionedCall:\", \"StatefulPartitionedCall_1\"])): called from\n<unknown>:0: note: loc(fused[\"StatefulPartitionedCall:\", \"StatefulPartitionedCall_1\"]): called from\n<unknown>:0: note: loc(callsite(fused[\"Mul:\", \"rgnet_practical_1/efficientnetv2-b0_1/block5a_se_excite_1/Mul@__inference_function_123465\"] at callsite(fused[\"StatefulPartitionedCall:\", \"StatefulPartitionedCall@__inference_signature_wrapper_124976\"] at fused[\"StatefulPartitionedCall:\", \"StatefulPartitionedCall_1\"]))): see current operation: %476 = \"tf.Mul\"(%461, %475) {device = \"\"} : (tensor<?x16x16x576xf16>, tensor<?x1x1x576xf16>) -> tensor<?x16x16x576xf16>\n<unknown>:0: note: loc(callsite(fused[\"Mul:\", \"rgnet_practical_1/efficientnetv2-b0_1/block5a_se_excite_1/Mul@__inference_function_123465\"] at callsite(fused[\"StatefulPartitionedCall:\", \"StatefulPartitionedCall@__inference_signature_wrapper_124976\"] at fused[\"StatefulParti…
ice = \"\"} : (tensor<?x16x16x112xf16>, tensor<1x1x112x672xf16>) -> tensor<?x16x16x672xf16>\n  %623 = \"tfl.cast\"(%622) : (tensor<?x16x16x672xf16>) -> tensor<?x16x16x672xf32>\n  %624 = \"tfl.mul\"(%623, %123) <{fused_activation_function = \"NONE\"}> : (tensor<?x16x16x672xf32>, tensor<1x1x1x672xf32>) -> tensor<?x16x16x672xf32>\n  %625 = \"tfl.add\"(%624, %122) <{fused_activation_function = \"NONE\"}> : (tensor<?x16x16x672xf32>, tensor<1x1x1x672xf32>) -> tensor<?x16x16x672xf32>\n  %626 = \"tfl.cast\"(%625) : (tensor<?x16x16x672xf32>) -> tensor<?x16x16x672xf16>\n  %627 = \"tf.Sigmoid\"(%626) {device = \"\"} : (tensor<?x16x16x672xf16>) -> tensor<?x16x16x672xf16>\n  %628 = \"tf.Mul\"(%626, %627) {device = \"\"} : (tensor<?x16x16x672xf16>, tensor<?x16x16x672xf16>) -> tensor<?x16x16x672xf16>\n  %629 = \"tf.DepthwiseConv2dNative\"(%628, %124) <{data_format = \"NHWC\", dilations = [1, 1, 1, 1], explicit_paddings = [], padding = \"SAME\", strides = [1, 2, 2, 1]}> {device = \"\"} : (tensor<?x16x16x672xf16>, tensor<3x3x672x1xf16>) -> tensor<?x8x8x672xf16>\n  %630 = \"tfl.cast\"(%629) : (tensor<?x8x8x672xf16>) -> tensor<?x8x8x672xf32>\n  %631 = \"tfl.mul\"(%630, %126) <{fused_activation_function = \"NONE\"}> : (tensor<?x8x8x672xf32>, tensor<1x1x1x672xf32>) -> tensor<?x8x8x672xf32>\n  %632 = \"tfl.add\"(%631, %125) <{fused_activation_function = \"NONE\"}> : (tensor<?x8x8x672xf32>, tensor<1x1x1x672xf32>) -> tensor<?x8x8x672xf32>\n  %633 = \"tfl.cast\"(%632) : (tensor<?x8x8x672xf32>) -> tensor<?x8x8x672xf16>\n  %634 = \"tf.Sigmoid\"(%633) {device = \"\"} : (tensor<?x8x8x672xf16>) -> tensor<?x8x8x672xf16>\n  %635 = \"tf.Mul\"(%633, %634) {device = \"\"} : (tensor<?x8x8x672xf16>, tensor<?x8x8x672xf16>) -> tensor<?x8x8x672xf16>\n  %636 = \"tfl.cast\"(%635) : (tensor<?x8x8x672xf16>) -> tensor<?x8x8x672xf32>\n  %637 = \"tfl.mean\"(%636, %269) <{keep_dims = false}> : (tensor<?x8x8x672xf32>, tensor<2xi32>) -> tensor<?x672xf32>\n  %638 = \"tfl.cast\"(%637) : (tensor<?x672xf32>) -> tensor<?x672xf16>\n  %639 = \"tfl.shape\"(%638) : (tensor<?x672xf16>) -> tensor<2xi32>\n  %640 = \"tfl.strided_slice\"(%639, %271, %270, %270) <{begin_mask = 0 : i32, ellipsis_mask = 0 : i32, end_mask = 0 : i32, new_axis_mask = 0 : i32, offset = false, shrink_axis_mask = 1 : i32}> : (tensor<2xi32>, tensor<1xi32>, tensor<1xi32>, tensor<1xi32>) -> tensor<i32>\n  %641 = \"tfl.pack\"(%640, %273, %273, %266) <{axis = 0 : i32, values_count = 4 : i32}> : (tensor<i32>, tensor<i32>, tensor<i32>, tensor<i32>) -> tensor<4xi32>\n  %642 = \"tfl.reshape\"(%638, %641) : (tensor<?x672xf16>, tensor<4xi32>) -> tensor<?x1x1x672xf16>\n  %643 = \"tf.Conv2D\"(%642, %115) <{data_format = \"NHWC\", dilations = [1, 1, 1, 1], explicit_paddings = [], padding = \"SAME\", strides = [1, 1, 1, 1], use_cudnn_on_gpu = true}> {device = \"\"} : (tensor<?x1x1x672xf16>, tensor<1x1x672x28xf16>) -> tensor<?x1x1x28xf16>\n  %644 = \"tf.BiasAdd\"(%643, %114) <{data_format = \"NHWC\"}> {device = \"\"} : (tensor<?x1x1x28xf16>, tensor<28xf16>) -> tensor<?x1x1x28xf16>\n  %645 = \"tf.Sigmoid\"(%644) {device = \"\"} : (tensor<?x1x1x28xf16>) -> tensor<?x1x1x28xf16>\n  %646 = \"tf.Mul\"(%644, %645) {device = \"\"} : (tensor<?x1x1x28xf16>, tensor<?x1x1x28xf16>) -> tensor<?x1x1x28xf16>\n  %647 = \"tf.Conv2D\"(%646, %117) <{data_format = \"NHWC\", dilations = [1, 1, 1, 1], explicit_paddings = [], padding = \"SAME\", strides = [1, 1, 1, 1], use_cudnn_on_gpu = true}> {device = \"\"} : (tensor<?x1x1x28xf16>, tensor<1x1x28x672xf16>) -> tensor<?x1x1x672xf16>\n  %648 = \"tf.BiasAdd\"(%647, %116) <{data_format = \"NHWC\"}> {device = \"\"} : (tensor<?x1x1x672xf16>, tensor<672xf16>) -> tensor<?x1x1x672xf16>\n  %649 = \"tf.Sigmoid\"(%648) {device = \"\"} : (tensor<?x1x1x672xf16>) -> tensor<?x1x1x672xf16>\n  %650 = \"tf.Mul\"(%635, %649) {device = \"\"} : (tensor<?x8x8x672xf16>, tensor<?x1x1x672xf16>) -> tensor<?x8x8x672xf16>\n  %651 = \"tf.Conv2D\"(%650, %118) <{data_format = \"NHWC\", dilations = [1, 1, 1, 1], explicit_paddings = [], padding = \"SAME\", strides = [1, 1, 1, 1], use_cudnn_on_gpu = true}> {device = \"\"} : (tensor<?x8x8x672xf16>, tensor<1x1x672x192xf16>) -> tensor<?x8x8x192xf16>\n  %652 = \"tfl.cast\"(%651) : (tensor<?x8x8x192xf16>) -> tensor<?x8x8x192xf32>\n  %653 = \"tfl.mul\"(%652, %120) <{fused_activation_function = \"NONE\"}> : (tensor<?x8x8x192xf32>, tensor<1x1x1x192xf32>) -> tensor<?x8x8x192xf32>\n  %654 = \"tfl.add\"(%653, %119) <{fused_activation_function = \"NONE\"}> : (tensor<?x8x8x192xf32>, tensor<1x1x1x192xf32>) -> tensor<?x8x8x192xf32>\n  %655 = \"tfl.cast\"(%654) : (tensor<?x8x8x192xf32>) -> tensor<?x8x8x192xf16>\n  %656 = \"tf.Conv2D\"(%655, %108) <{data_format = \"NHWC\", dilations = [1, 1, 1, 1], explicit_paddings = [], padding = \"SAME\", strides = [1, 1, 1, 1], use_cudnn_on_gpu = true}> {device = \"\"} : (tensor<?x8x8x192xf16>, tensor<1x1x192x1152xf16>) -> tensor<?x8x8x1152xf16>\n  %657 = \"tfl.cast\"(%656) : (tensor<?x8x8x1152xf16>) -> tensor<?x8x8x1152xf32>\n  %658 = \"tfl.mul\"(%657, %110) <{fused_activation_function = \"NONE\"}> : (tensor<?x8x8x1152xf32>, tensor<1x1x1x1152xf32>) -> tensor<?x8x8x1152xf32>\n  %659 = \"tfl.add\"(%658, %109) <{fused_activation_function = \"NONE\"}> : (tensor<?x8x8x1152xf32>, tensor<1x1x1x1152xf32>) -> tensor<?x8x8x1152xf32>\n  %660 = \"tfl.cast\"(%659) : (tensor<?x8x8x1152xf32>) -> tensor<?x8x8x1152xf16>\n  %661 = \"tf.Sigmoid\"(%660) {device = \"\"} : (tensor<?x8x8x1152xf16>) -> tensor<?x8x8x1152xf16>\n  %662 = \"tf.Mul\"(%660, %661) {device = \"\"} : (tensor<?x8x8x1152xf16>, tensor<?x8x8x1152xf16>) -> tensor<?x8x8x1152xf16>\n  %663 = \"tf.DepthwiseConv2dNative\"(%662, %111) <{data_format = \"NHWC\", dilations = [1, 1, 1, 1], explicit_paddings = [], padding = \"SAME\", strides = [1, 1, 1, 1]}> {device = \"\"} : (tensor<?x8x8x1152xf16>, tensor<3x3x1152x1xf16>) -> tensor<?x8x8x1152xf16>\n  %664 = \"tfl.cast\"(%663) : (tensor<?x8x8x1152xf16>) -> tensor<?x8x8x1152xf32>\n  %665 = \"tfl.mul\"(%664, %113) <{fused_activation_function = \"NONE\"}> : (tensor<?x8x8x1152xf32>, tensor<1x1x1x1152xf32>) -> tensor<?x8x8x1152xf32>\n  %666 = \"tfl.add\"(%665, %112) <{fused_activation_function = \"NONE\"}> : (tensor<?x8x8x1152xf32>, tensor<1x1x1x1152xf32>) -> tensor<?x8x8x1152xf32>\n  %667 = \"tfl.cast\"(%666) : (tensor<?x8x8x1152xf32>) -> tensor<?x8x8x1152xf16>\n  %668 = \"tf.Sigmoid\"(%667) {device = \"\"} : (tensor<?x8x8x1152xf16>) -> tensor<?x8x8x1152xf16>\n  %669 = \"tf.Mul\"(%667, %668) {device = \"\"} : (tensor<?x8x8x1152xf16>, tensor<?x8x8x1152xf16>) -> tensor<?x8x8x1152xf16>\n  %670 = \"tfl.cast\"(%669) : (tensor<?x8x8x1152xf16>) -> tensor<?x8x8x1152xf32>\n  %671 = \"tfl.mean\"(%670, %269) <{keep_dims = false}> : (tensor<?x8x8x1152xf32>, tensor<2xi32>) -> tensor<?x1152xf32>\n  %672 = \"tfl.cast\"(%671) : (tensor<?x1152xf32>) -> tensor<?x1152xf16>\n  %673 = \"tfl.shape\"(%672) : (tensor<?x1152xf16>) -> tensor<2xi32>\n  %674 = \"tfl.strided_slice\"(%673, %271, %270, %270) <{begin_mask = 0 : i32, ellipsis_mask = 0 : i32, end_mask = 0 : i32, new_axis_mask = 0 : i32, offset = false, shrink_axis_mask = 1 : i32}> : (tensor<2xi32>, tensor<1xi32>, tensor<1xi32>, tensor<1xi32>) -> tensor<i32>\n  %675 = \"tfl.pack\"(%674, %273, %273, %265) <{axis = 0 : i32, values_count = 4 : i32}> : (tensor<i32>, tensor<i32>, tensor<i32>, tensor<i32>) -> tensor<4xi32>\n  %676 = \"tfl.reshape\"(%672, %675) : (tensor<?x1152xf16>, tensor<4xi32>) -> tensor<?x1x1x1152xf16>\n  %677 = \"tf.Conv2D\"(%676, %102) <{data_format = \"NHWC\", dilations = [1, 1, 1, 1], explicit_paddings = [], padding = \"SAME\", strides = [1, 1, 1, 1], use_cudnn_on_gpu = true}> {device = \"\"} : (tensor<?x1x1x1152xf16>, tensor<1x1x1152x48xf16>) -> tensor<?x1x1x48xf16>\n  %678 = \"tf.BiasAdd\"(%677, %101) <{data_format = \"NHWC\"}> {device = \"\"} : (tensor<?x1x1x48xf16>, tensor<48xf16>) -> tensor<?x1x1x48xf16>\n  %679 = \"tf.Sigmoid\"(%678) {device = \"\"} : (tensor<?x1x1x48xf16>) -> tensor<?x1x1x48xf16>\n  %680 = \"tf.Mul\"(%678, %679) {device = \"\"} : (tensor<?x1x1x48xf16>, tensor<?x1x1x48xf16>) -> tensor<?x1x1x48xf16>\n  %681 = \"tf.Conv2D\"(%680, %104) <{data_format = \"NHWC\", dilations = [1, 1, 1, 1], explicit_paddings = [], padding = \"SAME\", strides = [1, 1, 1, 1], use_cudnn_on_gpu = true}> {device = \"\"} : (tensor<?x1x1x48xf16>, tensor<1x1x48x1152xf16>) -> tensor<?x1x1x1152xf16>\n  %682 = \"tf.BiasAdd\"(%681, %103) <{data_format = \"NHWC\"}> {device = \"\"} : (tensor<?x1x1x1152xf16>, tensor<1152xf16>) -> tensor<?x1x1x1152xf16>\n  %683 = \"tf.Sigmoid\"(%682) {device = \"\"} : (tensor<?x1x1x1152xf16>) -> tensor<?x1x1x1152xf16>\n  %684 = \"tf.Mul\"(%669, %683) {device = \"\"} : (tensor<?x8x8x1152xf16>, tensor<?x1x1x1152xf16>) -> tensor<?x8x8x1152xf16>\n  %685 = \"tf.Conv2D\"(%684, %105) <{data_format = \"NHWC\", dilations = [1, 1, 1, 1], explicit_paddings = [], padding = \"SAME\", strides = [1, 1, 1, 1], use_cudnn_on_gpu = true}> {device = \"\"} : (tensor<?x8x8x1152xf16>, tensor<1x1x1152x192xf16>) -> tensor<?x8x8x192xf16>\n  %686 = \"tfl.cast\"(%685) : (tensor<?x8x8x192xf16>) -> tensor<?x8x8x192xf32>\n  %687 = \"tfl.mul\"(%686, %107) <{fused_activation_function = \"NONE\"}> : (tensor<?x8x8x192xf32>, tensor<1x1x1x192xf32>) -> tensor<?x8x8x192xf32>\n  %688 = \"tfl.add\"(%687, %106) <{fused_activation_function = \"NONE\"}> : (tensor<?x8x8x192xf32>, tensor<1x1x1x192xf32>) -> tensor<?x8x8x192xf32>\n  %689 = \"tfl.cast\"(%688) : (tensor<?x8x8x192xf32>) -> tensor<?x8x8x192xf16>\n  %690 = \"tf.AddV2\"(%689, %655) {device = \"\"} : (tensor<?x8x8x192xf16>, tensor<?x8x8x192xf16>) -> tensor<?x8x8x192xf16>\n  %691 = \"tf.Conv2D\"(%690, %95) <{data_format = \"NHWC\", dilations = [1, 1, 1, 1], explicit_paddings = [], padding = \"SAME\", strides = [1, 1, 1, 1], use_cudnn_on_gpu = true}> {device = \"\"} : (tensor<?x8x8x192xf16>, tensor<1x1x192x1152xf16>) -> tensor<?x8x8x1152xf16>\n  %692 = \"tfl.cast\"(%691) : (tensor<?x8x8x1152xf16>) -> tensor<?x8x8x1152xf32>\n  %693 = \"tfl.mul\"(%692, %97) <{fused_activation_function = \"NONE\"}> : (tensor<?x8x8x1152xf32>, tensor<1x1x1x1152xf32>) -> tensor<?x8x8x1152xf32>\n  %694 = \"tfl.add\"(%693, %96) <{fused_activation_function = \"NONE\"}> : (tensor<?x8x8x1152xf32>, tensor<1x1x1x1152xf32>) -> tensor<?x8x8x1152xf32>\n  %695 = \"tfl.cast\"(%694) : (tensor<?x8x8x1152xf32>) -> tensor<?x8x8x1152xf16>\n  %696 = \"tf.Sigmoid\"(%695) {device = \"\"} : (tensor<?x8x8x1152xf16>) -> tensor<?x8x8x1152xf16>\n  %697 = \"tf.Mul\"(%695, %696) {device = \"\"} : (tensor<?x8x8x1152xf16>, tensor<?x8x8x1152xf16>) -> tensor<?x8x8x1152xf16>\n  %698 = \"tf.DepthwiseConv2dNative\"(%697, %98) <{data_format = \"NHWC\", dilations = [1, 1, 1, 1], explicit_paddings = [], padding = \"SAME\", strides = [1, 1, 1, 1]}> {device = \"\"} : (tensor<?x8x8x1152xf16>, tensor<3x3x1152x1xf16>) -> tensor<?x8x8x1152xf16>\n  %699 = \"tfl.cast\"(%698) : (tensor<?x8x8x1152xf16>) -> tensor<?x8x8x1152xf32>\n  %700 = \"tfl.mul\"(%699, %100) <{fused_activation_function = \"NONE\"}> : (tensor<?x8x8x1152xf32>, tensor<1x1x1x1152xf32>) -> tensor<?x8x8x1152xf32>\n  %701 = \"tfl.add\"(%700, %99) <{fused_activation_function = \"NONE\"}> : (tensor<?x8x8x1152xf32>, tensor<1x1x1x1152xf32>) -> tensor<?x8x8x1152xf32>\n  %702 = \"tfl.cast\"(%701) : (tensor<?x8x8x1152xf32>) -> tensor<?x8x8x1152xf16>\n  %703 = \"tf.Sigmoid\"(%702) {device = \"\"} : (tensor<?x8x8x1152xf16>) -> tensor<?x8x8x1152xf16>\n  %704 = \"tf.Mul\"(%702, %703) {device = \"\"} : (tensor<?x8x8x1152xf16>, tensor<?x8x8x1152xf16>) -> tensor<?x8x8x1152xf16>\n  %705 = \"tfl.cast\"(%704) : (tensor<?x8x8x1152xf16>) -> tensor<?x8x8x1152xf32>\n  %706 = \"tfl.mean\"(%705, %269) <{keep_dims = false}> : (tensor<?x8x8x1152xf32>, tensor<2xi32>) -> tensor<?x1152xf32>\n  %707 = \"tfl.cast\"(%706) : (tensor<?x1152xf32>) -> tensor<?x1152xf16>\n  %708 = \"tfl.shape\"(%707) : (tensor<?x1152xf16>) -> tensor<2xi32>\n  %709 = \"tfl.strided_slice\"(%708, %271, %270, %270) <{begin_mask = 0 : i32, ellipsis_mask = 0 : i32, end_mask = 0 : i32, new_axis_mask = 0 : i32, offset = false, shrink_axis_mask = 1 : i32}> : (tensor<2xi32>, tensor<1xi32>, tensor<1xi32>, tensor<1xi32>) -> tensor<i32>\n  %710 = \"tfl.pack\"(%709, %273, %273, %265) <{axis = 0 : i32, values_count = 4 : i32}> : (tensor<i32>, tensor<i32>, tensor<i32>, tensor<i32>) -> tensor<4xi32>\n  %711 = \"tfl.reshape\"(%707, %710) : (tensor<?x1152xf16>, tensor<4xi32>) -> tensor<?x1x1x1152xf16>\n  %712 = \"tf.Conv2D\"(%711, %89) <{data_format = \"NHWC\", dilations = [1, 1, 1, 1], explicit_paddings = [], padding = \"SAME\", strides = [1, 1, 1, 1], use_cudnn_on_gpu = true}> {device = \"\"} : (tensor<?x1x1x1152xf16>, tensor<1x1x1152x48xf16>) -> tensor<?x1x1x48xf16>\n  %713 = \"tf.BiasAdd\"(%712, %88) <{data_format = \"NHWC\"}> {device = \"\"} : (tensor<?x1x1x48xf16>, tensor<48xf16>) -> tensor<?x1x1x48xf16>\n  %714 = \"tf.Sigmoid\"(%713) {device = \"\"} : (tensor<?x1x1x48xf16>) -> tensor<?x1x1x48xf16>\n  %715 = \"tf.Mul\"(%713, %714) {device = \"\"} : (tensor<?x1x1x48xf16>, tensor<?x1x1x48xf16>) -> tensor<?x1x1x48xf16>\n  %716 = \"tf.Conv2D\"(%715, %91) <{data_format = \"NHWC\", dilations = [1, 1, 1, 1], explicit_paddings = [], padding = \"SAME\", strides = [1, 1, 1, 1], use_cudnn_on_gpu = true}> {device = \"\"} : (tensor<?x1x1x48xf16>, tensor<1x1x48x1152xf16>) -> tensor<?x1x1x1152xf16>\n  %717 = \"tf.BiasAdd\"(%716, %90) <{data_format = \"NHWC\"}> {device = \"\"} : (tensor<?x1x1x1152xf16>, tensor<1152xf16>) -> tensor<?x1x1x1152xf16>\n  %718 = \"tf.Sigmoid\"(%717) {device = \"\"} : (tensor<?x1x1x1152xf16>) -> tensor<?x1x1x1152xf16>\n  %719 = \"tf.Mul\"(%704, %718) {device = \"\"} : (tensor<?x8x8x1152xf16>, tensor<?x1x1x1152xf16>) -> tensor<?x8x8x1152xf16>\n  %720 = \"tf.Conv2D\"(%719, %92) <{data_format = \"NHWC\", dilations = [1, 1, 1, 1], explicit_paddings = [], padding = \"SAME\", strides = [1, 1, 1, 1], use_cudnn_on_gpu = true}> {device = \"\"} : (tensor<?x8x8x1152xf16>, tensor<1x1x1152x192xf16>) -> tensor<?x8x8x192xf16>\n  %721 = \"tfl.cast\"(%720) : (tensor<?x8x8x192xf16>) -> tensor<?x8x8x192xf32>\n  %722 = \"tfl.mul\"(%721, %94) <{fused_activation_function = \"NONE\"}> : (tensor<?x8x8x192xf32>, tensor<1x1x1x192xf32>) -> tensor<?x8x8x192xf32>\n  %723 = \"tfl.add\"(%722, %93) <{fused_activation_function = \"NONE\"}> : (tensor<?x8x8x192xf32>, tensor<1x1x1x192xf32>) -> tensor<?x8x8x192xf32>\n  %724 = \"tfl.cast\"(%723) : (tensor<?x8x8x192xf32>) -> tensor<?x8x8x192xf16>\n  %725 = \"tf.AddV2\"(%724, %690) {device = \"\"} : (tensor<?x8x8x192xf16>, tensor<?x8x8x192xf16>) -> tensor<?x8x8x192xf16>\n  %726 = \"tf.Conv2D\"(%725, %82) <{data_format = \"NHWC\", dilations = [1, 1, 1, 1], explicit_paddings = [], padding = \"SAME\", strides = [1, 1, 1, 1], use_cudnn_on_gpu = true}> {device = \"\"} : (tensor<?x8x8x192xf16>, tensor<1x1x192x1152xf16>) -> tensor<?x8x8x1152xf16>\n  %727 = \"tfl.cast\"(%726) : (tensor<?x8x8x1152xf16>) -> tensor<?x8x8x1152xf32>\n  %728 = \"tfl.mul\"(%727, %84) <{fused_activation_function = \"NONE\"}> : (tensor<?x8x8x1152xf32>, tensor<1x1x1x1152xf32>) -> tensor<?x8x8x1152xf32>\n  %729 = \"tfl.add\"(%728, %83) <{fused_activation_function = \"NONE\"}> : (tensor<?x8x8x1152xf32>, tensor<1x1x1x1152xf32>) -> tensor<?x8x8x1152xf32>\n  %730 = \"tfl.cast\"(%729) : (tensor<?x8x8x1152xf32>) -> tensor<?x8x8x1152xf16>\n  %731 = \"tf.Sigmoid\"(%730) {device = \"\"} : (tensor<?x8x8x1152xf16>) -> tensor<?x8x8x1152xf16>\n  %732 = \"tf.Mul\"(%730, %731) {device = \"\"} : (tensor<?x8x8x1152xf16>, tensor<?x8x8x1152xf16>) -> tensor<?x8x8x1152xf16>\n  %733 = \"tf.DepthwiseConv2dNative\"(%732, %85) <{data_format = \"NHWC\", dilations = [1, 1, 1, 1], explicit_paddings = [], padding = \"SAME\", strides = [1, 1, 1, 1]}> {device = \"\"} : (tensor<?x8x8x1152xf16>, tensor<3x3x1152x1xf16>) -> tensor<?x8x8x1152xf16>\n  %734 = \"tfl.cast\"(%733) : (tensor<?x8x8x1152xf16>) -> tensor<?x8x8x1152xf32>\n  %735 = \"tfl.mul\"(%734, %87) <{fused_activation_function = \"NONE\"}> : (tensor<?x8x8x1152xf32>, tensor<1x1x1x1152xf32>) -> tensor<?x8x8x1152xf32>\n  %736 = \"tfl.add\"(%735, %86) <{fused_activation_function = \"NONE\"}> : (tensor<?x8x8x1152xf32>, tensor<1x1x1x1152xf32>) -> tensor<?x8x8x1152xf32>\n  %737 = \"tfl.cast\"(%736) : (tensor<?x8x8x1152xf32>) -> tensor<?x8x8x1152xf16>\n  %738 = \"tf.Sigmoid\"(%737) {device = \"\"} : (tensor<?x8x8x1152xf16>) -> tensor<?x8x8x1152xf16>\n  %739 = \"tf.Mul\"(%737, %738) {device = \"\"} : (tensor<?x8x8x1152xf16>, tensor<?x8x8x1152xf16>) -> tensor<?x8x8x1152xf16>\n  %740 = \"tfl.cast\"(%739) : (tensor<?x8x8x1152xf16>) -> tensor<?x8x8x1152xf32>\n  %741 = \"tfl.mean\"(%740, %269) <{keep_dims = false}> : (tensor<?x8x8x1152xf32>, tensor<2xi32>) -> tensor<?x1152xf32>\n  %742 = \"tfl.cast\"(%741) : (tensor<?x1152xf32>) -> tensor<?x1152xf16>\n  %743 = \"tfl.shape\"(%742) : (tensor<?x1152xf16>) -> tensor<2xi32>\n  %744 = \"tfl.strided_slice\"(%743, %271, %270, %270) <{begin_mask = 0 : i32, ellipsis_mask = 0 : i32, end_mask = 0 : i32, new_axis_mask = 0 : i32, offset = false, shrink_axis_mask = 1 : i32}> : (tensor<2xi32>, tensor<1xi32>, tensor<1xi32>, tensor<1xi32>) -> tensor<i32>\n  %745 = \"tfl.pack\"(%744, %273, %273, %265) <{axis = 0 : i32, values_count = 4 : i32}> : (tensor<i32>, tensor<i32>, tensor<i32>, tensor<i32>) -> tensor<4xi32>\n  %746 = \"tfl.reshape\"(%742, %745) : (tensor<?x1152xf16>, tensor<4xi32>) -> tensor<?x1x1x1152xf16>\n  %747 = \"tf.Conv2D\"(%746, %76) <{data_format = \"NHWC\", dilations = [1, 1, 1, 1], explicit_paddings = [], padding = \"SAME\", strides = [1, 1, 1, 1], use_cudnn_on_gpu = true}> {device = \"\"} : (tensor<?x1x1x1152xf16>, tensor<1x1x1152x48xf16>) -> tensor<?x1x1x48xf16>\n  %748 = \"tf.BiasAdd\"(%747, %75) <{data_format = \"NHWC\"}> {device = \"\"} : (tensor<?x1x1x48xf16>, tensor<48xf16>) -> tensor<?x1x1x48xf16>\n  %749 = \"tf.Sigmoid\"(%748) {device = \"\"} : (tensor<?x1x1x48xf16>) -> tensor<?x1x1x48xf16>\n  %750 = \"tf.Mul\"(%748, %749) {device = \"\"} : (tensor<?x1x1x48xf16>, tensor<?x1x1x48xf16>) -> tensor<?x1x1x48xf16>\n  %751 = \"tf.Conv2D\"(%750, %78) <{data_format = \"NHWC\", dilations = [1, 1, 1, 1], explicit_paddings = [], padding = \"SAME\", strides = [1, 1, 1, 1], use_cudnn_on_gpu = true}> {device = \"\"} : (tensor<?x1x1x48xf16>, tensor<1x1x48x1152xf16>) -> tensor<?x1x1x1152xf16>\n  %752 = \"tf.BiasAdd\"(%751, %77) <{data_format = \"NHWC\"}> {device = \"\"} : (tensor<?x1x1x1152xf16>, tensor<1152xf16>) -> tensor<?x1x1x1152xf16>\n  %753 = \"tf.Sigmoid\"(%752) {device = \"\"} : (tensor<?x1x1x1152xf16>) -> tensor<?x1x1x1152xf16>\n  %754 = \"tf.Mul\"(%739, %753) {device = \"\"} : (tensor<?x8x8x1152xf16>, tensor<?x1x1x1152xf16>) -> tensor<?x8x8x1152xf16>\n  %755 = \"tf.Conv2D\"(%754, %79) <{data_format = \"NHWC\", dilations = [1, 1, 1, 1], explicit_paddings = [], padding = \"SAME\", strides = [1, 1, 1, 1], use_cudnn_on_gpu = true}> {device = \"\"} : (tensor<?x8x8x1152xf16>, tensor<1x1x1152x192xf16>) -> tensor<?x8x8x192xf16>\n  %756 = \"tfl.cast\"(%755) : (tensor<?x8x8x192xf16>) -> tensor<?x8x8x192xf32>\n  %757 = \"tfl.mul\"(%756, %81) <{fused_activation_function = \"NONE\"}> : (tensor<?x8x8x192xf32>, tensor<1x1x1x192xf32>) -> tensor<?x8x8x192xf32>\n  %758 = \"tfl.add\"(%757, %80) <{fused_activation_function = \"NONE\"}> : (tensor<?x8x8x192xf32>, tensor<1x1x1x192xf32>) -> tensor<?x8x8x192xf32>\n  %759 = \"tfl.cast\"(%758) : (tensor<?x8x8x192xf32>) -> tensor<?x8x8x192xf16>\n  %760 = \"tf.AddV2\"(%759, %725) {device = \"\"} : (tensor<?x8x8x192xf16>, tensor<?x8x8x192xf16>) -> tensor<?x8x8x192xf16>\n  %761 = \"tf.Conv2D\"(%760, %69) <{data_format = \"NHWC\", dilations = [1, 1, 1, 1], explicit_paddings = [], padding = \"SAME\", strides = [1, 1, 1, 1], use_cudnn_on_gpu = true}> {device = \"\"} : (tensor<?x8x8x192xf16>, tensor<1x1x192x1152xf16>) -> tensor<?x8x8x1152xf16>\n  %762 = \"tfl.cast\"(%761) : (tensor<?x8x8x1152xf16>) -> tensor<?x8x8x1152xf32>\n  %763 = \"tfl.mul\"(%762, %71) <{fused_activation_function = \"NONE\"}> : (tensor<?x8x8x1152xf32>, tensor<1x1x1x1152xf32>) -> tensor<?x8x8x1152xf32>\n  %764 = \"tfl.add\"(%763, %70) <{fused_activation_function = \"NONE\"}> : (tensor<?x8x8x1152xf32>, tensor<1x1x1x1152xf32>) -> tensor<?x8x8x1152xf32>\n  %765 = \"tfl.cast\"(%764) : (tensor<?x8x8x1152xf32>) -> tensor<?x8x8x1152xf16>\n  %766 = \"tf.Sigmoid\"(%765) {device = \"\"} : (tensor<?x8x8x1152xf16>) -> tensor<?x8x8x1152xf16>\n  %767 = \"tf.Mul\"(%765, %766) {device = \"\"} : (tensor<?x8x8x1152xf16>, tensor<?x8x8x1152xf16>) -> tensor<?x8x8x1152xf16>\n  %768 = \"tf.DepthwiseConv2dNative\"(%767, %72) <{data_format = \"NHWC\", dilations = [1, 1, 1, 1], explicit_paddings = [], padding = \"SAME\", strides = [1, 1, 1, 1]}> {device = \"\"} : (tensor<?x8x8x1152xf16>, tensor<3x3x1152x1xf16>) -> tensor<?x8x8x1152xf16>\n  %769 = \"tfl.cast\"(%768) : (tensor<?x8x8x1152xf16>) -> tensor<?x8x8x1152xf32>\n  %770 = \"tfl.mul\"(%769, %74) <{fused_activation_function = \"NONE\"}> : (tensor<?x8x8x1152xf32>, tensor<1x1x1x1152xf32>) -> tensor<?x8x8x1152xf32>\n  %771 = \"tfl.add\"(%770, %73) <{fused_activation_function = \"NONE\"}> : (tensor<?x8x8x1152xf32>, tensor<1x1x1x1152xf32>) -> tensor<?x8x8x1152xf32>\n  %772 = \"tfl.cast\"(%771) : (tensor<?x8x8x1152xf32>) -> tensor<?x8x8x1152xf16>\n  %773 = \"tf.Sigmoid\"(%772) {device = \"\"} : (tensor<?x8x8x1152xf16>) -> tensor<?x8x8x1152xf16>\n  %774 = \"tf.Mul\"(%772, %773) {device = \"\"} : (tensor<?x8x8x1152xf16>, tensor<?x8x8x1152xf16>) -> tensor<?x8x8x1152xf16>\n  %775 = \"tfl.cast\"(%774) : (tensor<?x8x8x1152xf16>) -> tensor<?x8x8x1152xf32>\n  %776 = \"tfl.mean\"(%775, %269) <{keep_dims = false}> : (tensor<?x8x8x1152xf32>, tensor<2xi32>) -> tensor<?x1152xf32>\n  %777 = \"tfl.cast\"(%776) : (tensor<?x1152xf32>) -> tensor<?x1152xf16>\n  %778 = \"tfl.shape\"(%777) : (tensor<?x1152xf16>) -> tensor<2xi32>\n  %779 = \"tfl.strided_slice\"(%778, %271, %270, %270) <{begin_mask = 0 : i32, ellipsis_mask = 0 : i32, end_mask = 0 : i32, new_axis_mask = 0 : i32, offset = false, shrink_axis_mask = 1 : i32}> : (tensor<2xi32>, tensor<1xi32>, tensor<1xi32>, tensor<1xi32>) -> tensor<i32>\n  %780 = \"tfl.pack\"(%779, %273, %273, %265) <{axis = 0 : i32, values_count = 4 : i32}> : (tensor<i32>, tensor<i32>, tensor<i32>, tensor<i32>) -> tensor<4xi32>\n  %781 = \"tfl.reshape\"(%777, %780) : (tensor<?x1152xf16>, tensor<4xi32>) -> tensor<?x1x1x1152xf16>\n  %782 = \"tf.Conv2D\"(%781, %63) <{data_format = \"NHWC\", dilations = [1, 1, 1, 1], explicit_paddings = [], padding = \"SAME\", strides = [1, 1, 1, 1], use_cudnn_on_gpu = true}> {device = \"\"} : (tensor<?x1x1x1152xf16>, tensor<1x1x1152x48xf16>) -> tensor<?x1x1x48xf16>\n  %783 = \"tf.BiasAdd\"(%782, %62) <{data_format = \"NHWC\"}> {device = \"\"} : (tensor<?x1x1x48xf16>, tensor<48xf16>) -> tensor<?x1x1x48xf16>\n  %784 = \"tf.Sigmoid\"(%783) {device = \"\"} : (tensor<?x1x1x48xf16>) -> tensor<?x1x1x48xf16>\n  %785 = \"tf.Mul\"(%783, %784) {device = \"\"} : (tensor<?x1x1x48xf16>, tensor<?x1x1x48xf16>) -> tensor<?x1x1x48xf16>\n  %786 = \"tf.Conv2D\"(%785, %65) <{data_format = \"NHWC\", dilations = [1, 1, 1, 1], explicit_paddings = [], padding = \"SAME\", strides = [1, 1, 1, 1], use_cudnn_on_gpu = true}> {device = \"\"} : (tensor<?x1x1x48xf16>, tensor<1x1x48x1152xf16>) -> tensor<?x1x1x1152xf16>\n  %787 = \"tf.BiasAdd\"(%786, %64) <{data_format = \"NHWC\"}> {device = \"\"} : (tensor<?x1x1x1152xf16>, tensor<1152xf16>) -> tensor<?x1x1x1152xf16>\n  %788 = \"tf.Sigmoid\"(%787) {device = \"\"} : (tensor<?x1x1x1152xf16>) -> tensor<?x1x1x1152xf16>\n  %789 = \"tf.Mul\"(%774, %788) {device = \"\"} : (tensor<?x8x8x1152xf16>, tensor<?x1x1x1152xf16>) -> tensor<?x8x8x1152xf16>\n  %790 = \"tf.Conv2D\"(%789, %66) <{data_format = \"NHWC\", dilations = [1, 1, 1, 1], explicit_paddings = [], padding = \"SAME\", strides = [1, 1, 1, 1], use_cudnn_on_gpu = true}> {device = \"\"} : (tensor<?x8x8x1152xf16>, tensor<1x1x1152x192xf16>) -> tensor<?x8x8x192xf16>\n  %791 = \"tfl.cast\"(%790) : (tensor<?x8x8x192xf16>) -> tensor<?x8x8x192xf32>\n  %792 = \"tfl.mul\"(%791, %68) <{fused_activation_function = \"NONE\"}> : (tensor<?x8x8x192xf32>, tensor<1x1x1x192xf32>) -> tensor<?x8x8x192xf32>\n  %793 = \"tfl.add\"(%792, %67) <{fused_activation_function = \"NONE\"}> : (tensor<?x8x8x192xf32>, tensor<1x1x1x192xf32>) -> tensor<?x8x8x192xf32>\n  %794 = \"tfl.cast\"(%793) : (tensor<?x8x8x192xf32>) -> tensor<?x8x8x192xf16>\n  %795 = \"tf.AddV2\"(%794, %760) {device = \"\"} : (tensor<?x8x8x192xf16>, tensor<?x8x8x192xf16>) -> tensor<?x8x8x192xf16>\n  %796 = \"tf.Conv2D\"(%795, %56) <{data_format = \"NHWC\", dilations = [1, 1, 1, 1], explicit_paddings = [], padding = \"SAME\", strides = [1, 1, 1, 1], use_cudnn_on_gpu = true}> {device = \"\"} : (tensor<?x8x8x192xf16>, tensor<1x1x192x1152xf16>) -> tensor<?x8x8x1152xf16>\n  %797 = \"tfl.cast\"(%796) : (tensor<?x8x8x1152xf16>) -> tensor<?x8x8x1152xf32>\n  %798 = \"tfl.mul\"(%797, %58) <{fused_activation_function = \"NONE\"}> : (tensor<?x8x8x1152xf32>, tensor<1x1x1x1152xf32>) -> tensor<?x8x8x1152xf32>\n  %799 = \"tfl.add\"(%798, %57) <{fused_activation_function = \"NONE\"}> : (tensor<?x8x8x1152xf32>, tensor<1x1x1x1152xf32>) -> tensor<?x8x8x1152xf32>\n  %800 = \"tfl.cast\"(%799) : (tensor<?x8x8x1152xf32>) -> tensor<?x8x8x1152xf16>\n  %801 = \"tf.Sigmoid\"(%800) {device = \"\"} : (tensor<?x8x8x1152xf16>) -> tensor<?x8x8x1152xf16>\n  %802 = \"tf.Mul\"(%800, %801) {device = \"\"} : (tensor<?x8x8x1152xf16>, tensor<?x8x8x1152xf16>) -> tensor<?x8x8x1152xf16>\n  %803 = \"tf.DepthwiseConv2dNative\"(%802, %59) <{data_format = \"NHWC\", dilations = [1, 1, 1, 1], explicit_paddings = [], padding = \"SAME\", strides = [1, 1, 1, 1]}> {device = \"\"} : (tensor<?x8x8x1152xf16>, tensor<3x3x1152x1xf16>) -> tensor<?x8x8x1152xf16>\n  %804 = \"tfl.cast\"(%803) : (tensor<?x8x8x1152xf16>) -> tensor<?x8x8x1152xf32>\n  %805 = \"tfl.mul\"(%804, %61) <{fused_activation_function = \"NONE\"}> : (tensor<?x8x8x1152xf32>, tensor<1x1x1x1152xf32>) -> tensor<?x8x8x1152xf32>\n  %806 = \"tfl.add\"(%805, %60) <{fused_activation_function = \"NONE\"}> : (tensor<?x8x8x1152xf32>, tensor<1x1x1x1152xf32>) -> tensor<?x8x8x1152xf32>\n  %807 = \"tfl.cast\"(%806) : (tensor<?x8x8x1152xf32>) -> tensor<?x8x8x1152xf16>\n  %808 = \"tf.Sigmoid\"(%807) {device = \"\"} : (tensor<?x8x8x1152xf16>) -> tensor<?x8x8x1152xf16>\n  %809 = \"tf.Mul\"(%807, %808) {device = \"\"} : (tensor<?x8x8x1152xf16>, tensor<?x8x8x1152xf16>) -> tensor<?x8x8x1152xf16>\n  %810 = \"tfl.cast\"(%809) : (tensor<?x8x8x1152xf16>) -> tensor<?x8x8x1152xf32>\n  %811 = \"tfl.mean\"(%810, %269) <{keep_dims = false}> : (tensor<?x8x8x1152xf32>, tensor<2xi32>) -> tensor<?x1152xf32>\n  %812 = \"tfl.cast\"(%811) : (tensor<?x1152xf32>) -> tensor<?x1152xf16>\n  %813 = \"tfl.shape\"(%812) : (tensor<?x1152xf16>) -> tensor<2xi32>\n  %814 = \"tfl.strided_slice\"(%813, %271, %270, %270) <{begin_mask = 0 : i32, ellipsis_mask = 0 : i32, end_mask = 0 : i32, new_axis_mask = 0 : i32, offset = false, shrink_axis_mask = 1 : i32}> : (tensor<2xi32>, tensor<1xi32>, tensor<1xi32>, tensor<1xi32>) -> tensor<i32>\n  %815 = \"tfl.pack\"(%814, %273, %273, %265) <{axis = 0 : i32, values_count = 4 : i32}> : (tensor<i32>, tensor<i32>, tensor<i32>, tensor<i32>) -> tensor<4xi32>\n  %816 = \"tfl.reshape\"(%812, %815) : (tensor<?x1152xf16>, tensor<4xi32>) -> tensor<?x1x1x1152xf16>\n  %817 = \"tf.Conv2D\"(%816, %50) <{data_format = \"NHWC\", dilations = [1, 1, 1, 1], explicit_paddings = [], padding = \"SAME\", strides = [1, 1, 1, 1], use_cudnn_on_gpu = true}> {device = \"\"} : (tensor<?x1x1x1152xf16>, tensor<1x1x1152x48xf16>) -> tensor<?x1x1x48xf16>\n  %818 = \"tf.BiasAdd\"(%817, %49) <{data_format = \"NHWC\"}> {device = \"\"} : (tensor<?x1x1x48xf16>, tensor<48xf16>) -> tensor<?x1x1x48xf16>\n  %819 = \"tf.Sigmoid\"(%818) {device = \"\"} : (tensor<?x1x1x48xf16>) -> tensor<?x1x1x48xf16>\n  %820 = \"tf.Mul\"(%818, %819) {device = \"\"} : (tensor<?x1x1x48xf16>, tensor<?x1x1x48xf16>) -> tensor<?x1x1x48xf16>\n  %821 = \"tf.Conv2D\"(%820, %52) <{data_format = \"NHWC\", dilations = [1, 1, 1, 1], explicit_paddings = [], padding = \"SAME\", strides = [1, 1, 1, 1], use_cudnn_on_gpu = true}> {device = \"\"} : (tensor<?x1x1x48xf16>, tensor<1x1x48x1152xf16>) -> tensor<?x1x1x1152xf16>\n  %822 = \"tf.BiasAdd\"(%821, %51) <{data_format = \"NHWC\"}> {device = \"\"} : (tensor<?x1x1x1152xf16>, tensor<1152xf16>) -> tensor<?x1x1x1152xf16>\n  %823 = \"tf.Sigmoid\"(%822) {device = \"\"} : (tensor<?x1x1x1152xf16>) -> tensor<?x1x1x1152xf16>\n  %824 = \"tf.Mul\"(%809, %823) {device = \"\"} : (tensor<?x8x8x1152xf16>, tensor<?x1x1x1152xf16>) -> tensor<?x8x8x1152xf16>\n  %825 = \"tf.Conv2D\"(%824, %53) <{data_format = \"NHWC\", dilations = [1, 1, 1, 1], explicit_paddings = [], padding = \"SAME\", strides = [1, 1, 1, 1], use_cudnn_on_gpu = true}> {device = \"\"} : (tensor<?x8x8x1152xf16>, tensor<1x1x1152x192xf16>) -> tensor<?x8x8x192xf16>\n  %826 = \"tfl.cast\"(%825) : (tensor<?x8x8x192xf16>) -> tensor<?x8x8x192xf32>\n  %827 = \"tfl.mul\"(%826, %55) <{fused_activation_function = \"NONE\"}> : (tensor<?x8x8x192xf32>, tensor<1x1x1x192xf32>) -> tensor<?x8x8x192xf32>\n  %828 = \"tfl.add\"(%827, %54) <{fused_activation_function = \"NONE\"}> : (tensor<?x8x8x192xf32>, tensor<1x1x1x192xf32>) -> tensor<?x8x8x192xf32>\n  %829 = \"tfl.cast\"(%828) : (tensor<?x8x8x192xf32>) -> tensor<?x8x8x192xf16>\n  %830 = \"tf.AddV2\"(%829, %795) {device = \"\"} : (tensor<?x8x8x192xf16>, tensor<?x8x8x192xf16>) -> tensor<?x8x8x192xf16>\n  %831 = \"tf.Conv2D\"(%830, %43) <{data_format = \"NHWC\", dilations = [1, 1, 1, 1], explicit_paddings = [], padding = \"SAME\", strides = [1, 1, 1, 1], use_cudnn_on_gpu = true}> {device = \"\"} : (tensor<?x8x8x192xf16>, tensor<1x1x192x1152xf16>) -> tensor<?x8x8x1152xf16>\n  %832 = \"tfl.cast\"(%831) : (tensor<?x8x8x1152xf16>) -> tensor<?x8x8x1152xf32>\n  %833 = \"tfl.mul\"(%832, %45) <{fused_activation_function = \"NONE\"}> : (tensor<?x8x8x1152xf32>, tensor<1x1x1x1152xf32>) -> tensor<?x8x8x1152xf32>\n  %834 = \"tfl.add\"(%833, %44) <{fused_activation_function = \"NONE\"}> : (tensor<?x8x8x1152xf32>, tensor<1x1x1x1152xf32>) -> tensor<?x8x8x1152xf32>\n  %835 = \"tfl.cast\"(%834) : (tensor<?x8x8x1152xf32>) -> tensor<?x8x8x1152xf16>\n  %836 = \"tf.Sigmoid\"(%835) {device = \"\"} : (tensor<?x8x8x1152xf16>) -> tensor<?x8x8x1152xf16>\n  %837 = \"tf.Mul\"(%835, %836) {device = \"\"} : (tensor<?x8x8x1152xf16>, tensor<?x8x8x1152xf16>) -> tensor<?x8x8x1152xf16>\n  %838 = \"tf.DepthwiseConv2dNative\"(%837, %46) <{data_format = \"NHWC\", dilations = [1, 1, 1, 1], explicit_paddings = [], padding = \"SAME\", strides = [1, 1, 1, 1]}> {device = \"\"} : (tensor<?x8x8x1152xf16>, tensor<3x3x1152x1xf16>) -> tensor<?x8x8x1152xf16>\n  %839 = \"tfl.cast\"(%838) : (tensor<?x8x8x1152xf16>) -> tensor<?x8x8x1152xf32>\n  %840 = \"tfl.mul\"(%839, %48) <{fused_activation_function = \"NONE\"}> : (tensor<?x8x8x1152xf32>, tensor<1x1x1x1152xf32>) -> tensor<?x8x8x1152xf32>\n  %841 = \"tfl.add\"(%840, %47) <{fused_activation_function = \"NONE\"}> : (tensor<?x8x8x1152xf32>, tensor<1x1x1x1152xf32>) -> tensor<?x8x8x1152xf32>\n  %842 = \"tfl.cast\"(%841) : (tensor<?x8x8x1152xf32>) -> tensor<?x8x8x1152xf16>\n  %843 = \"tf.Sigmoid\"(%842) {device = \"\"} : (tensor<?x8x8x1152xf16>) -> tensor<?x8x8x1152xf16>\n  %844 = \"tf.Mul\"(%842, %843) {device = \"\"} : (tensor<?x8x8x1152xf16>, tensor<?x8x8x1152xf16>) -> tensor<?x8x8x1152xf16>\n  %845 = \"tfl.cast\"(%844) : (tensor<?x8x8x1152xf16>) -> tensor<?x8x8x1152xf32>\n  %846 = \"tfl.mean\"(%845, %269) <{keep_dims = false}> : (tensor<?x8x8x1152xf32>, tensor<2xi32>) -> tensor<?x1152xf32>\n  %847 = \"tfl.cast\"(%846) : (tensor<?x1152xf32>) -> tensor<?x1152xf16>\n  %848 = \"tfl.shape\"(%847) : (tensor<?x1152xf16>) -> tensor<2xi32>\n  %849 = \"tfl.strided_slice\"(%848, %271, %270, %270) <{begin_mask = 0 : i32, ellipsis_mask = 0 : i32, end_mask = 0 : i32, new_axis_mask = 0 : i32, offset = false, shrink_axis_mask = 1 : i32}> : (tensor<2xi32>, tensor<1xi32>, tensor<1xi32>, tensor<1xi32>) -> tensor<i32>\n  %850 = \"tfl.pack\"(%849, %273, %273, %265) <{axis = 0 : i32, values_count = 4 : i32}> : (tensor<i32>, tensor<i32>, tensor<i32>, tensor<i32>) -> tensor<4xi32>\n  %851 = \"tfl.reshape\"(%847, %850) : (tensor<?x1152xf16>, tensor<4xi32>) -> tensor<?x1x1x1152xf16>\n  %852 = \"tf.Conv2D\"(%851, %37) <{data_format = \"NHWC\", dilations = [1, 1, 1, 1], explicit_paddings = [], padding = \"SAME\", strides = [1, 1, 1, 1], use_cudnn_on_gpu = true}> {device = \"\"} : (tensor<?x1x1x1152xf16>, tensor<1x1x1152x48xf16>) -> tensor<?x1x1x48xf16>\n  %853 = \"tf.BiasAdd\"(%852, %36) <{data_format = \"NHWC\"}> {device = \"\"} : (tensor<?x1x1x48xf16>, tensor<48xf16>) -> tensor<?x1x1x48xf16>\n  %854 = \"tf.Sigmoid\"(%853) {device = \"\"} : (tensor<?x1x1x48xf16>) -> tensor<?x1x1x48xf16>\n  %855 = \"tf.Mul\"(%853, %854) {device = \"\"} : (tensor<?x1x1x48xf16>, tensor<?x1x1x48xf16>) -> tensor<?x1x1x48xf16>\n  %856 = \"tf.Conv2D\"(%855, %39) <{data_format = \"NHWC\", dilations = [1, 1, 1, 1], explicit_paddings = [], padding = \"SAME\", strides = [1, 1, 1, 1], use_cudnn_on_gpu = true}> {device = \"\"} : (tensor<?x1x1x48xf16>, tensor<1x1x48x1152xf16>) -> tensor<?x1x1x1152xf16>\n  %857 = \"tf.BiasAdd\"(%856, %38) <{data_format = \"NHWC\"}> {device = \"\"} : (tensor<?x1x1x1152xf16>, tensor<1152xf16>) -> tensor<?x1x1x1152xf16>\n  %858 = \"tf.Sigmoid\"(%857) {device = \"\"} : (tensor<?x1x1x1152xf16>) -> tensor<?x1x1x1152xf16>\n  %859 = \"tf.Mul\"(%844, %858) {device = \"\"} : (tensor<?x8x8x1152xf16>, tensor<?x1x1x1152xf16>) -> tensor<?x8x8x1152xf16>\n  %860 = \"tf.Conv2D\"(%859, %40) <{data_format = \"NHWC\", dilations = [1, 1, 1, 1], explicit_paddings = [], padding = \"SAME\", strides = [1, 1, 1, 1], use_cudnn_on_gpu = true}> {device = \"\"} : (tensor<?x8x8x1152xf16>, tensor<1x1x1152x192xf16>) -> tensor<?x8x8x192xf16>\n  %861 = \"tfl.cast\"(%860) : (tensor<?x8x8x192xf16>) -> tensor<?x8x8x192xf32>\n  %862 = \"tfl.mul\"(%861, %42) <{fused_activation_function = \"NONE\"}> : (tensor<?x8x8x192xf32>, tensor<1x1x1x192xf32>) -> tensor<?x8x8x192xf32>\n  %863 = \"tfl.add\"(%862, %41) <{fused_activation_function = \"NONE\"}> : (tensor<?x8x8x192xf32>, tensor<1x1x1x192xf32>) -> tensor<?x8x8x192xf32>\n  %864 = \"tfl.cast\"(%863) : (tensor<?x8x8x192xf32>) -> tensor<?x8x8x192xf16>\n  %865 = \"tf.AddV2\"(%864, %830) {device = \"\"} : (tensor<?x8x8x192xf16>, tensor<?x8x8x192xf16>) -> tensor<?x8x8x192xf16>\n  %866 = \"tf.Conv2D\"(%865, %30) <{data_format = \"NHWC\", dilations = [1, 1, 1, 1], explicit_paddings = [], padding = \"SAME\", strides = [1, 1, 1, 1], use_cudnn_on_gpu = true}> {device = \"\"} : (tensor<?x8x8x192xf16>, tensor<1x1x192x1152xf16>) -> tensor<?x8x8x1152xf16>\n  %867 = \"tfl.cast\"(%866) : (tensor<?x8x8x1152xf16>) -> tensor<?x8x8x1152xf32>\n  %868 = \"tfl.mul\"(%867, %32) <{fused_activation_function = \"NONE\"}> : (tensor<?x8x8x1152xf32>, tensor<1x1x1x1152xf32>) -> tensor<?x8x8x1152xf32>\n  %869 = \"tfl.add\"(%868, %31) <{fused_activation_function = \"NONE\"}> : (tensor<?x8x8x1152xf32>, tensor<1x1x1x1152xf32>) -> tensor<?x8x8x1152xf32>\n  %870 = \"tfl.cast\"(%869) : (tensor<?x8x8x1152xf32>) -> tensor<?x8x8x1152xf16>\n  %871 = \"tf.Sigmoid\"(%870) {device = \"\"} : (tensor<?x8x8x1152xf16>) -> tensor<?x8x8x1152xf16>\n  %872 = \"tf.Mul\"(%870, %871) {device = \"\"} : (tensor<?x8x8x1152xf16>, tensor<?x8x8x1152xf16>) -> tensor<?x8x8x1152xf16>\n  %873 = \"tf.DepthwiseConv2dNative\"(%872, %33) <{data_format = \"NHWC\", dilations = [1, 1, 1, 1], explicit_paddings = [], padding = \"SAME\", strides = [1, 1, 1, 1]}> {device = \"\"} : (tensor<?x8x8x1152xf16>, tensor<3x3x1152x1xf16>) -> tensor<?x8x8x1152xf16>\n  %874 = \"tfl.cast\"(%873) : (tensor<?x8x8x1152xf16>) -> tensor<?x8x8x1152xf32>\n  %875 = \"tfl.mul\"(%874, %35) <{fused_activation_function = \"NONE\"}> : (tensor<?x8x8x1152xf32>, tensor<1x1x1x1152xf32>) -> tensor<?x8x8x1152xf32>\n  %876 = \"tfl.add\"(%875, %34) <{fused_activation_function = \"NONE\"}> : (tensor<?x8x8x1152xf32>, tensor<1x1x1x1152xf32>) -> tensor<?x8x8x1152xf32>\n  %877 = \"tfl.cast\"(%876) : (tensor<?x8x8x1152xf32>) -> tensor<?x8x8x1152xf16>\n  %878 = \"tf.Sigmoid\"(%877) {device = \"\"} : (tensor<?x8x8x1152xf16>) -> tensor<?x8x8x1152xf16>\n  %879 = \"tf.Mul\"(%877, %878) {device = \"\"} : (tensor<?x8x8x1152xf16>, tensor<?x8x8x1152xf16>) -> tensor<?x8x8x1152xf16>\n  %880 = \"tfl.cast\"(%879) : (tensor<?x8x8x1152xf16>) -> tensor<?x8x8x1152xf32>\n  %881 = \"tfl.mean\"(%880, %269) <{keep_dims = false}> : (tensor<?x8x8x1152xf32>, tensor<2xi32>) -> tensor<?x1152xf32>\n  %882 = \"tfl.cast\"(%881) : (tensor<?x1152xf32>) -> tensor<?x1152xf16>\n  %883 = \"tfl.shape\"(%882) : (tensor<?x1152xf16>) -> tensor<2xi32>\n  %884 = \"tfl.strided_slice\"(%883, %271, %270, %270) <{begin_mask = 0 : i32, ellipsis_mask = 0 : i32, end_mask = 0 : i32, new_axis_mask = 0 : i32, offset = false, shrink_axis_mask = 1 : i32}> : (tensor<2xi32>, tensor<1xi32>, tensor<1xi32>, tensor<1xi32>) -> tensor<i32>\n  %885 = \"tfl.pack\"(%884, %273, %273, %265) <{axis = 0 : i32, values_count = 4 : i32}> : (tensor<i32>, tensor<i32>, tensor<i32>, tensor<i32>) -> tensor<4xi32>\n  %886 = \"tfl.reshape\"(%882, %885) : (tensor<?x1152xf16>, tensor<4xi32>) -> tensor<?x1x1x1152xf16>\n  %887 = \"tf.Conv2D\"(%886, %24) <{data_format = \"NHWC\", dilations = [1, 1, 1, 1], explicit_paddings = [], padding = \"SAME\", strides = [1, 1, 1, 1], use_cudnn_on_gpu = true}> {device = \"\"} : (tensor<?x1x1x1152xf16>, tensor<1x1x1152x48xf16>) -> tensor<?x1x1x48xf16>\n  %888 = \"tf.BiasAdd\"(%887, %23) <{data_format = \"NHWC\"}> {device = \"\"} : (tensor<?x1x1x48xf16>, tensor<48xf16>) -> tensor<?x1x1x48xf16>\n  %889 = \"tf.Sigmoid\"(%888) {device = \"\"} : (tensor<?x1x1x48xf16>) -> tensor<?x1x1x48xf16>\n  %890 = \"tf.Mul\"(%888, %889) {device = \"\"} : (tensor<?x1x1x48xf16>, tensor<?x1x1x48xf16>) -> tensor<?x1x1x48xf16>\n  %891 = \"tf.Conv2D\"(%890, %26) <{data_format = \"NHWC\", dilations = [1, 1, 1, 1], explicit_paddings = [], padding = \"SAME\", strides = [1, 1, 1, 1], use_cudnn_on_gpu = true}> {device = \"\"} : (tensor<?x1x1x48xf16>, tensor<1x1x48x1152xf16>) -> tensor<?x1x1x1152xf16>\n  %892 = \"tf.BiasAdd\"(%891, %25) <{data_format = \"NHWC\"}> {device = \"\"} : (tensor<?x1x1x1152xf16>, tensor<1152xf16>) -> tensor<?x1x1x1152xf16>\n  %893 = \"tf.Sigmoid\"(%892) {device = \"\"} : (tensor<?x1x1x1152xf16>) -> tensor<?x1x1x1152xf16>\n  %894 = \"tf.Mul\"(%879, %893) {device = \"\"} : (tensor<?x8x8x1152xf16>, tensor<?x1x1x1152xf16>) -> tensor<?x8x8x1152xf16>\n  %895 = \"tf.Conv2D\"(%894, %27) <{data_format = \"NHWC\", dilations = [1, 1, 1, 1], explicit_paddings = [], padding = \"SAME\", strides = [1, 1, 1, 1], use_cudnn_on_gpu = true}> {device = \"\"} : (tensor<?x8x8x1152xf16>, tensor<1x1x1152x192xf16>) -> tensor<?x8x8x192xf16>\n  %896 = \"tfl.cast\"(%895) : (tensor<?x8x8x192xf16>) -> tensor<?x8x8x192xf32>\n  %897 = \"tfl.mul\"(%896, %29) <{fused_activation_function = \"NONE\"}> : (tensor<?x8x8x192xf32>, tensor<1x1x1x192xf32>) -> tensor<?x8x8x192xf32>\n  %898 = \"tfl.add\"(%897, %28) <{fused_activation_function = \"NONE\"}> : (tensor<?x8x8x192xf32>, tensor<1x1x1x192xf32>) -> tensor<?x8x8x192xf32>\n  %899 = \"tfl.cast\"(%898) : (tensor<?x8x8x192xf32>) -> tensor<?x8x8x192xf16>\n  %900 = \"tf.AddV2\"(%899, %865) {device = \"\"} : (tensor<?x8x8x192xf16>, tensor<?x8x8x192xf16>) -> tensor<?x8x8x192xf16>\n  %901 = \"tf.Conv2D\"(%900, %17) <{data_format = \"NHWC\", dilations = [1, 1, 1, 1], explicit_paddings = [], padding = \"SAME\", strides = [1, 1, 1, 1], use_cudnn_on_gpu = true}> {device = \"\"} : (tensor<?x8x8x192xf16>, tensor<1x1x192x1280xf16>) -> tensor<?x8x8x1280xf16>\n  %902 = \"tfl.cast\"(%901) : (tensor<?x8x8x1280xf16>) -> tensor<?x8x8x1280xf32>\n  %903 = \"tfl.mul\"(%902, %19) <{fused_activation_function = \"NONE\"}> : (tensor<?x8x8x1280xf32>, tensor<1x1x1x1280xf32>) -> tensor<?x8x8x1280xf32>\n  %904 = \"tfl.add\"(%903, %18) <{fused_activation_function = \"NONE\"}> : (tensor<?x8x8x1280xf32>, tensor<1x1x1x1280xf32>) -> tensor<?x8x8x1280xf32>\n  %905 = \"tfl.cast\"(%904) : (tensor<?x8x8x1280xf32>) -> tensor<?x8x8x1280xf16>\n  %906 = \"tf.Sigmoid\"(%905) {device = \"\"} : (tensor<?x8x8x1280xf16>) -> tensor<?x8x8x1280xf16>\n  %907 = \"tf.Mul\"(%905, %906) {device = \"\"} : (tensor<?x8x8x1280xf16>, tensor<?x8x8x1280xf16>) -> tensor<?x8x8x1280xf16>\n  %908 = \"tf.Conv2D\"(%907, %7) <{data_format = \"NHWC\", dilations = [1, 1, 1, 1], explicit_paddings = [], padding = \"SAME\", strides = [1, 1, 1, 1], use_cudnn_on_gpu = true}> {device = \"\"} : (tensor<?x8x8x1280xf16>, tensor<1x1x1280x256xf16>) -> tensor<?x8x8x256xf16>\n  %909 = \"tf.BiasAdd\"(%908, %6) <{data_format = \"NHWC\"}> {device = \"\"} : (tensor<?x8x8x256xf16>, tensor<256xf16>) -> tensor<?x8x8x256xf16>\n  %910 = \"tf.Relu\"(%909) {device = \"\"} : (tensor<?x8x8x256xf16>) -> tensor<?x8x8x256xf16>\n  %911 = \"tfl.cast\"(%910) : (tensor<?x8x8x256xf16>) -> tensor<?x8x8x256xf32>\n  %912 = \"tfl.mean\"(%911, %269) <{keep_dims = false}> : (tensor<?x8x8x256xf32>, tensor<2xi32>) -> tensor<?x256xf32>\n  %913 = \"tfl.cast\"(%912) : (tensor<?x256xf32>) -> tensor<?x256xf16>\n  %914 = \"tfl.shape\"(%910) : (tensor<?x8x8x256xf16>) -> tensor<4xi32>\n  %915 = \"tfl.strided_slice\"(%914, %271, %270, %270) <{begin_mask = 0 : i32, ellipsis_mask = 0 : i32, end_mask = 0 : i32, new_axis_mask = 0 : i32, offset = false, shrink_axis_mask = 1 : i32}> : (tensor<4xi32>, tensor<1xi32>, tensor<1xi32>, tensor<1xi32>) -> tensor<i32>\n  %916 = \"tfl.pack\"(%915, %262, %261) <{axis = 0 : i32, values_count = 3 : i32}> : (tensor<i32>, tensor<i32>, tensor<i32>) -> tensor<3xi32>\n  %917 = \"tfl.reshape\"(%910, %916) : (tensor<?x8x8x256xf16>, tensor<3xi32>) -> tensor<?x64x256xf16>\n  %918 = \"tfl.cast\"(%917) : (tensor<?x64x256xf16>) -> tensor<?x64x256xf32>\n  %919 = \"tfl.l2_normalization\"(%918) <{fused_activation_function = \"NONE\"}> : (tensor<?x64x256xf32>) -> tensor<?x64x256xf32>\n  %920 = \"tfl.batch_matmul\"(%919, %919) <{adj_x = false, adj_y = true}> : (tensor<?x64x256xf32>, tensor<?x64x256xf32>) -> tensor<?x64x64xf32>\n  %921 = \"tfl.shape\"(%920) : (tensor<?x64x64xf32>) -> tensor<3xi32>\n  %922 = \"tfl.strided_slice\"(%921, %271, %270, %270) <{begin_mask = 0 : i32, ellipsis_mask = 0 : i32, end_mask = 0 : i32, new_axis_mask = 0 : i32, offset = false, shrink_axis_mask = 1 : i32}> : (tensor<3xi32>, tensor<1xi32>, tensor<1xi32>, tensor<1xi32>) -> tensor<i32>\n  %923 = \"tfl.reshape\"(%922, %270) : (tensor<i32>, tensor<1xi32>) -> tensor<1xi32>\n  %924 = \"tfl.concatenation\"(%923, %258) <{axis = 0 : i32, fused_activation_function = \"NONE\"}> : (tensor<1xi32>, tensor<1xi32>) -> tensor<2xi32>\n  %925 = \"tfl.fill\"(%924, %274) : (tensor<2xi32>, tensor<f32>) -> tensor<?x64xf32>\n  %926 = \"tfl.matrix_diag\"(%925) : (tensor<?x64xf32>) -> tensor<?x64x64xf32>\n  %927 = \"tfl.mul\"(%920, %259) <{fused_activation_function = \"NONE\"}> : (tensor<?x64x64xf32>, tensor<f32>) -> tensor<?x64x64xf32>\n  %928 = \"tfl.softmax\"(%927) <{beta = 1.000000e+00 : f32}> : (tensor<?x64x64xf32>) -> tensor<?x64x64xf32>\n  %929 = \"tfl.add\"(%928, %926) <{fused_activation_function = \"NONE\"}> : (tensor<?x64x64xf32>, tensor<?x64x64xf32>) -> tensor<?x64x64xf32>\n  %930 = \"tfl.sum\"(%929, %275) <{keep_dims = true}> : (tensor<?x64x64xf32>, tensor<i32>) -> tensor<?x64x1xf32>\n  %931 = \"tfl.maximum\"(%930, %264) : (tensor<?x64x1xf32>, tensor<f32>) -> tensor<?x64x1xf32>\n  %932 = \"tfl.div\"(%929, %931) <{fused_activation_function = \"NONE\"}> : (tensor<?x64x64xf32>, tensor<?x64x1xf32>) -> tensor<?x64x64xf32>\n  %933 = \"tfl.cast\"(%932) : (tensor<?x64x64xf32>) -> tensor<?x64x64xf16>\n  %934 = \"tf.BatchMatMulV2\"(%933, %917) <{adj_x = false, adj_y = false, grad_x = false, grad_y = false}> {device = \"\"} : (tensor<?x64x64xf16>, tensor<?x64x256xf16>) -> tensor<?x64x256xf16>\n  %935 = \"tf.BatchMatMulV2\"(%934, %16) <{adj_x = false, adj_y = false, grad_x = false, grad_y = false}> {device = \"\"} : (tensor<?x64x256xf16>, tensor<256x256xf16>) -> tensor<?x64x256xf16>\n  %936 = \"tf.Relu\"(%935) {device = \"\"} : (tensor<?x64x256xf16>) -> tensor<?x64x256xf16>\n  %937 = \"tf.AddV2\"(%936, %917) {device = \"\"} : (tensor<?x64x256xf16>, tensor<?x64x256xf16>) -> tensor<?x64x256xf16>\n  %938 = \"tfl.cast\"(%937) : (tensor<?x64x256xf16>) -> tensor<?x64x256xf32>\n  %939 = \"tfl.mean\"(%938, %263) <{keep_dims = true}> : (tensor<?x64x256xf32>, tensor<1xi32>) -> tensor<?x64x1xf32>\n  %940 = \"tfl.neg\"(%939) : (tensor<?x64x1xf32>) -> tensor<?x64x1xf32>\n  %941 = \"tfl.squared_difference\"(%938, %939) : (tensor<?x64x256xf32>, tensor<?x64x1xf32>) -> tensor<?x64x256xf32>\n  %942 = \"tfl.mean\"(%941, %263) <{keep_dims = true}> : (tensor<?x64x256xf32>, tensor<1xi32>) -> tensor<?x64x1xf32>\n  %943 = \"tfl.add\"(%942, %264) <{fused_activation_function = \"NONE\"}> : (tensor<?x64x1xf32>, tensor<f32>) -> tensor<?x64x1xf32>\n  %944 = \"tfl.rsqrt\"(%943) : (tensor<?x64x1xf32>) -> tensor<?x64x1xf32>\n  %945 = \"tfl.mul\"(%944, %14) <{fused_activation_function = \"NONE\"}> : (tensor<?x64x1xf32>, tensor<1x1x256xf32>) -> tensor<?x64x256xf32>\n  %946 = \"tfl.mul\"(%940, %945) <{fused_activation_function = \"NONE\"}> : (tensor<?x64x1xf32>, tensor<?x64x256xf32>) -> tensor<?x64x256xf32>\n  %947 = \"tfl.add\"(%946, %15) <{fused_activation_function = \"NONE\"}> : (tensor<?x64x256xf32>, tensor<1x1x256xf32>) -> tensor<?x64x256xf32>\n  %948 = \"tfl.mul\"(%938, %945) <{fused_activation_function = \"NONE\"}> : (tensor<?x64x256xf32>, tensor<?x64x256xf32>) -> tensor<?x64x256xf32>\n  %949 = \"tfl.add\"(%948, %947) <{fused_activation_function = \"NONE\"}> : (tensor<?x64x256xf32>, tensor<?x64x256xf32>) -> tensor<?x64x256xf32>\n  %950 = \"tfl.cast\"(%949) : (tensor<?x64x256xf32>) -> tensor<?x64x256xf16>\n  %951 = \"tf.BatchMatMulV2\"(%933, %950) <{adj_x = false, adj_y = false, grad_x = false, grad_y = false}> {device = \"\"} : (tensor<?x64x64xf16>, tensor<?x64x256xf16>) -> tensor<?x64x256xf16>\n  %952 = \"tf.BatchMatMulV2\"(%951, %13) <{adj_x = false, adj_y = false, grad_x = false, grad_y = false}> {device = \"\"} : (tensor<?x64x256xf16>, tensor<256x256xf16>) -> tensor<?x64x256xf16>\n  %953 = \"tf.Relu\"(%952) {device = \"\"} : (tensor<?x64x256xf16>) -> tensor<?x64x256xf16>\n  %954 = \"tf.AddV2\"(%953, %950) {device = \"\"} : (tensor<?x64x256xf16>, tensor<?x64x256xf16>) -> tensor<?x64x256xf16>\n  %955 = \"tfl.cast\"(%954) : (tensor<?x64x256xf16>) -> tensor<?x64x256xf32>\n  %956 = \"tfl.mean\"(%955, %263) <{keep_dims = true}> : (tensor<?x64x256xf32>, tensor<1xi32>) -> tensor<?x64x1xf32>\n  %957 = \"tfl.neg\"(%956) : (tensor<?x64x1xf32>) -> tensor<?x64x1xf32>\n  %958 = \"tfl.squared_difference\"(%955, %956) : (tensor<?x64x256xf32>, tensor<?x64x1xf32>) -> tensor<?x64x256xf32>\n  %959 = \"tfl.mean\"(%958, %263) <{keep_dims = true}> : (tensor<?x64x256xf32>, tensor<1xi32>) -> tensor<?x64x1xf32>\n  %960 = \"tfl.add\"(%959, %264) <{fused_activation_function = \"NONE\"}> : (tensor<?x64x1xf32>, tensor<f32>) -> tensor<?x64x1xf32>\n  %961 = \"tfl.rsqrt\"(%960) : (tensor<?x64x1xf32>) -> tensor<?x64x1xf32>\n  %962 = \"tfl.mul\"(%961, %11) <{fused_activation_function = \"NONE\"}> : (tensor<?x64x1xf32>, tensor<1x1x256xf32>) -> tensor<?x64x256xf32>\n  %963 = \"tfl.mul\"(%957, %962) <{fused_activation_function = \"NONE\"}> : (tensor<?x64x1xf32>, tensor<?x64x256xf32>) -> tensor<?x64x256xf32>\n  %964 = \"tfl.add\"(%963, %12) <{fused_activation_function = \"NONE\"}> : (tensor<?x64x256xf32>, tensor<1x1x256xf32>) -> tensor<?x64x256xf32>\n  %965 = \"tfl.mul\"(%955, %962) <{fused_activation_function = \"NONE\"}> : (tensor<?x64x256xf32>, tensor<?x64x256xf32>) -> tensor<?x64x256xf32>\n  %966 = \"tfl.add\"(%965, %964) <{fused_activation_function = \"NONE\"}> : (tensor<?x64x256xf32>, tensor<?x64x256xf32>) -> tensor<?x64x256xf32>\n  %967 = \"tfl.cast\"(%966) : (tensor<?x64x256xf32>) -> tensor<?x64x256xf16>\n  %968 = \"tf.ConcatV2\"(%917, %967, %275) {device = \"\"} : (tensor<?x64x256xf16>, tensor<?x64x256xf16>, tensor<i32>) -> tensor<?x64x512xf16>\n  %969 = \"tf.BatchMatMulV2\"(%968, %8) <{adj_x = false, adj_y = false, grad_x = false, grad_y = false}> {device = \"\"} : (tensor<?x64x512xf16>, tensor<512x1xf16>) -> tensor<?x64x1xf16>\n  %970 = \"tf.AddV2\"(%969, %9) {device = \"\"} : (tensor<?x64x1xf16>, tensor<1xf16>) -> tensor<?x64x1xf16>\n  %971 = \"tf.Tanh\"(%970) {device = \"\"} : (tensor<?x64x1xf16>) -> tensor<?x64x1xf16>\n  %972 = \"tf.Transpose\"(%971, %3) {device = \"\"} : (tensor<?x64x1xf16>, tensor<3xi32>) -> tensor<?x1x64xf16>\n  %973 = \"tf.Softmax\"(%972) {device = \"\"} : (tensor<?x1x64xf16>) -> tensor<?x1x64xf16>\n  %974 = \"tf.Transpose\"(%973, %3) {device = \"\"} : (tensor<?x1x64xf16>, tensor<3xi32>) -> tensor<?x64x1xf16>\n  %975 = \"tf.Mul\"(%968, %974) {device = \"\"} : (tensor<?x64x512xf16>, tensor<?x64x1xf16>) -> tensor<?x64x512xf16>\n  %976 = \"tf.Sum\"(%975, %273) <{keep_dims = false}> {device = \"\"} : (tensor<?x64x512xf16>, tensor<i32>) -> tensor<?x512xf16>\n  %977 = \"tf.ConcatV2\"(%976, %913, %275) {device = \"\"} : (tensor<?x512xf16>, tensor<?x256xf16>, tensor<i32>) -> tensor<?x768xf16>\n  %978 = \"tf.MatMul\"(%977, %2) <{grad_a = false, grad_b = false, transpose_a = false, transpose_b = true}> : (tensor<?x768xf16>, tensor<256x768xf16>) -> tensor<?x256xf16>\n  %979 = \"tf.BiasAdd\"(%978, %10) <{data_format = \"NHWC\"}> {device = \"\"} : (tensor<?x256xf16>, tensor<256xf16>) -> tensor<?x256xf16>\n  %980 = \"tf.Relu\"(%979) {device = \"\"} : (tensor<?x256xf16>) -> tensor<?x256xf16>\n  %981 = \"tfl.cast\"(%980) : (tensor<?x256xf16>) -> tensor<?x256xf32>\n  %982 = \"tfl.fully_connected\"(%981, %1, %0) <{fused_activation_function = \"NONE\", keep_num_dims = false, weights_format = \"DEFAULT\"}> : (tensor<?x256xf32>, tensor<1x256xf32>, tensor<1xf32>) -> tensor<?x1xf32>\n  %983 = \"tfl.logistic\"(%982) : (tensor<?x1xf32>) -> tensor<?x1xf32>\n  \"func.return\"(%983) : (tensor<?x1xf32>) -> ()\n}) {tf.entry_function = {control_outputs = \"\", inputs = \"serving_default_keras_tensor_879:0\", outputs = \"StatefulPartitionedCall_1:0\"}, tf_saved_model.exported_names = [\"serving_default\"]} : () -> ()\n\n"
}
