{
  "created_at_local": "2026-05-07T22:22:18.099244+09:00",
  "attempt": "direct_keras_builtin",
  "model_path": "outputs/ava_pretrain_aadb_finetune_20260507/rgnet_ava_pretrain_aadb_finetune/final_model.keras",
  "reference_image": "data/raw/ava/images/85837.jpg",
  "output_tflite": "outputs/rgnet_tflite_retry_20260507/tflite/rgnet_ava_aadb_finetune_direct_keras_builtin.tflite",
  "image_size": 256,
  "global_policy_before_load": "float32",
  "conversion_ok": false,
  "verification_passed": false,
  "keras_reference_score": 0.46629470586776733,
  "model_input_shape": [
    null,
    256,
    256,
    3
  ],
  "model_output_shape": [
    null,
    1
  ],
  "error_type": "ConverterError",
  "error": "Could not translate MLIR to FlatBuffer./home/omen_pc1/photo_score_project/.venv_gpu/lib/python3.12/site-packages/tensorflow/python/eager/polymorphic_function/polymorphic_function.py:696:1: error: 'tf.Mul' op is neither a custom op nor a flex op\n    self._concrete_variable_creation_fn = tracing_compilation.trace_function(\n^\n/home/omen_pc1/photo_score_project/.venv_gpu/lib/python3.12/site-packages/tensorflow/python/eager/polymorphic_function/tracing_compilation.py:178:1: note: called from\n    concrete_function = _maybe_define_function(\n^\n/home/omen_pc1/photo_score_project/.venv_gpu/lib/python3.12/site-packages/tensorflow/python/eager/polymorphic_function/tracing_compilation.py:283:1: note: called from\n        concrete_function = _create_concrete_function(\n^\n/home/omen_pc1/photo_score_project/.venv_gpu/lib/python3.12/site-packages/tensorflow/python/eager/polymorphic_function/tracing_compilation.py:310:1: note: called from\n  traced_func_graph = func_graph_module.func_graph_from_py_func(\n^\n/home/omen_pc1/photo_score_project/.venv_gpu/lib/python3.12/site-packages/tensorflow/python/framework/func_graph.py:1060:1: note: called from\n    func_outputs = python_func(*func_args, **func_kwargs)\n^\n/home/omen_pc1/photo_score_project/.venv_gpu/lib/python3.12/site-packages/tensorflow/python/eager/polymorphic_function/polymorphic_function.py:599:1: note: called from\n          out = weak_wrapped_fn().__wrapped__(*args, **kwds)\n^\n/home/omen_pc1/photo_score_project/.venv_gpu/lib/python3.12/site-packages/tensorflow/python/eager/polymorphic_function/autograph_util.py:41:1: note: called from\n      return api.converted_call(\n^\n/home/omen_pc1/photo_score_project/outputs/rgnet_tflite_retry_20260507/scripts/direct_keras_builtin_export.py:121:1: note: called from\n        return model(image, training=False)\n^\n/home/omen_pc1/photo_score_project/.venv_gpu/lib/python3.12/site-packages/keras/src/utils/traceback_utils.py:117:1: note: called from\n            return fn(*args, **kwargs)\n^\n/home/omen_pc1/photo_score_project/.venv_gpu/lib/python3.12/site-packages/keras/src/layers/layer.py:953:1: note: called from\n                    outputs = super().__call__(*args, **kwargs)\n^\n/home/omen_pc1/photo_score_project/.venv_gpu/lib/python3.12/site-packages/tensorflow/python/eager/polymorphic_function/polymorphic_function.py:696:1: note: see current operation: %274 = \"tf.Mul\"(%273, %259) {device = \"\"} : (tensor<1x256x256x3xf16>, tensor<f16>) -> tensor<1x256x256x3xf16>\n    self._concrete_variable_creation_fn = tracing_compilation.trace_function(\n^\n/home/omen_pc1/photo_score_project/.venv_gpu/lib/python3.12/site-packages/tensorflow/python/eager/polymorphic_function/polymorphic_function.py:696:1: note: Error code: ERROR_NEEDS_FLEX_OPS\n/home/omen_pc1/photo_score_project/.venv_gpu/lib/python3.12/site-packages/tensorflow/python/eager/polymorphic_function/polymorphic_function.py:696:1: error: 'tf.Sub' op is neither a custom op nor a flex op\n    self._concrete_variable_creation_fn = tracing_compilation.trace_function(\n^\n/home/omen_pc1/photo_score_project/.venv_gpu/lib/python3.12/site-packages/tensorflow/python/eager/polymorphic_function/tracing_compilation.py:178:1: note: called from\n    concrete_function = _maybe_define_function(\n^\n/home/omen_pc1/photo_score_project/.venv_gpu/lib/python3.12/site-packages/tensorflow/python/eager/polymorphic_function/tracing_compilation.py:283:1: note: called from\n        concrete_function = _create_concrete_function(\n^\n/home/omen_pc1/photo_score_project/.venv_gpu/lib/python3.12/site-packages/tensorflow/python/eager/polymorphic_function/tracing_compilation.py:310:1: note: called from\n  traced_func_graph = func_graph_module.func_graph_from_py_func(\n^\n/home/omen_pc1/photo_score_project/.venv_gpu/lib/python3.12/site-packages/tensorflow/python/framework/func_graph.py:1060:1: note: called from\n    func_outputs = python_func(*func_args, **func_kwargs)\n^\n/home/omen_pc1/photo_score_project/.venv_gpu/lib/python3.12/site-packages/tensorflow/python/eager/polymorphic_function/polymorphic_function.py:599:1: note: called from\n          out = weak_wrapped_fn().__wrapped__(*args, **kwds)\n^\n/home/omen_pc1/photo_score_project/.venv_gpu/lib/python3.12/site-packages/tensorflow/python/eager/polymorphic_function/autograph_util.py:41:1: note: called from\n      return api.converted_call(\n^\n/home/omen_pc1/photo_score_project/outputs/rgnet_tflite_retry_20260507/scripts/direct_keras_builtin_export.py:121:1: note: called from\n        return model(image, training=False)\n^\n/home/omen_pc1/photo_score_project/.venv_gpu/lib/python3.12/site-packages/keras/src/utils/traceback_utils.py:117:1: note: called from\n            return fn(*args, **kwargs)\n^\n/home/omen_pc1/photo_score_project/.venv_gpu/lib/python3.12/site-packages/keras/src/layers/layer.py:953:1: note: called from\n                    outputs = super().__call__(*args, **kwargs)\n^\n/home/omen_pc1/photo_score_project/.venv_gpu/lib/python3.12/site-packages/tensorflow/python/eager/polymorphic_function/polymorphic_function.py:696:1: note: see current operation: %275 = \"tf.Sub\"(%274, %265) {device = \"\"} : (tensor<1x256x256x3xf16>, tensor<1x1x1x3xf16>) -> tensor<1x256x256x3xf16>\n    self._concrete_variable_creation_fn = tracing_compilation.trace_function(\n^\n/home/omen_pc1/photo_score_project/.venv_gpu/lib/python3.12/site-packages/tensorflow/python/eager/polymorphic_function/polymorphic_function.py:696:1: note: Error code: ERROR_NEEDS_FLEX_OPS\n/home/omen_pc1/photo_score_project/.venv_gpu/lib/python3.12/site-packages/tensorflow/python/eager/polymorphic_function/polymorphic_function.py:696:1: error: 'tf.RealDiv' op is neither a custom op nor a flex op\n    self._concrete_variable_creation_fn = tracing_compilation.trace_function(\n^\n/home/omen_pc1/photo_score_project/.venv_gpu/lib/python3.12/site-packages/tensorflow/python/eager/polymorphic_function/tracing_compilation.py:178:1: note: called from\n    concrete_function = _maybe_define_function(\n^\n/home/omen_pc1/photo_score_project/.venv_gpu/lib/python3.12/site-packages/tensorflow/python/eager/polymorphic_function/tracing_compilation.py:283:1: note: called from\n        concrete_function = _create_concrete_function(\n^\n/home/omen_pc1/photo_score_project/.venv_gpu/lib/python3.12/site-packages/tensorflow/python/eager/polymorphic_function/tracing_compilation.py:310:1: note: called from\n  traced_func_graph = func_graph_module.func_graph_from_py_func(\n^\n/home/omen_pc1/photo_score_project/.venv_gpu/lib/python3.12/site-packages/tensorflow/python/framework/func_graph.py:1060:1: note: called from\n    func_outputs = python_func(*func_args, **func_kwargs)\n^\n/home/omen_pc1/photo_score_project/.venv_gpu/lib/python3.12/site-packages/tensorflow/python/eager/polymorphic_function/polymorphic_function.py:599:1: note: called from\n          out = weak_wrapped_fn().__wrapped__(*args, **kwds)\n^\n/home/omen_pc1/photo_score_project/.venv_gpu/lib/python3.12/site-packages/tensorflow/python/eager/polymorphic_function/autograph_util.py:41:1: note: called from\n      return api.converted_call(\n^\n/home/omen_pc1/photo_score_project/outputs/rgnet_tflite_retry_20260507/scripts/direct_keras_builtin_export.py:121:1: note: called from\n        return model(image, training=False)\n^\n/home/omen_pc1/photo_score_project/.venv_gpu/lib/python3.12/site-packages/keras/src/utils/traceback_utils.py:117:1: note: called from\n            return fn(*args, **kwargs)\n^\n/home/omen_pc1/photo_score_project/.venv_gpu/lib/python3.12/site-packages/keras/src/layers/layer.py:953:1: note: called from\n                    outputs = super().__call__(*args, **kwargs)\n^\n/home/omen_pc1/photo_score_project/.venv_gpu/lib/python3.12/site-packages/tensorflow/python/eager/polymorphic_function/polymorphic_function.py:696:1: note: see current operation: %276 = \"tf.RealDiv\"(%275, %260) {device = \"\"} : (tensor<1x256x256x3xf16>, tensor<1x1x1x3xf16>) -> tensor<1x256x256x3xf16>\n    self._concrete_variable_creation_fn = tracing_compilation.trace_function(\n^\n/home/omen_pc1/photo_score_project/.venv_gpu/lib/python3.12/site-packages/tensorflow/python/eager/polymorphic_function/polymorphic_function.py:696:1: note: Error code: ERROR_NEEDS_FLEX_OPS\n/home/omen_pc1/photo_score_project/.venv_gpu/lib/python3.12/site-packages/tensorflow/python/eager/polymorphic_function/polymorphic_function.py:696:1: error: 'tf.Conv2D' op is neither a custom op nor a flex op\n    self._concrete_variable_creation_fn = tracing_compilation.trace_function(\n^\n/home/omen_pc1/photo_score_project/.venv_gpu/lib/python3.12/site-packages/tensorflow/python/eager/polymorphic_function/tracing_compilation.py:178:1: note: called from\n    concrete_function = _maybe_define_function(\n^\n/home/omen_pc1/photo_score_project/.venv_gpu/lib/python3.12/site-packages/tensorflow/python/eager/polymorphic_function/tracing_compilation.py:283:1: note: called from\n        concrete_function = _create_concrete_function(\n^\n/home/omen_pc1/photo_score_project/.venv_gpu/lib/python3.12/site-packages/tensorflow/python/eager/polymorphic_function/tracing_compilation.py:310:1: note: called from\n  traced_func_graph = func_graph_module.func_graph_from_py_func(\n^\n/home/omen_pc1/photo_score_project/.venv_gpu/lib/python3.12/site-packages/tensorflow/python/framework/func_graph.py:1060:1: note: called from\n    func_outputs = python_func(*func_args, **func_kwargs)\n^\n/home/omen_pc1/photo_score_project/.venv_gpu/lib/python3.12/site-packages/tensorflow/python/eager/polymorphic_function/polymorphic_function.py:599:1: note: called from\n          out = weak_wrapped_fn().__wrapped__(*args, **kwds)\n^\n/home/omen_pc1/photo_score_project/.venv_gpu/lib/python3.12/site-packages/tensorflow/python/eager/polymorphic_function/autograph_util.py:41:1: note: called from\n      return api.converted_call(\n^\n/home/omen_pc1/photo_score_project/outputs/rgnet_tflite_retry_20260507/scripts/direct_keras_builtin_export.py:121:1: note: called from\n        return model(image, training=False)\n^\n/home/omen_pc1/photo_score_project/.venv_gpu/lib/python3.12/site-packages/keras/src/utils/traceback_utils.py:117:1: note: called from\n            return fn(*args, **kwargs)\n^\n/home/omen_pc1/photo_score_project/.venv_gpu/lib/python3.12/site-packages/keras/src/layers/layer.py:953:1: note: called from\n                    outputs = super().__call__(*args, **kwargs)\n^\n/home/omen_pc1/photo_score_project/.venv_gpu/lib/python3.12/site-packages/tensorflow/python/eager/polymorphic_function/polymorphic_function.py:696:1: note: see current operation: %277 = \"tf.Conv2D\"(%276, %18) <{data_format = \"NHWC\", dilations = [1, 1, 1, 1], explicit_paddings = [], padding = \"SAME\", strides = [1, 2, 2, 1], use_cudnn_on_gpu = true}> {device = \"\"} : (tensor<1x256x256x3xf16>, tensor<3x3x3x32xf16>) -> tensor<1x128x128x32xf16>\n    self._concrete_variable_creation_fn = tracing_compilation.trace_function(\n^\n/home/omen_pc1/photo_score_project/.venv_gpu/lib/python3.12/site-packages/tensorflow/python/eager/polymorphic_function/polymorphic_function.py:696:1: note: Error code: ERROR_NEEDS_FLEX_OPS\n/home/omen_pc1/photo_score_project/.venv_gpu/lib/python3.12/site-packages/tensorflow/python/eager/polymorphic_function/polymorphic_function.py:696:1: error: 'tf.Sigmoid' op is neither a custom op nor a flex op\n    self._concrete_variable_creation_fn = tracing_compilation.trace_function(\n^\n/home/omen_pc1/photo_score_project/.venv_gpu/lib/python3.12/site-packages/tensorflow/python/eager/polymorphic_function/tracing_compilation.py:178:1: note: called from\n    concrete_function = _maybe_define_function(\n^\n/home/omen_pc1/photo_score_project/.venv_gpu/lib/python3.12/site-packages/tensorflow/python/eager/polymorphic_function/tracing_compilation.py:283:1: note: called from\n        concrete_function = _create_concrete_function(\n^\n/home/omen_pc1/photo_score_project/.venv_gpu/lib/python3.12/site-packages/tensorflow/python/eager/polymorphic_function/tracing_compilation.py:310:1: note: called from\n  traced_func_graph = func_graph_module.func_graph_from_py_func(\n^\n/home/omen_pc1/photo_score_project/.venv_gpu/lib/python3.12/site-packages/tensorflow/python/framework/func_graph.py:1060:1: note: called from\n    func_outputs = python_func(*func_args, **func_kwargs)\n^\n/home/omen_pc1/photo_score_project/.venv_gpu/lib/python3.12/site-packages/tensorflow/python/eager/polymorphic_function/polymorphic_function.py:599:1: note: called from\n          out = weak_wrapped_fn().__wrapped__(*args, **kwds)\n^\n/home/omen_pc1/photo_score_project/.venv_gpu/lib/python3.12/site-packages/tensorflow/python/eager/polymorphic_function/autograph_util.py:41:1: note: called from\n      return api.converted_call(\n^\n/home/omen_pc1/photo_score_project/outputs/rgnet_tflite_retry_20260507/scripts/direct_keras_builtin_export.py:121:1: note: called from\n        return model(image, training=False)\n^\n/home/omen_pc1/photo_score_project/.venv_gpu/lib/python3.12/site-packages/keras/src/utils/traceback_utils.py:117:1: note: called from\n            return fn(*args, **kwargs)\n^\n/home/omen_pc1/photo_score_project/.venv_gpu/lib/python3.12/site-packages/keras/src/layers/layer.py:953:1: note: called from\n                    outputs = super().__call__(*args, **kwargs)\n^\n/home/omen_pc1/photo_score_project/.venv_gpu/lib/python3.12/site-packages/tensorflow/python/eager/polymorphic_function/polymorphic_function.py:696:1: note: see current operation: %282 = \"tf.Sigmoid\"(%281) {device = \"\"} : (tensor<1x128x128x32xf16>) -> tensor<1x128x128x32xf16>\n    self._concrete_variable_creation_fn = tracing_compilation.trace_function(\n^\n/home/omen_pc1/photo_score_project/.venv_gpu/lib/python3.12/site-packages/tensorflow/python/eager/polymorphic_function/polymorphic_function.py:696:1: note: Error code: ERROR_NEEDS_FLEX_OPS\n/home/omen_pc1/photo_score_project/.venv_gpu/lib/python3.12/site-packages/tensorflow/python/eager/polymorphic_function/polymorphic_function.py:696:1: error: 'tf.Mul' op is neither a custom op nor a flex op\n    self._concrete_variable_creation_fn = tracing_compilation.trace_function(\n^\n/home/omen_pc1/photo_score_project/.venv_gpu/lib/python3.12/site-packages/tensorflow/python/eager/polymorphic_function/tracing_compilation.py:178:1: note: called from\n    concrete_function = _maybe_define_function(\n^\n/home/omen_pc1/photo_score_project/.venv_gpu/lib/python3.12/site-packages/tensorflow/python/eager/polymorphic_function/tracing_compilation.py:283:1: note: called from\n        concrete_function = _create_concrete_function(\n^\n/home/omen_pc1/photo_score_project/.venv_gpu/lib/python3.12/site-packages/tensorflow/python/eager/polymorphic_function/tracing_compilation.py:310:1: note: called from\n  traced_func_graph = func_graph_module.func_graph_from_py_func(\n^\n/home/omen_pc1/photo_score_project/.venv_gpu/lib/python3.12/site-packages/tensorflow/python/framework/func_graph.py:1060:1: note: called from\n    func_outputs = python_func(*func_args, **func_kwargs)\n^\n/home/omen_pc1/photo_score_project/.venv_gpu/lib/python3.12/site-packages/tensorflow/python/eager/polymorphic_function/polymorphic_function.py:599:1: note: called from\n          out = weak_wrapped_fn().__wrapped__(*args, **kwds)\n^\n/home/omen_pc1/photo_score_project/.venv_gpu/lib/python3.12/site-packages/tensorflow/python/eager/polymorphic_function/autograph_util.py:41:1: note: called from\n      return api.converted_call(\n^\n/home/omen_pc1/photo_score_project/outputs/rgnet_tflite_retry_20260507/scripts/direct_keras_builtin_export.py:121:1: note: called from\n        return model(image, training=False)\n^\n/home/omen_pc1/photo_score_project/.venv_gpu/lib/python3.12/site-packages/keras/src/utils/traceback_utils.py:117:1: note: called from\n            return fn(*args, **kwargs)\n^\n/home/omen_pc1/photo_score_project/.venv_gpu/lib/python3.12/site-packages/keras/src/layers/layer.py:953:1: note: called from\n                    outputs = super().__call__(*args, **kwargs)\n^\n/home/omen_pc1/photo_score_project/.venv_gpu/lib/python3.12/site-packages/tensorflow/python/eager/polymorphic_function/polymorphic_function.py:696:1: note: see current operation: %283 = \"tf.Mul\"(%281, %282) {device = \"\"} : (tensor<1x128x128x32xf16>, tensor<1x128x128x32xf16>) -> tensor<1x128x128x32xf16>\n    self._concrete_variable_creation_fn = tracing_compilation.trace_function(\n^\n/home/omen_pc1/photo_score_project/.venv_gpu/lib/python3.12/site-packages/tensorflow/python/eager/polymorphic_function/polymorphic_function.py:696:1: note: Error code: ERROR_NEEDS_FLEX_OPS\n/home/omen_pc1/photo_score_project/.venv_gpu/lib/python3.12/site-packages/tensorflow/python/eager/polymorphic_function/polymorphic_function.py:696:1: error: 'tf.Conv2D' op is neither a custom op nor a flex op\n    self._concrete_variable_creation_fn = tracing_compilation.trace_function(\n^\n/home/omen_pc1/photo_score_project/.venv_gpu/lib/python3.12/site-packages/tensorflow/python/eager/polymorphic_function/tracing_compilation.py:178:1: note: called from\n    concrete_function = _maybe_define_function(\n^\n/home/omen_pc1/photo_score_project/.venv_gpu/lib/python3.12/site-packages/tensorflow/python/eager/polymorphic_function/tracing_compilation.py:283:1: note: called from\n        concrete_function = _create_concrete_function(\n^\n/home/omen_pc1/photo_score_project/.venv_gpu/lib/python3.12/site-packages/tensorflow/python/eager/polymorphic_function/tracing_compilation.py:310:1: note: called from\n  traced_func_graph = func_graph_module.func_graph_from_py_func(\n^\n/home/omen_pc1/photo_score_project/.venv_gpu/lib/python3.12/site-packages/tensorflow/python/framework/func_graph.py:1060:1: note: called from\n    func_outputs = python_func(*func_args, **func_kwargs)\n^\n/home/omen_pc1/photo_score_project/.venv_gpu/lib/python3.12/site-packages/tensorflow/python/eager/polymorphic_function/polymorphic_function.py:599:1: note: called from\n          out = weak_wrapped_fn().__wrapped__(*args, **kwds)\n^\n/home/omen_pc1/photo_score_project/.venv_gpu/lib/python3.12/site-packages/tensorflow/python/eager/polymorphic_function/autograph_util.py:41:1: note: called from\n      return api.converted_call(\n^\n/home/omen_pc1/photo_score_project/outputs/rgnet_tflite_retry_20260507/scripts/direct_keras_builtin_export.py:121:1: note: called from\n        return model(image, training=False)\n^\n/home/omen_pc1/photo_score_project/.venv_gpu/lib/python3.12/site-packages/keras/src/utils/traceback_utils.py:117:1: note: called from\n            return fn(*args, **kwargs)\n^\n/home/omen_pc1/photo_score_project/.venv_gpu/lib/python3.12/site-packages/keras/src/layers/layer.py:953:1: note: called from\n                    outputs = super().__call__(*args, **kwargs)\n^\n/home/omen_pc1/photo_score_project/.venv_gpu/lib/python3.12/site-packages/tensorflow/python/eager/polymorphic_function/polymorphic_function.py:696:1: note: see current operation: %284 = \"tf.Conv2D\"(%283, %253) <{data_format = \"NHWC\", dilations = [1, 1, 1, 1], explicit_paddings = [], padding = \"SAME\", strides = [1, 1, 1, 1], use_cudnn_on_gpu = true}> {device = \"\"} : (tensor<1x128x128x32xf16>, tensor<3x3x32x16xf16>) -> tensor<1x128x128x16xf16>\n    self._concrete_variable_creation_fn = tracing_compilation.trace_function(\n^\n/home/omen_pc1/photo_score_project/.venv_gpu/lib/python3.12/site-packages/tensorflow/python/eager/polymorphic_function/polymorphic_function.py:696:1: note: Error code: ERROR_NEEDS_FLEX_OPS\n/home/omen_pc1/photo_score_project/.venv_gpu/lib/python3.12/site-packages/tensorflow/python/eager/polymorphic_function/polymorphic_function.py:696:1: error: 'tf.Sigmoid' op is neither a custom op nor a flex op\n    self._concrete_variable_creation_fn = tracing_compilation.trace_function(\n^\n/home/omen_pc1/photo_score_project/.venv_gpu/lib/python3.12/site-packages/tensorflow/python/eager/polymorphic_function/tracing_compilation.py:178:1: note: called from\n    concrete_function = _maybe_define_function(\n^\n/home/omen_pc1/photo_score_project/.venv_gpu/lib/python3.12/site-packages/tensorflow/python/eager/polymorphic_function/tracing_compilation.py:283:1: note: called from\n        concrete_function = _create_concrete_function(\n^\n/home/omen_pc1/photo_score_project/.venv_gpu/lib/python3.12/site-packages/tensorflow/python/eager/polymorphic_function/tracing_compilation.py:310:1: note: called from\n  traced_func_graph = func_graph_module.func_graph_from_py_func(\n^\n/home/omen_pc1/photo_score_project/.venv_gpu/lib/python3.12/site-packages/tensorflow/python/framework/func_graph.py:1060:1: note: called from\n    func_outputs = python_func(*func_args, **func_kwargs)\n^\n/home/omen_pc1/photo_score_project/.venv_gpu/lib/python3.12/site-packages/tensorflow/python/eager/polymorphic_function/polymorphic_function.py:599:1: note: called from\n          out = weak_wrapped_fn().__wrapped__(*args, **kwds)\n^\n/home/omen_pc1/photo_score_project/.venv_gpu/lib/python3.12/site-packages/tensorflow/python/eager/polymorphic_function/autograph_util.py:41:1: note: called from\n      return api.converted_call(\n^\n/home/omen_pc1/photo_score_project/outputs/rgnet_tflite_retry_20260507/scripts/direct_keras_builtin_export.py:121:1: note: called from\n        return model(image, training=False)\n^\n/home/omen_pc1/photo_score_project/.venv_gpu/lib/python3.12/site-packages/keras/src/utils/traceback_utils.py:117:1: note: called from\n            return fn(*args, **kwargs)\n^\n/home/omen_pc1/photo_score_project/.venv_gpu/lib/python3.12/site-packages/keras/src/layers/layer.py:953:1: note: called from\n                    outputs = super().__call__(*args, **kwargs)\n^\n/home/omen_pc1/photo_score_project/.venv_gpu/lib/python3.12/site-packages/tensorflow/python/eager/polymorphic_function/polymorphic_function.py:696:1: note: see current operation: %289 = \"tf.Sigmoid\"(%288) {device = \"\"} : (tensor<1x128x128x16xf16>) -> tensor<1x128x128x16xf16>\n    self._concrete_variable_creation_fn = tracing_compilation.trace_function(\n^\n/home/omen_pc1/photo_score_project/.venv_gpu/lib/python3.12/site-packages/tensorflow/python/eager/polymorphic_function/polymorphic_function.py:696:1: note: Error code: ERROR_NEEDS_FLEX_OPS\n/home/omen_pc1/photo_score_project/.venv_gpu/lib/python3.12/site-packages/tensorflow/python/eager/polymorphic_function/polymorphic_function.py:696:1: error: 'tf.Mul' op is neither a custom op nor a flex op\n    self._concrete_variable_creation_fn = tracing_compilation.trace_function(\n^\n/home/omen_pc1/photo_score_project/.venv_gpu/lib/python3.12/site-packages/tensorflow/python/eager/polymorphic_function/tracing_compilation.py:178:1: note: called from\n    concrete_function = _maybe_define_function(\n^\n/home/omen_pc1/photo_score_project/.venv_gpu/lib/python3.12/site-packages/tensorflow/python/eager/polymorphic_function/tracing_compilation.py:283:1: note: called from\n        concrete_function = _create_concrete_function(\n^\n/home/omen_pc1/photo_score_project/.venv_gpu/lib/python3.12/site-packages/tensorflow/python/eager/polymorphic_function/tracing_compilation.py:310:1: note: called from\n  traced_func_graph = func_graph_module.func_graph_from_py_func(\n^\n/home/omen_pc1/photo_score_project/.venv_gpu/lib/python3.12/site-packages/tensorflow/python/framework/func_graph.py:1060:1: note: called from\n    func_outputs = python_func(*func_args, **func_kwargs)\n^\n/home/omen_pc1/photo_score_project/.venv_gpu/lib/python3.12/site-packages/tensorflow/python/eager/polymorphic_function/polymorphic_function.py:599:1: note: called from\n          out = weak_wrapped_fn().__wrapped__(*args, **kwds)\n^\n/home/omen_pc1/photo_score_project/.venv_gpu/lib/python3.12/site-packages/tensorflow/python/eager/polymorphic_function/autograph_util.py:41:1: note: called from\n      return api.converted_call(\n^\n/home/omen_pc1/photo_score_project/outputs/rgnet_tflite_retry_20260507/scripts/direct_keras_builtin_export.py:121:1: note: called from\n        return model(image, training=False)\n^\n/home/omen_pc1/photo_score_project/.venv_gpu/lib/python3.12/site-packages/keras/src/utils/traceback_utils.py:117:1: note: called from\n            return fn(*args, **kwargs)\n^\n/home/omen_pc1/photo_score_project/.venv_gpu/lib/python3.12/site-packages/keras/src/layers/layer.py:953:1: note: called from\n                    outputs = super().__call__(*args, **kwargs)\n^\n/home/omen_pc1/photo_score_project/.venv_gpu/lib/python3.12/site-packages/tensorflow/python/eager/polymorphic_function/polymorphic_function.py:696:1: note: see current operation: %290 = \"tf.Mul\"(%288, %289) {device = \"\"} : (tensor<1x128x128x16xf16>, tensor<1x128x128x16xf16>) -> tensor<1x128x128x16xf16>\n    self._concrete_variable_creation_fn = tracing_compilation.trace_function(\n^\n/home/omen_pc1/photo_score_project/.venv_gpu/lib/python3.12/site-packages/tensorflow/python/eager/polymorphic_function/polymorphic_function.py:696:1: note: Error code: ERROR_NEEDS_FLEX_OPS\n/home/omen_pc1/photo_score_project/.venv_gpu/lib/python3.12/site-packages/tensorflow/python/eager/polymorphic_function/polymorphic_function.py:696:1: error: 'tf.Conv2D' op is neither a custom op nor a flex op\n    self._concrete_variable_creation_fn = tracing_compilation.trace_function(\n^\n/home/omen_pc1/photo_score_project/.venv_gpu/lib/python3.12/site-packages/tensorflow/python/eager/polymorphic_function/tracing_compilation.py:178:1: note: called from\n    concrete_function = _maybe_define_function(\n^\n/home/omen_pc1/photo_score_project/.venv_gpu/lib/python3.12/site-packages/tensorflow/python/eager/polymorphic_function/tracing_compilation.py:283:1: note: called from\n        concrete_function = _create_concrete_function(\n^\n/home/omen_pc1/photo_score_project/.venv_gpu/lib/python3.12/site-packages/tensorflow/python/eager/polymorphic_function/tracing_compilation.py:310:1: note: called from\n  traced_func_graph = func_graph_module.func_graph_from_py_func(\n^\n/home/omen_pc1/photo_score_project/.venv_gpu/lib/python3.12/site-packages/tensorflow/python/framework/func_graph.py:1060:1: note: called from\n    func_outputs = python_func(*func_args, **func_kwargs)\n^\n/home/omen_pc1/photo_score_project/.venv_gpu/lib/python3.12/site-packages/tensorflow/python/eager/polymorphic_function/polymorphic_function.py:599:1: note: called from\n          out = weak_wrapped_fn().__wrapped__(*args, **kwds)\n^\n/home/omen_pc1/photo_score_project/.venv_gpu/lib/python3.12/site-packages/tensorflow/python/eager/polymorphic_function/autograph_util.py:41:1: note: called from\n      return api.converted_call(\n^\n/home/omen_pc1/photo_score_project/outputs/rgnet_tflite_retry_20260507/scripts/direct_keras_builtin_export.py:121:1: note: called from\n        return model(image, training=False)\n^\n/home/omen_pc1/photo_score_project/.venv_gpu/lib/python3.12/site-packages/keras/src/utils/traceback_utils.py:117:1: note: called from\n            return fn(*args, **kwargs)\n^\n/home/omen_pc1/photo_score_project/.venv_gpu/lib/python3.12/site-packages/keras/src/layers/layer.py:953:1: note: called from\n                    outputs = super().__call__(*args, **kwargs)\n^\n/home/omen_pc1/photo_score_project/.venv_gpu/lib/python3.12/site-packages/tensorflow/python/eager/polymorphic_function/polymorphic_function.py:696:1: note: see current operation: %291 = \"tf.Conv2D\"(%290, %250) <{data_format = \"NHWC\", dilations = [1, 1, 1, 1], explicit_paddings = [], padding = \"SAME\", strides = [1, 2, 2, 1], use_cudnn_on_gpu = true}> {device = \"\"} : (tensor<1x128x128x16xf16>, tensor<3x3x16x64xf16>) -> tensor<1x64x64x64xf16>\n    self._concrete_variable_creation_fn = tracing_compilation.trace_function(\n^\n/home/omen_pc1/photo_score_project/.venv_gpu/lib/python3.12/site-packages/tensorflow/python/eager/polymorphic_function/polymorphic_function.py:696:1: note: Error code: ERROR_NEEDS_FLEX_OPS\n/home/omen_pc1/photo_score_project/.venv_gpu/lib/python3.12/site-packages/tensorflow/python/eager/polymorphic_function/polymorphic_function.py:696:1: error: 'tf.Sigmoid' op is neither a custom op nor a flex op\n    self._concrete_variable_creation_fn = tracing_compilation.trace_function(\n^\n/home/omen_pc1/photo_score_project/.venv_gpu/lib/python3.12/site-packages/tensorflow/python/eager/polymorphic_function/tracing_compilation.py:178:1: note: called from\n    concrete_function = _maybe_define_function(\n^\n/home/omen_pc1/photo_score_project/.venv_gpu/lib/python3.12/site-packages/tensorflow/python/eager/polymorphic_function/tracing_compilation.py:283:1: note: called from\n        concrete_function = _create_concrete_function(\n^\n/home/omen_pc1/photo_score_project/.venv_gpu/lib/python3.12/site-packages/tensorflow/python/eager/polymorphic_function/tracing_compilation.py:310:1: note: called from\n  traced_func_graph = func_graph_module.func_graph_from_py_func(\n^\n/home/omen_pc1/photo_score_project/.venv_gpu/lib/python3.12/site-packages/tensorflow/python/framework/func_graph.py:1060:1: note: called from\n    func_outputs = python_func(*func_args, **func_kwargs)\n^\n/home/omen_pc1/photo_score_project/.venv_gpu/lib/python3.12/site-packages/tensorflow/python/eager/polymorphic_function/polymorphic_function.py:599:1: note: called from\n          out = weak_wrapped_fn().__wrapped__(*args, **kwds)\n^\n/home/omen_pc1/photo_score_project/.venv_gpu/lib/python3.12/site-packages/tensorflow/python/eager/polymorphic_function/autograph_util.py:41:1: note: called from\n      return api.converted_call(\n^\n/home/omen_pc1/photo_score_project/outputs/rgnet_tflite_retry_20260507/scripts/direct_keras_builtin_export.py:121:1: note: called from\n        return model(image, training=False)\n^\n/home/omen_pc1/photo_score_project/.venv_gpu/lib/python3.12/site-packages/keras/src/utils/traceback_utils.py:117:1: note: called from\n            return fn(*args, **kwargs)\n^\n/home/omen_pc1/photo_score_project/.venv_gpu/lib/python3.12/site-packages/keras/src/layers/layer.py:953:1: note: called from\n                    outputs = super().__call__(*args, **kwargs)\n^\n/home/omen_pc1/photo_score_project/.venv_gpu/lib/python3.12/site-packages/tensorflow/python/eager/polymorphic_function/polymorphic_function.py:696:1: note: see current operation: %296 = \"tf.Sigmoid\"(%295) {device = \"\"} : (tensor<1x64x64x64xf16>) -> tensor<1x64x64x64xf16>\n    self._concrete_variable_creation_fn = tracing_compilation.trace_function(\n^\n/home/omen_pc1/photo_score_project/.venv_gpu/lib/python3.12/site-packages/tensorflow/python/eager/polymorphic_function/polymorphic_function.py:696:1: note: Error code: ERROR_NEEDS_FLEX_OPS\n/home/omen_pc1/photo_score_project/.venv_gpu/lib/python3.12/site-packages/tensorflow/python/eager/polymorphic_function/polymorphic_function.py:696:1: error: 'tf.Mul' op is neither a custom op nor a flex op\n    self._concrete_variable_creation_fn = tracing_compilation.trace_function(\n^\n/home/omen_pc1/photo_score_project/.venv_gpu/lib/python3.12/site-packages/tensorflow/python/eager/polymorphic_function/tracing_compilation.py:178:1: note: called from\n    concrete_function = _maybe_define_function(\n^\n/home/omen_pc1/photo_score_project/.venv_gpu/lib/python3.12/site-packages/tensorflow/python/eager/polymorphic_function/tracing_compilation.py:283:1: note: called from\n        concrete_function = _create_concrete_function(\n^\n/home/omen_pc1/photo_score_project/.venv_gpu/lib/python3.12/site-packages/tensorflow/python/eager/polymorphic_function/tracing_compilation.py:310:1: note: called from\n  traced_func_graph = func_graph_module.func_graph_from_py_func(\n^\n/home/omen_pc1/photo_score_project/.venv_gpu/lib/python3.12/site-packages/tensorflow/python/framework/func_graph.py:1060:1: note: called from\n    func_outputs = python_func(*func_args, **func_kwargs)\n^\n/home/omen_pc1/photo_score_project/.venv_gpu/lib/python3.12/site-packages/tensorflow/python/eager/polymorphic_function/polymorphic_function.py:599:1: note: called from\n          out = weak_wrapped_fn().__wrapped__(*args, **kwds)\n^\n/home/omen_pc1/photo_score_project/.venv_gpu/lib/python3.12/site-packages/tensorflow/python/eager/polymorphic_function/autograph_util.py:41:1: note: called from\n      return api.converted_call(\n^\n/home/omen_pc1/photo_score_project/outputs/rgnet_tflite_retry_20260507/scripts/direct_keras_builtin_export.py:121:1: note: called from\n        return model(image, training=False)\n^\n/home/omen_pc1/photo_score_project/.venv_gpu/lib/python3.12/site-packages/keras/src/utils/traceback_utils.py:117:1: note: called from\n            return fn(*args, **kwargs)\n^\n/home/omen_pc1/photo_score_project/.venv_gpu/lib/python3.12/site-packages/keras/src/layers/layer.py:953:1: note: called from\n                    outputs = super().__call__(*args, **kwargs)\n^\n/home/omen_pc1/photo_score_project/.venv_gpu/lib/python3.12/site-packages/tensorflow/python/eager/polymorphic_function/polymorphic_function.py:696:1: note: see current operation: %297 = \"tf.Mul\"(%295, %296) {device = \"\"} : (tensor<1x64x64x64xf16>, tensor<1x64x64x64xf16>) -> tensor<1x64x64x64xf16>\n    self._concrete_variable_creation_fn = tracing_compilation.trace_function(\n^\n/home/omen_pc1/photo_score_project/.venv_gpu/lib/python3.12/site-packages/tensorflow/python/eager/polymorphic_function/polymorphic_function.py:696:1: note: Error code: ERROR_NEEDS_FLEX_OPS\n/home/omen_pc1/photo_score_project/.venv_gpu/lib/python3.12/site-packages/tensorflow/python/eager/polymorphic_function/polymorphic_function.py:696:1: error: 'tf.Conv2D' op is neither a custom op nor a flex op\n    self._concrete_variable_creation_fn = tracing_compilation.trace_function(\n^\n/home/omen_pc1/photo_score_project/.venv_gpu/lib/python3.12/site-packages/tensorflow/python/eager/polymorphic_function/tracing_compilation.py:178:1: note: called from\n    concrete_function = _maybe_define_function(\n^\n/home/omen_pc1/photo_score_project/.venv_gpu/lib/python3.12/site-packages/tensorflow/python/eager/polymorphic_function/tracing_compilation.py:283:1: note: called from\n        concrete_function = _create_concrete_function(\n^\n/home/omen_pc1/photo_score_project/.venv_gpu/lib/python3.12/site-packages/tensorflow/python/eager/polymorphic_function/tracing_compilation.py:310:1: note: called from\n  traced_func_graph = func_graph_module.func_graph_from_py_func(\n^\n/home/omen_pc1/photo_score_project/.venv_gpu/lib/python3.12/site-packages/tensorflow/python/framework/func_graph.py:1060:1: note: called from\n    func_outputs = python_func(*func_args, **func_kwargs)\n^\n/home/omen_pc1/photo_score_project/.venv_gpu/lib/python3.12/site-packages/tensorflow/python/eager/polymorphic_function/polymorphic_function.py:599:1: note: called from\n          out = weak_wrapped_fn().__wrapped__(*args, **kwds)\n^\n/home/omen_pc1/photo_score_project/.venv_gpu/lib/python3.12/site-packages/tensorflow/python/eager/polymorphic_function/autograph_util.py:41:1: note: called from\n      return api.converted_call(\n^\n/home/omen_pc1/photo_score_project/outputs/rgnet_tflite_retry_20260507/scripts/direct_keras_builtin_export.py:121:1: note: called from\n        return model(image, training=False)\n^\n/home/omen_pc1/photo_score_project/.venv_gpu/lib/python3.12/site-packages/keras/src/utils/traceback_utils.py:117:1: note: called from\n            return fn(*args, **kwargs)\n^\n/home/omen_pc1/photo_score_project/.venv_gpu/lib/python3.12/site-packages/keras/src/layers/layer.py:953:1: note: called from\n                    outputs = super().__call__(*args, **kwargs)\n^\n/home/omen_pc1/photo_score_project/.venv_gpu/lib/python3.12/site-packages/tensorflow/python/eager/polymorphic_function/polymorphic_function.py:696:1: note: see current operation: %298 = \"tf.Conv2D\"(%297, %247) <{data_format = \"NHWC\", dilations = [1, 1, 1, 1], explicit_paddings = [], padding = \"SAME\", strides = [1, 1, 1, 1], use_cudnn_on_gpu = true}> {device = \"\"} : (tensor<1x64x64x64xf16>, tensor<1x1x64x32xf16>) -> tensor<1x64x64x32xf16>\n    self._concrete_variable_creation_fn = tracing_compilation.trace_function(\n^\n/home/omen_pc1/photo_score_project/.venv_gpu/lib/python3.12/site-packages/tensorflow/python/eager/polymorphic_function/polymorphic_function.py:696:1: note: Error code: ERROR_NEEDS_FLEX_OPS\n/home/omen_pc1/photo_score_project/.venv_gpu/lib/python3.12/site-packages/tensorflow/python/eager/polymorphic_function/polymorphic_function.py:696:1: error: 'tf.Conv2D' op is neither a custom op nor a flex op\n    self._concrete_variable_creation_fn = tracing_compilation.trace_function(\n^\n/home/omen_pc1/photo_score_project/.venv_gpu/lib/python3.12/site-packages/tensorflow/python/eager/polymorphic_function/tracing_compilation.py:178:1: note: called from\n    concrete_function = _maybe_define_function(\n^\n/home/omen_pc1/photo_score_project/.venv_gpu/lib/python3.12/site-packages/tensorflow/python/eager/polymorphic_function/tracing_compilation.py:283:1: note: called from\n        concrete_function = _create_concrete_function(\n^\n/home/omen_pc1/photo_score_project/.venv_gpu/lib/python3.12/site-packages/tensorflow/python/eager/polymorphic_function/tracing_compilation.py:310:1: note: called from\n  traced_func_graph = func_graph_module.func_graph_from_py_func(\n^\n/home/omen_pc1/photo_score_project/.venv_gpu/lib/python3.12/site-packages/tensorflow/python/framework/func_graph.py:1060:1: note: called from\n    func_outputs = python_func(*func_args, **func_kwargs)\n^\n/home/omen_pc1/photo_score_project/.venv_gpu/lib/python3.12/site-packages/tensorflow/python/eager/polymorphic_function/polymorphic_function.py:599:1: note: called from\n          out = weak_wrapped_fn().__wrapped__(*args, **kwds)\n^\n/home/omen_pc1/photo_score_project/.venv_gpu/lib/python3.12/site-packages/tensorflow/python/eager/polymorphic_function/autograph_util.py:41:1: note: called from\n      return api.converted_call(\n^\n/home/omen_pc1/photo_score_project/outputs/rgnet_tflite_retry_20260507/scripts/direct_keras_builtin_export.py:121:1: note: called from\n        return model(image, training=False)\n^\n/home/omen_pc1/photo_score_project/.venv_gpu/lib/python3.12/site-packages/keras/src/utils/traceback_utils.py:117:1: note: called from\n            return fn(*args, **kwargs)\n^\n/home/omen_pc1/photo_score_project/.venv_gpu/lib/python3.12/site-packages/keras/src/layers/layer.py:953:1: note: called from\n                    outputs = super().__call__(*args, **kwargs)\n^\n/home/omen_pc1/photo_score_project/.venv_gpu/lib/python3.12/site-packages/tensorflow/python/eager/polymorphic_function/polymorphic_function.py:696:1: note: see current operation: %303 = \"tf.Conv2D\"(%302, %244) <{data_format = \"NHWC\", dilations = [1, 1, 1, 1], explicit_paddings = [], padding = \"SAME\", strides = [1, 1, 1, 1], use_cudnn_on_gpu = true}> {device = \"\"} : (tensor<1x64x64x32xf16>, tensor<3x3x32x128xf16>) -> tensor<1x64x64x128xf16>\n    self._concrete_variable_creation_fn = tracing_compilation.trace_function(\n^\n/home/omen_pc1/photo_score_project/.venv_gpu/lib/python3.12/site-packages/tensorflow/python/eager/polymorphic_function/polymorphic_function.py:696:1: note: Error code: ERROR_NEEDS_FLEX_OPS\n/home/omen_pc1/photo_score_project/.venv_gpu/lib/python3.12/site-packages/tensorflow/python/eager/polymorphic_function/polymorphic_function.py:696:1: error: 'tf.Sigmoid' op is neither a custom op nor a flex op\n    self._concrete_variable_creation_fn = tracing_compilation.trace_function(\n^\n/home/omen_pc1/photo_score_project/.venv_gpu/lib/python3.12/site-packages/tensorflow/python/eager/polymorphic_function/tracing_compilation.py:178:1: note: called from\n    concrete_function = _maybe_define_function(\n^\n/home/omen_pc1/photo_score_project/.venv_gpu/lib/python3.12/site-packages/tensorflow/python/eager/polymorphic_function/tracing_compilation.py:283:1: note: called from\n        concrete_function = _create_concrete_function(\n^\n/home/omen_pc1/photo_score_project/.venv_gpu/lib/python3.12/site-packages/tensorflow/python/eager/polymorphic_function/tracing_compilation.py:310:1: note: called from\n  traced_func_graph = func_graph_module.func_graph_from_py_func(\n^\n/home/omen_pc1/photo_score_project/.venv_gpu/lib/python3.12/site-packages/tensorflow/python/framework/func_graph.py:1060:1: note: called from\n    func_outputs = python_func(*func_args, **func_kwargs)\n^\n/home/omen_pc1/photo_score_project/.venv_gpu/lib/python3.12/site-packages/tensorflow/python/eager/polymorphic_function/polymorphic_function.py:599:1: note: called from\n          out = weak_wrapped_fn().__wrapped__(*args, **kwds)\n^\n/home/omen_pc1/photo_score_project/.venv_gpu/lib/python3.12/site-packages/tensorflow/python/eager/polymorphic_function/autograph_util.py:41:1: note: called from\n      return api.converted_call(\n^\n/home/omen_pc1/photo_score_project/outputs/rgnet_tflite_retry_20260507/scripts/direct_keras_builtin_export.py:121:1: note: called from\n        return model(image, training=False)\n^\n/home/omen_pc1/photo_score_project/.venv_gpu/lib/python3.12/site-packages/keras/src/utils/traceback_utils.py:117:1: note: called from\n            return fn(*args, **kwargs)\n^\n/home/omen_pc1/photo_score_project/.venv_gpu/lib/python3.12/site-packages/keras/src/layers/layer.py:953:1: note: called from\n                    outputs = super().__call__(*args, **kwargs)\n^\n/home/omen_pc1/photo_score_project/.venv_gpu/lib/python3.12/site-packages/tensorflow/python/eager/polymorphic_function/polymorphic_function.py:696:1: note: see current operation: %308 = \"tf.Sigmoid\"(%307) {device = \"\"} : (tensor<1x64x64x128xf16>) -> tensor<1x64x64x128xf16>\n    self._concrete_variable_creation_fn = tracing_compilation.trace_function(\n^\n/home/omen_pc1/photo_score_project/.venv_gpu/lib/python3.12/site-packages/tensorflow/python/eager/polymorphic_function/polymorphic_function.py:696:1: note: Error code: ERROR_NEEDS_FLEX_OPS\n/home/omen_pc1/photo_score_project/.venv_gpu/lib/python3.12/site-packages/tensorflow/python/eager/polymorphic_function/polymorphic_function.py:696:1: error: 'tf.Mul' op is neither a custom op nor a flex op\n    self._concrete_variable_creation_fn = tracing_compilation.trace_function(\n^\n/home/omen_pc1/photo_score_project/.venv_gpu/lib/python3.12/site-packages/tensorflow/python/eager/polymorphic_function/tracing_compilation.py:178:1: note: called from\n    concrete_function = _maybe_define_function(\n^\n/home/omen_pc1/photo_score_project/.venv_gpu/lib/python3.12/site-packages/tensorflow/python/eager/polymorphic_function/tracing_compilation.py:283:1: note: called from\n        concrete_function = _create_concrete_function(\n^\n/home/omen_pc1/photo_score_project/.venv_gpu/lib/python3.12/site-packages/tensorflow/python/eager/polymorphic_function/tracing_compilation.py:310:1: note: called from\n  traced_func_graph = func_graph_module.func_graph_from_py_func(\n^\n/home/omen_pc1/photo_score_project/.venv_gpu/lib/python3.12/site-packages/tensorflow/python/framework/func_graph.py:1060:1: note: called from\n    func_outputs = python_func(*func_args, **func_kwargs)\n^\n/home/omen_pc1/photo_score_project/.venv_gpu/lib/python3.12/site-packages/tensorflow/python/eager/polymorphic_function/polymorphic_function.py:599:1: note: called from\n          out = weak_wrapped_fn().__wrapped__(*args, **kwds)\n^\n/home/omen_pc1/photo_score_project/.venv_gpu/lib/python3.12/site-packages/tensorflow/python/eager/polymorphic_function/autograph_util.py:41:1: note: called from\n      return api.converted_call(\n^\n/home/omen_pc1/photo_score_project/outputs/rgnet_tflite_retry_20260507/scripts/direct_keras_builtin_export.py:121:1: note: called from\n        return model(image, training=False)\n^\n/home/omen_pc1/photo_score_project/.venv_gpu/lib/python3.12/site-packages/keras/src/utils/traceback_utils.py:117:1: note: called from\n            return fn(*args, **kwargs)\n^\n/home/omen_pc1/photo_score_project/.venv_gpu/lib/python3.12/site-packages/keras/src/layers/layer.py:953:1: note: called from\n                    outputs = super().__call__(*args, **kwargs)\n^\n/home/omen_pc1/photo_score_project/.venv_gpu/lib/python3.12/site-packages/tensorflow/python/eager/polymorphic_function/polymorphic_function.py:696:1: note: see current operation: %309 = \"tf.Mul\"(%307, %308) {device = \"\"} : (tensor<1x64x64x128xf16>, tensor<1x64x64x128xf16>) -> tensor<1x64x64x128xf16>\n    self._concrete_variable_creation_fn = tracing_compilation.trace_function(\n^\n/home/omen_pc1/photo_score_project/.venv_gpu/lib/python3.12/site-packages/tensorflow/python/eager/polymorphic_function/polymorphic_function.py:696:1: note: Error code: ERROR_NEEDS_FLEX_OPS\n/home/omen_pc1/photo_score_project/.venv_gpu/lib/python3.12/site-packages/tensorflow/python/eager/polymorphic_function/polymorphic_function.py:696:1: error: 'tf.Conv2D' op is neither a custom op nor a flex op\n    self._concrete_variable_creation_fn = tracing_compilation.trace_function(\n^\n/home/omen_pc1/photo_score_project/.venv_gpu/lib/python3.12/site-packages/tensorflow/python/eager/polymorphic_function/tracing_compilation.py:178:1: note: called from\n    concrete_function = _maybe_define_function(\n^\n/home/omen_pc1/photo_score_project/.venv_gpu/lib/python3.12/site-packages/tensorflow/python/eager/polymorphic_function/tracing_compilation.py:283:1: note: called from\n        concrete_function = _create_concrete_function(\n^\n/home/omen_pc1/photo_score_project/.venv_gpu/lib/python3.12/site-packages/tensorflow/python/eager/polymorphic_function/tracing_compilation.py:310:1: note: called from\n  traced_func_graph = func_graph_module.func_graph_from_py_func(\n^\n/home/omen_pc1/photo_score_project/.venv_gpu/lib/python3.12/site-packages/tensorflow/python/framework/func_graph.py:1060:1: note: called from\n    func_outputs = python_func(*func_args, **func_kwargs)\n^\n/home/omen_pc1/photo_score_project/.venv_gpu/lib/python3.12/site-packages/tensorflow/python/eager/polymorphic_function/polymorphic_function.py:599:1: note: called from\n          out = weak_wrapped_fn().__wrapped__(*args, **kwds)\n^\n/home/omen_pc1/photo_score_project/.venv_gpu/lib/python3.12/site-packages/tensorflow/python/eager/polymorphic_function/autograph_util.py:41:1: note: called from\n      return api.converted_call(\n^\n/home/omen_pc1/photo_score_project/outputs/rgnet_tflite_retry_20260507/scripts/direct_keras_builtin_export.py:121:1: note: called from\n        return model(image, training=False)\n^\n/home/omen_pc1/photo_score_project/.venv_gpu/lib/python3.12/site-packages/keras/src/utils/traceback_utils.py:117:1: note: called from\n            return fn(*args, **kwargs)\n^\n/home/omen_pc1/photo_score_project/.venv_gpu/lib/python3.12/site-packages/keras/src/layers/layer.py:953:1: note: called from\n                    outputs = super().__call__(*args, **kwargs)\n^\n/home/omen_pc1/photo_score_project/.venv_gpu/lib/python3.12/site-packages/tensorflow/python/eager/polymorphic_function/polymorphic_function.py:696:1: note: see current operation: %310 = \"tf.Conv2D\"(%309, %241) <{data_format = \"NHWC\", dilations = [1, 1, 1, 1], explicit_paddings = [], padding = \"SAME\", strides = [1, 1, 1, 1], use_cudnn_on_gpu = true}> {device = \"\"} : (tensor<1x64x64x128xf16>, tensor<1x1x128x32xf16>) -> tensor<1x64x64x32xf16>\n    self._concrete_variable_creation_fn = tracing_compilation.trace_function(\n^\n/home/omen_pc1/photo_score_project/.venv_gpu/lib/python3.12/site-packages/tensorflow/python/eager/polymorphic_function/polymorphic_function.py:696:1: note: Error code: ERROR_NEEDS_FLEX_OPS\n/home/omen_pc1/photo_score_project/.venv_gpu/lib/python3.12/site-packages/tensorflow/python/eager/polymorphic_function/polymorphic_function.py:696:1: error: 'tf.AddV2' op is neither a custom op nor a flex op\n    self._concrete_variable_creation_fn = tracing_compilation.trace_function(\n^\n/home/omen_pc1/photo_score_project/.venv_gpu/lib/python3.12/site-packages/tensorflow/python/eager/polymorphic_function/tracing_compilation.py:178:1: note: called from\n    concrete_function = _maybe_define_function(\n^\n/home/omen_pc1/photo_score_project/.venv_gpu/lib/python3.12/site-packages/tensorflow/python/eager/polymorphic_function/tracing_compilation.py:283:1: note: called from\n        concrete_function = _create_concrete_function(\n^\n/home/omen_pc1/photo_score_project/.venv_gpu/lib/python3.12/site-packages/tensorflow/python/eager/polymorphic_function/tracing_compilation.py:310:1: note: called from\n  traced_func_graph = func_graph_module.func_graph_from_py_func(\n^\n/home/omen_pc1/photo_score_project/.venv_gpu/lib/python3.12/site-packages/tensorflow/python/framework/func_graph.py:1060:1: note: called from\n    func_outputs = python_func(*func_args, **func_kwargs)\n^\n/home/omen_pc1/photo_score_project/.venv_gpu/lib/python3.12/site-packages/tensorflow/python/eager/polymorphic_function/polymorphic_function.py:599:1: note: called from\n          out = weak_wrapped_fn().__wrapped__(*args, **kwds)\n^\n/home/omen_pc1/photo_score_project/.venv_gpu/lib/python3.12/site-packages/tensorflow/python/eager/polymorphic_function/autograph_util.py:41:1: note: called from\n      return api.converted_call(\n^\n/home/omen_pc1/photo_score_project/outputs/rgnet_tflite_retry_20260507/scripts/direct_keras_builtin_export.py:121:1: note: called from\n        return model(image, training=False)\n^\n/home/omen_pc1/photo_score_project/.venv_gpu/lib/python3.12/site-packages/keras/src/utils/traceback_utils.py:117:1: note: called from\n            return fn(*args, **kwargs)\n^\n/home/omen_pc1/photo_score_project/.venv_gpu/lib/python3.12/site-packages/keras/src/layers/layer.py:953:1: note: called from\n                    outputs = super().__call__(*args, **kwargs)\n^\n/home/omen_pc1/photo_score_project/.venv_gpu/lib/python3.12/site-packages/tensorflow/python/eager/polymorphic_function/polymorphic_function.py:696:1: note: see current operation: %315 = \"tf.AddV2\"(%314, %302) {device = \"\"} : (tensor<1x64x64x32xf16>, tensor<1x64x64x32xf16>) -> tensor<1x64x64x32xf16>\n    self._concrete_variable_creation_fn = tracing_compilation.trace_function(\n^\n/home/omen_pc1/photo_score_project/.venv_gpu/lib/python3.12/site-packages/tensorflow/python/eager/polymorphic_function/polymorphic_function.py:696:1: note: Error code: ERROR_NEEDS_FLEX_OPS\n/home/omen_pc1/photo_score_project/.venv_gpu/lib/python3.12/site-packages/tensorflow/python/eager/polymorphic_function/polymorphic_function.py:696:1: error: 'tf.Conv2D' op is neither a custom op nor a flex op\n    self._concrete_variable_creation_fn = tracing_compilation.trace_function(\n^\n/home/omen_pc1/photo_score_project/.venv_gpu/lib/python3.12/site-packages/tensorflow/python/eager/polymorphic_function/tracing_compilation.py:178:1: note: called from\n    concrete_function = _maybe_define_function(\n^\n/home/omen_pc1/photo_score_project/.venv_gpu/lib/python3.12/site-packages/tensorflow/python/eager/polymorphic_function/tracing_compilation.py:283:1: note: called from\n        concrete_function = _create_concrete_function(\n^\n/home/omen_pc1/photo_score_project/.venv_gpu/lib/python3.12/site-packages/tensorflow/python/eager/polymorphic_function/tracing_compilation.py:310:1: note: called from\n  traced_func_graph = func_graph_module.func_graph_from_py_func(\n^\n/home/omen_pc1/photo_score_project/.venv_gpu/lib/python3.12/site-packages/tensorflow/python/framework/func_graph.py:1060:1: note: called from\n    func_outputs = python_func(*func_args, **func_kwargs)\n^\n/home/omen_pc1/photo_score_project/.venv_gpu/lib/python3.12/site-packages/tensorflow/python/eager/polymorphic_function/polymorphic_function.py:599:1: note: called from\n          out = weak_wrapped_fn().__wrapped__(*args, **kwds)\n^\n/home/omen_pc1/photo_score_project/.venv_gpu/lib/python3.12/site-packages/tensorflow/python/eager/polymorphic_function/autograph_util.py:41:1: note: called from\n      return api.converted_call(\n^\n/home/omen_pc1/photo_score_project/outputs/rgnet_tflite_retry_20260507/scripts/direct_keras_builtin_export.py:121:1: note: called from\n        return model(image, training=False)\n^\n/home/omen_pc1/photo_score_project/.venv_gpu/lib/python3.12/site-packages/keras/src/utils/traceback_utils.py:117:1: note: called from\n            return fn(*args, **kwargs)\n^\n/home/omen_pc1/photo_score_project/.venv_gpu/lib/python3.12/site-packages/keras/src/layers/layer.py:953:1: note: called from\n                    outputs = super().__call__(*args, **kwargs)\n^\n/home/omen_pc1/photo_score_project/.venv_gpu/lib/python3.12/site-packages/tensorflow/python/eager/polymorphic_function/polymorphic_function.py:696:1: note: see current operation: %316 = \"tf.Conv2D\"(%315, %238) <{data_format = \"NHWC\", dilations = [1, 1, 1, 1], explicit_paddings = [], padding = \"SAME\", strides = [1, 2, 2, 1], use_cudnn_on_gpu = true}> {device = \"\"} : (tensor<1x64x64x32xf16>, tensor<3x3x32x128xf16>) -> tensor<1x32x32x128xf16>\n    self._concrete_variable_creation_fn = tracing_compilation.trace_function(\n^\n/home/omen_pc1/photo_score_project/.venv_gpu/lib/python3.12/site-packages/tensorflow/python/eager/polymorphic_function/polymorphic_function.py:696:1: note: Error code: ERROR_NEEDS_FLEX_OPS\n/home/omen_pc1/photo_score_project/.venv_gpu/lib/python3.12/site-packages/tensorflow/python/eager/polymorphic_function/polymorphic_function.py:696:1: error: 'tf.Sigmoid' op is neither a custom op nor a flex op\n    self._concrete_variable_creation_fn = tracing_compilation.trace_function(\n^\n/home/omen_pc1/photo_score_project/.venv_gpu/lib/python3.12/site-packages/tensorflow/python/eager/polymorphic_function/tracing_compilation.py:178:1: note: called from\n    concrete_function = _maybe_define_function(\n^\n/home/omen_pc1/photo_score_project/.venv_gpu/lib/python3.12/site-packages/tensorflow/python/eager/polymorphic_function/tracing_compilation.py:283:1: note: called from\n        concrete_function = _create_concrete_function(\n^\n/home/omen_pc1/photo_score_project/.venv_gpu/lib/python3.12/site-packages/tensorflow/python/eager/polymorphic_function/tracing_compilation.py:310:1: note: called from\n  traced_func_graph = func_graph_module.func_graph_from_py_func(\n^\n/home/omen_pc1/photo_score_project/.venv_gpu/lib/python3.12/site-packages/tensorflow/python/framework/func_graph.py:1060:1: note: called from\n    func_outputs = python_func(*func_args, **func_kwargs)\n^\n/home/omen_pc1/photo_score_project/.venv_gpu/lib/python3.12/site-packages/tensorflow/python/eager/polymorphic_function/polymorphic_function.py:599:1: note: called from\n          out = weak_wrapped_fn().__wrapped__(*args, **kwds)\n^\n/home/omen_pc1/photo_score_project/.venv_gpu/lib/python3.12/site-packages/tensorflow/python/eager/polymorphic_function/autograph_util.py:41:1: note: called from\n      return api.converted_call(\n^\n/home/omen_pc1/photo_score_project/outputs/rgnet_tflite_retry_20260507/scripts/direct_keras_builtin_export.py:121:1: note: called from\n        return model(image, training=False)\n^\n/home/omen_pc1/photo_score_project/.venv_gpu/lib/python3.12/site-packages/keras/src/utils/traceback_utils.py:117:1: note: called from\n            return fn(*args, **kwargs)\n^\n/home/omen_pc1/photo_score_project/.venv_gpu/lib/python3.12/site-packages/keras/src/layers/layer.py:953:1: note: called from\n                    outputs = super().__call__(*args, **kwargs)\n^\n/home/omen_pc1/photo_score_project/.venv_gpu/lib/python3.12/site-packages/tensorflow/python/eager/polymorphic_function/polymorphic_function.py:696:1: note: see current operation: %321 = \"tf.Sigmoid\"(%320) {device = \"\"} : (tensor<1x32x32x128xf16>) -> tensor<1x32x32x128xf16>\n    self._concrete_variable_creation_fn = tracing_compilation.trace_function(\n^\n/home/omen_pc1/photo_score_project/.venv_gpu/lib/python3.12/site-packages/tensorflow/python/eager/polymorphic_function/polymorphic_function.py:696:1: note: Error code: ERROR_NEEDS_FLEX_OPS\n/home/omen_pc1/photo_score_project/.venv_gpu/lib/python3.12/site-packages/tensorflow/python/eager/polymorphic_function/polymorphic_function.py:696:1: error: 'tf.Mul' op is neither a custom op nor a flex op\n    self._concrete_variable_creation_fn = tracing_compilation.trace_function(\n^\n/home/omen_pc1/photo_score_project/.venv_gpu/lib/python3.12/site-packages/tensorflow/python/eager/polymorphic_function/tracing_compilation.py:178:1: note: called from\n    concrete_function = _maybe_define_function(\n^\n/home/omen_pc1/photo_score_project/.venv_gpu/lib/python3.12/site-packages/tensorflow/python/eager/polymorphic_function/tracing_compilation.py:283:1: note: called from\n        concrete_function = _create_concrete_function(\n^\n/home/omen_pc1/photo_score_project/.venv_gpu/lib/python3.12/site-packages/tensorflow/python/eager/polymorphic_function/tracing_compilation.py:310:1: note: called from\n  traced_func_graph = func_graph_module.func_graph_from_py_func(\n^\n/home/omen_pc1/photo_score_project/.venv_gpu/lib/python3.12/site-packages/tensorflow/python/framework/func_graph.py:1060:1: note: called from\n    func_outputs = python_func(*func_args, **func_kwargs)\n^\n/home/omen_pc1/photo_score_project/.venv_gpu/lib/python3.12/site-packages/tensorflow/python/eager/polymorphic_function/polymorphic_function.py:599:1: note: called from\n          out = weak_wrapped_fn().__wrapped__(*args, **kwds)\n^\n/home/omen_pc1/photo_score_project/.venv_gpu/lib/python3.12/site-packages/tensorflow/python/eager/polymorphic_function/autograph_util.py:41:1: note: called from\n      return api.converted_call(\n^\n/home/omen_pc1/photo_score_project/outputs/rgnet_tflite_retry_20260507/scripts/direct_keras_builtin_export.py:121:1: note: called from\n        return model(image, training=False)\n^\n/home/omen_pc1/photo_score_project/.venv_gpu/lib/python3.12/site-packages/keras/src/utils/traceback_utils.py:117:1: note: called from\n            return fn(*args, **kwargs)\n^\n/home/omen_pc1/photo_score_project/.venv_gpu/lib/python3.12/site-packages/keras/src/layers/layer.py:953:1: note: called from\n                    outputs = super().__call__(*args, **kwargs)\n^\n/home/omen_pc1/photo_score_project/.venv_gpu/lib/python3.12/site-packages/tensorflow/python/eager/polymorphic_function/polymorphic_function.py:696:1: note: see current operation: %322 = \"tf.Mul\"(%320, %321) {device = \"\"} : (tensor<1x32x32x128xf16>, tensor<1x32x32x128xf16>) -> tensor<1x32x32x128xf16>\n    self._concrete_variable_creation_fn = tracing_compilation.trace_function(\n^\n/home/omen_pc1/photo_score_project/.venv_gpu/lib/python3.12/site-packages/tensorflow/python/eager/polymorphic_function/polymorphic_function.py:696:1: note: Error code: ERROR_NEEDS_FLEX_OPS\n/home/omen_pc1/photo_score_project/.venv_gpu/lib/python3.12/site-packages/tensorflow/python/eager/polymorphic_function/polymorphic_function.py:696:1: error: 'tf.Conv2D' op is neither a custom op nor a flex op\n    self._concrete_variable_creation_fn = tracing_compilation.trace_function(\n^\n/home/omen_pc1/photo_score_project/.venv_gpu/lib/python3.12/site-packages/tensorflow/python/eager/polymorphic_function/tracing_compilation.py:178:1: note: called from\n    concrete_function = _maybe_define_function(\n^\n/home/omen_pc1/photo_score_project/.venv_gpu/lib/python3.12/site-packages/tensorflow/python/eager/polymorphic_function/tracing_compilation.py:283:1: note: called from\n        concrete_function = _create_concrete_function(\n^\n/home/omen_pc1/photo_score_project/.venv_gpu/lib/python3.12/site-packages/tensorflow/python/eager/polymorphic_function/tracing_compilation.py:310:1: note: called from\n  traced_func_graph = func_graph_module.func_graph_from_py_func(\n^\n/home/omen_pc1/photo_score_project/.venv_gpu/lib/python3.12/site-packages/tensorflow/python/framework/func_graph.py:1060:1: note: called from\n    func_outputs = python_func(*func_args, **func_kwargs)\n^\n/home/omen_pc1/photo_score_project/.venv_gpu/lib/python3.12/site-packages/tensorflow/python/eager/polymorphic_function/polymorphic_function.py:599:1: note: called from\n          out = weak_wrapped_fn().__wrapped__(*args, **kwds)\n^\n/home/omen_pc1/photo_score_project/.venv_gpu/lib/python3.12/site-packages/tensorflow/python/eager/polymorphic_function/autograph_util.py:41:1: note: called from\n      return api.converted_call(\n^\n/home/omen_pc1/photo_score_project/outputs/rgnet_tflite_retry_20260507/scripts/direct_keras_builtin_export.py:121:1: note: called from\n        return model(image, training=False)\n^\n/home/omen_pc1/photo_score_project/.venv_gpu/lib/python3.12/site-packages/keras/src/utils/traceback_utils.py:117:1: note: called from\n            return fn(*args, **kwargs)\n^\n/home/omen_pc1/photo_score_project/.venv_gpu/lib/python3.12/site-packages/keras/src/layers/layer.py:953:1: note: called from\n                    outputs = super().__call__(*args, **kwargs)\n^\n/home/omen_pc1/photo_score_project/.venv_gpu/lib/python3.12/site-packages/tensorflow/python/eager/polymorphic_function/polymorphic_function.py:696:1: note: see current operation: %323 = \"tf.Conv2D\"(%322, %235) <{data_format = \"NHWC\", dilations = [1, 1, 1, 1], explicit_paddings = [], padding = \"SAME\", strides = [1, 1, 1, 1], use_cudnn_on_gpu = true}> {device = \"\"} : (tensor<1x32x32x128xf16>, tensor<1x1x128x48xf16>) -> tensor<1x32x32x48xf16>\n    self._concrete_variable_creation_fn = tracing_compilation.trace_function(\n^\n/home/omen_pc1/photo_score_project/.venv_gpu/lib/python3.12/site-packages/tensorflow/python/eager/polymorphic_function/polymorphic_function.py:696:1: note: Error code: ERROR_NEEDS_FLEX_OPS\n/home/omen_pc1/photo_score_project/.venv_gpu/lib/python3.12/site-packages/tensorflow/python/eager/polymorphic_function/polymorphic_function.py:696:1: error: 'tf.Conv2D' op is neither a custom op nor a flex op\n    self._concrete_variable_creation_fn = tracing_compilation.trace_function(\n^\n/home/omen_pc1/photo_score_project/.venv_gpu/lib/python3.12/site-packages/tensorflow/python/eager/polymorphic_function/tracing_compilation.py:178:1: note: called from\n    concrete_function = _maybe_define_function(\n^\n/home/omen_pc1/photo_score_project/.venv_gpu/lib/python3.12/site-packages/tensorflow/python/eager/polymorphic_function/tracing_compilation.py:283:1: note: called from\n        concrete_function = _create_concrete_function(\n^\n/home/omen_pc1/photo_score_project/.venv_gpu/lib/python3.12/site-packages/tensorflow/python/eager/polymorphic_function/tracing_compilation.py:310:1: note: called from\n  traced_func_graph = func_graph_module.func_graph_from_py_func(\n^\n/home/omen_pc1/photo_score_project/.venv_gpu/lib/python3.12/site-packages/tensorflow/python/framework/func_graph.py:1060:1: note: called from\n    func_outputs = python_func(*func_args, **func_kwargs)\n^\n/home/omen_pc1/photo_score_project/.venv_gpu/lib/python3.12/site-packages/tensorflow/python/eager/polymorphic_function/polymorphic_function.py:599:1: note: called from\n          out = weak_wrapped_fn().__wrapped__(*args, **kwds)\n^\n/home/omen_pc1/photo_score_project/.venv_gpu/lib/python3.12/site-packages/tensorflow/python/eager/polymorphic_function/autograph_util.py:41:1: note: called from\n      return api.converted_call(\n^\n/home/omen_pc1/photo_score_project/outputs/rgnet_tflite_retry_20260507/scripts/direct_keras_builtin_export.py:121:1: note: called from\n        return model(image, training=False)\n^\n/home/omen_pc1/photo_score_project/.venv_gpu/lib/python3.12/site-packages/keras/src/utils/traceback_utils.py:117:1: note: called from\n            return fn(*args, **kwargs)\n^\n/home/omen_pc1/photo_score_project/.venv_gpu/lib/python3.12/site-packages/keras/src/layers/layer.py:953:1: note: called from\n                    outputs = super().__call__(*args, **kwargs)\n^\n/home/omen_pc1/photo_score_project/.venv_gpu/lib/python3.12/site-packages/tensorflow/python/eager/polymorphic_function/polymorphic_function.py:696:1: note: see current operation: %328 = \"tf.Conv2D\"(%327, %232) <{data_format = \"NHWC\", dilations = [1, 1, 1, 1], explicit_paddings = [], padding = \"SAME\", strides = [1, 1, 1, 1], use_cudnn_on_gpu = true}> {device = \"\"} : (tensor<1x32x32x48xf16>, tensor<3x3x48x192xf16>) -> tensor<1x32x32x192xf16>\n    self._concrete_variable_creation_fn = tracing_compilation.trace_function(\n^\n/home/omen_pc1/photo_score_project/.venv_gpu/lib/python3.12/site-packages/tensorflow/python/eager/polymorphic_function/polymorphic_function.py:696:1: note: Error code: ERROR_NEEDS_FLEX_OPS\n/home/omen_pc1/photo_score_project/.venv_gpu/lib/python3.12/site-packages/tensorflow/python/eager/polymorphic_function/polymorphic_function.py:696:1: error: 'tf.Sigmoid' op is neither a custom op nor a flex op\n    self._concrete_variable_creation_fn = tracing_compilation.trace_function(\n^\n/home/omen_pc1/photo_score_project/.venv_gpu/lib/python3.12/site-packages/tensorflow/python/eager/polymorphic_function/tracing_compilation.py:178:1: note: called from\n    concrete_function = _maybe_define_function(\n^\n/home/omen_pc1/photo_score_project/.venv_gpu/lib/python3.12/site-packages/tensorflow/python/eager/polymorphic_function/tracing_compilation.py:283:1: note: called from\n        concrete_function = _create_concrete_function(\n^\n/home/omen_pc1/photo_score_project/.venv_gpu/lib/python3.12/site-packages/tensorflow/python/eager/polymorphic_function/tracing_compilation.py:310:1: note: called from\n  traced_func_graph = func_graph_module.func_graph_from_py_func(\n^\n/home/omen_pc1/photo_score_project/.venv_gpu/lib/python3.12/site-packages/tensorflow/python/framework/func_graph.py:1060:1: note: called from\n    func_outputs = python_func(*func_args, **func_kwargs)\n^\n/home/omen_pc1/photo_score_project/.venv_gpu/lib/python3.12/site-packages/tensorflow/python/eager/polymorphic_function/polymorphic_function.py:599:1: note: called from\n          out = weak_wrapped_fn().__wrapped__(*args, **kwds)\n^\n/home/omen_pc1/photo_score_project/.venv_gpu/lib/python3.12/site-packages/tensorflow/python/eager/polymorphic_function/autograph_util.py:41:1: note: called from\n      return api.converted_call(\n^\n/home/omen_pc1/photo_score_project/outputs/rgnet_tflite_retry_20260507/scripts/direct_keras_builtin_export.py:121:1: note: called from\n        return model(image, training=False)\n^\n/home/omen_pc1/photo_score_project/.venv_gpu/lib/python3.12/site-packages/keras/src/utils/traceback_utils.py:117:1: note: called from\n            return fn(*args, **kwargs)\n^\n/home/omen_pc1/photo_score_project/.venv_gpu/lib/python3.12/site-packages/keras/src/layers/layer.py:953:1: note: called from\n                    outputs = super().__call__(*args, **kwargs)\n^\n/home/omen_pc1/photo_score_project/.venv_gpu/lib/python3.12/site-packages/tensorflow/python/eager/polymorphic_function/polymorphic_function.py:696:1: note: see current operation: %333 = \"tf.Sigmoid\"(%332) {device = \"\"} : (tensor<1x32x32x192xf16>) -> tensor<1x32x32x192xf16>\n    self._concrete_variable_creation_fn = tracing_compilation.trace_function(\n^\n/home/omen_pc1/photo_score_project/.venv_gpu/lib/python3.12/site-packages/tensorflow/python/eager/polymorphic_function/polymorphic_function.py:696:1: note: Error code: ERROR_NEEDS_FLEX_OPS\n/home/omen_pc1/photo_score_project/.venv_gpu/lib/python3.12/site-packages/tensorflow/python/eager/polymorphic_function/polymorphic_function.py:696:1: error: 'tf.Mul' op is neither a custom op nor a flex op\n    self._concrete_variable_creation_fn = tracing_compilation.trace_function(\n^\n/home/omen_pc1/photo_score_project/.venv_gpu/lib/python3.12/site-packages/tensorflow/python/eager/polymorphic_function/tracing_compilation.py:178:1: note: called from\n    concrete_function = _maybe_define_function(\n^\n/home/omen_pc1/photo_score_project/.venv_gpu/lib/python3.12/site-packages/tensorflow/python/eager/polymorphic_function/tracing_compilation.py:283:1: note: called from\n        concrete_function = _create_concrete_function(\n^\n/home/omen_pc1/photo_score_project/.venv_gpu/lib/python3.12/site-packages/tensorflow/python/eager/polymorphic_function/tracing_compilation.py:310:1: note: called from\n  traced_func_graph = func_graph_module.func_graph_from_py_func(\n^\n/home/omen_pc1/photo_score_project/.venv_gpu/lib/python3.12/site-packages/tensorflow/python/framework/func_graph.py:1060:1: note: called from\n    func_outputs = python_func(*func_args, **func_kwargs)\n^\n/home/omen_pc1/photo_score_project/.venv_gpu/lib/python3.12/site-packages/tensorflow/python/eager/polymorphic_function/polymorphic_function.py:599:1: note: called from\n          out = weak_wrapped_fn().__wrapped__(*args, **kwds)\n^\n/home/omen_pc1/photo_score_project/.venv_gpu/lib/python3.12/site-packages/tensorflow/python/eager/polymorphic_function/autograph_util.py:41:1: note: called from\n      return api.converted_call(\n^\n/home/omen_pc1/photo_score_project/outputs/rgnet_tflite_retry_20260507/scripts/direct_keras_builtin_export.py:121:1: note: called from\n        return model(image, training=False)\n^\n/home/omen_pc1/photo_score_project/.venv_gpu/lib/python3.12/site-packages/keras/src/utils/traceback_utils.py:117:1: note: called from\n            return fn(*args, **kwargs)\n^\n/home/omen_pc1/photo_score_project/.venv_gpu/lib/python3.12/site-packages/keras/src/layers/layer.py:953:1: note: called from\n                    outputs = super().__call__(*args, **kwargs)\n^\n/home/omen_pc1/photo_score_project/.venv_gpu/lib/python3.12/site-packages/tensorflow/python/eager/polymorphic_function/polymorphic_function.py:696:1: note: see current operation: %334 = \"tf.Mul\"(%332, %333) {device = \"\"} : (tensor<1x32x32x192xf16>, tensor<1x32x32x192xf16>) -> tensor<1x32x32x192xf16>\n    self._concrete_variable_creation_fn = tracing_compilation.trace_function(\n^\n/home/omen_pc1/photo_score_project/.venv_gpu/lib/python3.12/site-packages/tensorflow/python/eager/polymorphic_function/polymorphic_function.py:696:1: note: Error code: ERROR_NEEDS_FLEX_OPS\n/home/omen_pc1/photo_score_project/.venv_gpu/lib/python3.12/site-packages/tensorflow/python/eager/polymorphic_function/polymorphic_function.py:696:1: error: 'tf.Conv2D' op is neither a custom op nor a flex op\n    self._concrete_variable_creation_fn = tracing_compilation.trace_function(\n^\n/home/omen_pc1/photo_score_project/.venv_gpu/lib/python3.12/site-packages/tensorflow/python/eager/polymorphic_function/tracing_compilation.py:178:1: note: called from\n    concrete_function = _maybe_define_function(\n^\n/home/omen_pc1/photo_score_project/.venv_gpu/lib/python3.12/site-packages/tensorflow/python/eager/polymorphic_function/tracing_compilation.py:283:1: note: called from\n        concrete_function = _create_concrete_function(\n^\n/home/omen_pc1/photo_score_project/.venv_gpu/lib/python3.12/site-packages/tensorflow/python/eager/polymorphic_function/tracing_compilation.py:310:1: note: called from\n  traced_func_graph = func_graph_module.func_graph_from_py_func(\n^\n/home/omen_pc1/photo_score_project/.venv_gpu/lib/python3.12/site-packages/tensorflow/python/framework/func_graph.py:1060:1: note: called from\n    func_outputs = python_func(*func_args, **func_kwargs)\n^\n/home/omen_pc1/photo_score_project/.venv_gpu/lib/python3.12/site-packages/tensorflow/python/eager/polymorphic_function/polymorphic_function.py:599:1: note: called from\n          out = weak_wrapped_fn().__wrapped__(*args, **kwds)\n^\n/home/omen_pc1/photo_score_project/.venv_gpu/lib/python3.12/site-packages/tensorflow/python/eager/polymorphic_function/autograph_util.py:41:1: note: called from\n      return api.converted_call(\n^\n/home/omen_pc1/photo_score_project/outputs/rgnet_tflite_retry_20260507/scripts/direct_keras_builtin_export.py:121:1: note: called from\n        return model(image, training=False)\n^\n/home/omen_pc1/photo_score_project/.venv_gpu/lib/python3.12/site-packages/keras/src/utils/traceback_utils.py:117:1: note: called from\n            return fn(*args, **kwargs)\n^\n/home/omen_pc1/photo_score_project/.venv_gpu/lib/python3.12/site-packages/keras/src/layers/layer.py:953:1: note: called from\n                    outputs = super().__call__(*args, **kwargs)\n^\n/home/omen_pc1/photo_score_project/.venv_gpu/lib/python3.12/site-packages/tensorflow/python/eager/polymorphic_function/polymorphic_function.py:696:1: note: see current operation: %335 = \"tf.Conv2D\"(%334, %229) <{data_format = \"NHWC\", dilations = [1, 1, 1, 1], explicit_paddings = [], padding = \"SAME\", strides = [1, 1, 1, 1], use_cudnn_on_gpu = true}> {device = \"\"} : (tensor<1x32x32x192xf16>, tensor<1x1x192x48xf16>) -> tensor<1x32x32x48xf16>\n    self._concrete_variable_creation_fn = tracing_compilation.trace_function(\n^\n/home/omen_pc1/photo_score_project/.venv_gpu/lib/python3.12/site-packages/tensorflow/python/eager/polymorphic_function/polymorphic_function.py:696:1: note: Error code: ERROR_NEEDS_FLEX_OPS\n/home/omen_pc1/photo_score_project/.venv_gpu/lib/python3.12/site-packages/tensorflow/python/eager/polymorphic_function/polymorphic_function.py:696:1: error: 'tf.AddV2' op is neither a custom op nor a flex op\n    self._concrete_variable_creation_fn = tracing_compilation.trace_function(\n^\n/home/omen_pc1/photo_score_project/.venv_gpu/lib/python3.12/site-packages/tensorflow/python/eager/polymorphic_function/tracing_compilation.py:178:1: note: called from\n    concrete_function = _maybe_define_function(\n^\n/home/omen_pc1/photo_score_project/.venv_gpu/lib/python3.12/site-packages/tensorflow/python/eager/polymorphic_function/tracing_compilation.py:283:1: note: called from\n        concrete_function = _create_concrete_function(\n^\n/home/omen_pc1/photo_score_project/.venv_gpu/lib/python3.12/site-packages/tensorflow/python/eager/polymorphic_function/tracing_compilation.py:310:1: note: called from\n  traced_func_graph = func_graph_module.func_graph_from_py_func(\n^\n/home/omen_pc1/photo_score_project/.venv_gpu/lib/python3.12/site-packages/tensorflow/python/framework/func_graph.py:1060:1: note: called from\n    func_outputs = python_func(*func_args, **func_kwargs)\n^\n/home/omen_pc1/photo_score_project/.venv_gpu/lib/python3.12/site-packages/tensorflow/python/eager/polymorphic_function/polymorphic_function.py:599:1: note: called from\n          out = weak_wrapped_fn().__wrapped__(*args, **kwds)\n^\n/home/omen_pc1/photo_score_project/.venv_gpu/lib/python3.12/site-packages/tensorflow/python/eager/polymorphic_function/autograph_util.py:41:1: note: called from\n      return api.converted_call(\n^\n/home/omen_pc1/photo_score_project/outputs/rgnet_tflite_retry_20260507/scripts/direct_keras_builtin_export.py:121:1: note: called from\n        return model(image, training=False)\n^\n/home/omen_pc1/photo_score_project/.venv_gpu/lib/python3.12/site-packages/keras/src/utils/traceback_utils.py:117:1: note: called from\n            return fn(*args, **kwargs)\n^\n/home/omen_pc1/photo_score_project/.venv_gpu/lib/python3.12/site-packages/keras/src/layers/layer.py:953:1: note: called from\n                    outputs = super().__call__(*args, **kwargs)\n^\n/home/omen_pc1/photo_score_project/.venv_gpu/lib/python3.12/site-packages/tensorflow/python/eager/polymorphic_function/polymorphic_function.py:696:1: note: see current operation: %340 = \"tf.AddV2\"(%339, %327) {device = \"\"} : (tensor<1x32x32x48xf16>, tensor<1x32x32x48xf16>) -> tensor<1x32x32x48xf16>\n    self._concrete_variable_creation_fn = tracing_compilation.trace_function(\n^\n/home/omen_pc1/photo_score_project/.venv_gpu/lib/python3.12/site-packages/tensorflow/python/eager/polymorphic_function/polymorphic_function.py:696:1: note: Error code: ERROR_NEEDS_FLEX_OPS\n/home/omen_pc1/photo_score_project/.venv_gpu/lib/python3.12/site-packages/tensorflow/python/eager/polymorphic_function/polymorphic_function.py:696:1: error: 'tf.Conv2D' op is neither a custom op nor a flex op\n    self._concrete_variable_creation_fn = tracing_compilation.trace_function(\n^\n/home/omen_pc1/photo_score_project/.venv_gpu/lib/python3.12/site-packages/tensorflow/python/eager/polymorphic_function/tracing_compilation.py:178:1: note: called from\n    concrete_function = _maybe_define_function(\n^\n/home/omen_pc1/photo_score_project/.venv_gpu/lib/python3.12/site-packages/tensorflow/python/eager/polymorphic_function/tracing_compilation.py:283:1: note: called from\n        concrete_function = _create_concrete_function(\n^\n/home/omen_pc1/photo_score_project/.venv_gpu/lib/python3.12/site-packages/tensorflow/python/eager/polymorphic_function/tracing_compilation.py:310:1: note: called from\n  traced_func_graph = func_graph_module.func_graph_from_py_func(\n^\n/home/omen_pc1/photo_score_project/.venv_gpu/lib/python3.12/site-packages/tensorflow/python/framework/func_graph.py:1060:1: note: called from\n    func_outputs = python_func(*func_args, **func_kwargs)\n^\n/home/omen_pc1/photo_score_project/.venv_gpu/lib/python3.12/site-packages/tensorflow/python/eager/polymorphic_function/polymorphic_function.py:599:1: note: called from\n          out = weak_wrapped_fn().__wrapped__(*args, **kwds)\n^\n/home/omen_pc1/photo_score_project/.venv_gpu/lib/python3.12/site-packages/tensorflow/python/eager/polymorphic_function/autograph_util.py:41:1: note: called from\n      return api.converted_call(\n^\n/home/omen_pc1/photo_score_project/outputs/rgnet_tflite_retry_20260507/scripts/direct_keras_builtin_export.py:121:1: note: called from\n        return model(image, training=False)\n^\n/home/omen_pc1/photo_score_project/.venv_gpu/lib/python3.12/site-packages/keras/src/utils/traceback_utils.py:117:1: note: called from\n            return fn(*args, **kwargs)\n^\n/home/omen_pc1/photo_score_project/.venv_gpu/lib/python3.12/site-packages/keras/src/layers/layer.py:953:1: note: called from\n                    outputs = super().__call__(*args, **kwargs)\n^\n/home/omen_pc1/photo_score_project/.venv_gpu/lib/python3.12/site-packages/tensorflow/python/eager/polymorphic_function/polymorphic_function.py:696:1: note: see current operation: %341 = \"tf.Conv2D\"(%340, %223) <{data_format = \"NHWC\", dilations = [1, 1, 1, 1], explicit_paddings = [], padding = \"SAME\", strides = [1, 1, 1, 1], use_cudnn_on_gpu = true}> {device = \"\"} : (tensor<1x32x32x48xf16>, tensor<1x1x48x192xf16>) -> tensor<1x32x32x192xf16>\n    self._concrete_variable_creation_fn = tracing_compilation.trace_function(\n^\n/home/omen_pc1/photo_score_project/.venv_gpu/lib/python3.12/site-packages/tensorflow/python/eager/polymorphic_function/polymorphic_function.py:696:1: note: Error code: ERROR_NEEDS_FLEX_OPS\n/home/omen_pc1/photo_score_project/.venv_gpu/lib/python3.12/site-packages/tensorflow/python/eager/polymorphic_function/polymorphic_function.py:696:1: error: 'tf.Sigmoid' op is neither a custom op nor a flex op\n    self._concrete_variable_creation_fn = tracing_compilation.trace_function(\n^\n/home/omen_pc1/photo_score_project/.venv_gpu/lib/python3.12/site-packages/tensorflow/python/eager/polymorphic_function/tracing_compilation.py:178:1: note: called from\n    concrete_function = _maybe_define_function(\n^\n/home/omen_pc1/photo_score_project/.venv_gpu/lib/python3.12/site-packages/tensorflow/python/eager/polymorphic_function/tracing_compilation.py:283:1: note: called from\n        concrete_function = _create_concrete_function(\n^\n/home/omen_pc1/photo_score_project/.venv_gpu/lib/python3.12/site-packages/tensorflow/python/eager/polymorphic_function/tracing_compilation.py:310:1: note: called from\n  traced_func_graph = func_graph_module.func_graph_from_py_func(\n^\n/home/omen_pc1/photo_score_project/.venv_gpu/lib/python3.12/site-packages/tensorflow/python/framework/func_graph.py:1060:1: note: called from\n    func_outputs = python_func(*func_args, **func_kwargs)\n^\n/home/omen_pc1/photo_score_project/.venv_gpu/lib/python3.12/site-packages/tensorflow/python/eager/polymorphic_function/polymorphic_function.py:599:1: note: called from\n          out = weak_wrapped_fn().__wrapped__(*args, **kwds)\n^\n/home/omen_pc1/photo_score_project/.venv_gpu/lib/python3.12/site-packages/tensorflow/python/eager/polymorphic_function/autograph_util.py:41:1: note: called from\n      return api.converted_call(\n^\n/home/omen_pc1/photo_score_project/outputs/rgnet_tflite_retry_20260507/scripts/direct_keras_builtin_export.py:121:1: note: called from\n        return model(image, training=False)\n^\n/home/omen_pc1/photo_score_project/.venv_gpu/lib/python3.12/site-packages/keras/src/utils/traceback_utils.py:117:1: note: called from\n            return fn(*args, **kwargs)\n^\n/home/omen_pc1/photo_score_project/.venv_gpu/lib/python3.12/site-packages/keras/src/layers/layer.py:953:1: note: called from\n                    outputs = super().__call__(*args, **kwargs)\n^\n/home/omen_pc1/photo_score_project/.venv_gpu/lib/python3.12/site-packages/tensorflow/python/eager/polymorphic_function/polymorphic_function.py:696:1: note: see current operation: %346 = \"tf.Sigmoid\"(%345) {device = \"\"} : (tensor<1x32x32x192xf16>) -> tensor<1x32x32x192xf16>\n    self._concrete_variable_creation_fn = tracing_compilation.trace_function(\n^\n/home/omen_pc1/photo_score_project/.venv_gpu/lib/python3.12/site-packages/tensorflow/python/eager/polymorphic_function/polymorphic_function.py:696:1: note: Error code: ERROR_NEEDS_FLEX_OPS\n/home/omen_pc1/photo_score_project/.venv_gpu/lib/python3.12/site-packages/tensorflow/python/eager/polymorphic_function/polymorphic_function.py:696:1: error: 'tf.Mul' op is neither a custom op nor a flex op\n    self._concrete_variable_creation_fn = tracing_compilation.trace_function(\n^\n/home/omen_pc1/photo_score_project/.venv_gpu/lib/python3.12/site-packages/tensorflow/python/eager/polymorphic_function/tracing_compilation.py:178:1: note: called from\n    concrete_function = _maybe_define_function(\n^\n/home/omen_pc1/photo_score_project/.venv_gpu/lib/python3.12/site-packages/tensorflow/python/eager/polymorphic_function/tracing_compilation.py:283:1: note: called from\n        concrete_function = _create_concrete_function(\n^\n/home/omen_pc1/photo_score_project/.venv_gpu/lib/python3.12/site-packages/tensorflow/python/eager/polymorphic_function/tracing_compilation.py:310:1: note: called from\n  traced_func_graph = func_graph_module.func_graph_from_py_func(\n^\n/home/omen_pc1/photo_score_project/.venv_gpu/lib/python3.12/site-packages/tensorflow/python/framework/func_graph.py:1060:1: note: called from\n    func_outputs = python_func(*func_args, **func_kwargs)\n^\n/home/omen_pc1/photo_score_project/.venv_gpu/lib/python3.12/site-packages/tensorflow/python/eager/polymorphic_function/polymorphic_function.py:599:1: note: called from\n          out = weak_wrapped_fn().__wrapped__(*args, **kwds)\n^\n/home/omen_pc1/photo_score_project/.venv_gpu/lib/python3.12/site-packages/tensorflow/python/eager/polymorphic_function/autograph_util.py:41:1: note: called from\n      return api.converted_call(\n^\n/home/omen_pc1/photo_score_project/outputs/rgnet_tflite_retry_20260507/scripts/direct_keras_builtin_export.py:121:1: note: called from\n        return model(image, training=False)\n^\n/home/omen_pc1/photo_score_project/.venv_gpu/lib/python3.12/site-packages/keras/src/utils/traceback_utils.py:117:1: note: called from\n            return fn(*args, **kwargs)\n^\n/home/omen_pc1/photo_score_project/.venv_gpu/lib/python3.12/site-packages/keras/src/layers/layer.py:953:1: note: called from\n                    outputs = super().__call__(*args, **kwargs)\n^\n/home/omen_pc1/photo_score_project/.venv_gpu/lib/python3.12/site-packages/tensorflow/python/eager/polymorphic_function/polymorphic_function.py:696:1: note: see current operation: %347 = \"tf.Mul\"(%345, %346) {device = \"\"} : (tensor<1x32x32x192xf16>, tensor<1x32x32x192xf16>) -> tensor<1x32x32x192xf16>\n    self._concrete_variable_creation_fn = tracing_compilation.trace_function(\n^\n/home/omen_pc1/photo_score_project/.venv_gpu/lib/python3.12/site-packages/tensorflow/python/eager/polymorphic_function/polymorphic_function.py:696:1: note: Error code: ERROR_NEEDS_FLEX_OPS\n/home/omen_pc1/photo_score_project/.venv_gpu/lib/python3.12/site-packages/tensorflow/python/eager/polymorphic_function/polymorphic_function.py:696:1: error: 'tf.DepthwiseConv2dNative' op is neither a custom op nor a flex op\n    self._concrete_variable_creation_fn = tracing_compilation.trace_function(\n^\n/home/omen_pc1/photo_score_project/.venv_gpu/lib/python3.12/site-packages/tensorflow/python/eager/polymorphic_function/tracing_compilation.py:178:1: note: called from\n    concrete_function = _maybe_define_function(\n^\n/home/omen_pc1/photo_score_project/.venv_gpu/lib/python3.12/site-packages/tensorflow/python/eager/polymorphic_function/tracing_compilation.py:283:1: note: called from\n        concrete_function = _create_concrete_function(\n^\n/home/omen_pc1/photo_score_project/.venv_gpu/lib/python3.12/site-packages/tensorflow/python/eager/polymorphic_function/tracing_compilation.py:310:1: note: called from\n  traced_func_graph = func_graph_module.func_graph_from_py_func(\n^\n/home/omen_pc1/photo_score_project/.venv_gpu/lib/python3.12/site-packages/tensorflow/python/framework/func_graph.py:1060:1: note: called from\n    func_outputs = python_func(*func_args, **func_kwargs)\n^\n/home/omen_pc1/photo_score_project/.venv_gpu/lib/python3.12/site-packages/tensorflow/python/eager/polymorphic_function/polymorphic_function.py:599:1: note: called from\n          out = weak_wrapped_fn().__wrapped__(*args, **kwds)\n^\n/home/omen_pc1/photo_score_project/.venv_gpu/lib/python3.12/site-packages/tensorflow/python/eager/polymorphic_function/autograph_util.py:41:1: note: called from\n      return api.converted_call(\n^\n/home/omen_pc1/photo_score_project/outputs/rgnet_tflite_retry_20260507/scripts/direct_keras_builtin_export.py:121:1: note: called from\n        return model(image, training=False)\n^\n/home/omen_pc1/photo_score_project/.venv_gpu/lib/python3.12/site-packages/keras/src/utils/traceback_utils.py:117:1: note: called from\n            return fn(*args, **kwargs)\n^\n/home/omen_pc1/photo_score_project/.venv_gpu/lib/python3.12/site-packages/keras/src/layers/layer.py:953:1: note: called from\n                    outputs = super().__call__(*args, **kwargs)\n^\n/home/omen_pc1/photo_score_project/.venv_gpu/lib/python3.12/site-packages/tensorflow/python/eager/polymorphic_function/polymorphic_function.py:696:1: note: see current operation: %348 = \"tf.DepthwiseConv2dNative\"(%347, %226) <{data_format = \"NHWC\", dilations = [1, 1, 1, 1], explicit_paddings = [], padding = \"SAME\", strides = [1, 2, 2, 1]}> {device = \"\"} : (tensor<1x32x32x192xf16>, tensor<3x3x192x1xf16>) -> tensor<1x16x16x192xf16>\n    self._concrete_variable_creation_fn = tracing_compilation.trace_function(\n^\n/home/omen_pc1/photo_score_project/.venv_gpu/lib/python3.12/site-packages/tensorflow/python/eager/polymorphic_function/polymorphic_function.py:696:1: note: Error code: ERROR_NEEDS_FLEX_OPS\n/home/omen_pc1/photo_score_project/.venv_gpu/lib/python3.12/site-packages/tensorflow/python/eager/polymorphic_function/polymorphic_function.py:696:1: error: 'tf.Sigmoid' op is neither a custom op nor a flex op\n    self._concrete_variable_creation_fn = tracing_compilation.trace_function(\n^\n/home/omen_pc1/photo_score_project/.venv_gpu/lib/python3.12/site-packages/tensorflow/python/eager/polymorphic_function/tracing_compilation.py:178:1: note: called from\n    concrete_function = _maybe_define_function(\n^\n/home/omen_pc1/photo_score_project/.venv_gpu/lib/python3.12/site-packages/tensorflow/python/eager/polymorphic_function/tracing_compilation.py:283:1: note: called from\n        concrete_function = _create_concrete_function(\n^\n/home/omen_pc1/photo_score_project/.venv_gpu/lib/python3.12/site-packages/tensorflow/python/eager/polymorphic_function/tracing_compilation.py:310:1: note: called from\n  traced_func_graph = func_graph_module.func_graph_from_py_func(\n^\n/home/omen_pc1/photo_score_project/.venv_gpu/lib/python3.12/site-packages/tensorflow/python/framework/func_graph.py:1060:1: note: called from\n    func_outputs = python_func(*func_args, **func_kwargs)\n^\n/home/omen_pc1/photo_score_project/.venv_gpu/lib/python3.12/site-packages/tensorflow/python/eager/polymorphic_function/polymorphic_function.py:599:1: note: called from\n          out = weak_wrapped_fn().__wrapped__(*args, **kwds)\n^\n/home/omen_pc1/photo_score_project/.venv_gpu/lib/python3.12/site-packages/tensorflow/python/eager/polymorphic_function/autograph_util.py:41:1: note: called from\n      return api.converted_call(\n^\n/home/omen_pc1/photo_score_project/outputs/rgnet_tflite_retry_20260507/scripts/direct_keras_builtin_export.py:121:1: note: called from\n        return model(image, training=False)\n^\n/home/omen_pc1/photo_score_project/.venv_gpu/lib/python3.12/site-packages/keras/src/utils/traceback_utils.py:117:1: note: called from\n            return fn(*args, **kwargs)\n^\n/home/omen_pc1/photo_score_project/.venv_gpu/lib/python3.12/site-packages/keras/src/layers/layer.py:953:1: note: called from\n                    outputs = super().__call__(*args, **kwargs)\n^\n/home/omen_pc1/photo_score_project/.venv_gpu/lib/python3.12/site-packages/tensorflow/python/eager/polymorphic_function/polymorphic_function.py:696:1: note: see current operation: %353 = \"tf.Sigmoid\"(%352) {device = \"\"} : (tensor<1x16x16x192xf16>) -> tensor<1x16x16x192xf16>\n    self._concrete_variable_creation_fn = tracing_compilation.trace_function(\n^\n/home/omen_pc1/photo_score_project/.venv_gpu/lib/python3.12/site-packages/tensorflow/python/eager/polymorphic_function/polymorphic_function.py:696:1: note: Error code: ERROR_NEEDS_FLEX_OPS\n/home/omen_pc1/photo_score_project/.venv_gpu/lib/python3.12/site-packages/tensorflow/python/eager/polymorphic_function/polymorphic_function.py:696:1: error: 'tf.Mul' op is neither a custom op nor a flex op\n    self._concrete_variable_creation_fn = tracing_compilation.trace_function(\n^\n/home/omen_pc1/photo_score_project/.venv_gpu/lib/python3.12/site-packages/tensorflow/python/eager/polymorphic_function/tracing_compilation.py:178:1: note: called from\n    concrete_function = _maybe_define_function(\n^\n/home/omen_pc1/photo_score_project/.venv_gpu/lib/python3.12/site-packages/tensorflow/python/eager/polymorphic_function/tracing_compilation.py:283:1: note: called from\n        concrete_function = _create_concrete_function(\n^\n/home/omen_pc1/photo_score_project/.venv_gpu/lib/python3.12/site-packages/tensorflow/python/eager/polymorphic_function/tracing_compilation.py:310:1: note: called from\n  traced_func_graph = func_graph_module.func_graph_from_py_func(\n^\n/home/omen_pc1/photo_score_project/.venv_gpu/lib/python3.12/site-packages/tensorflow/python/framework/func_graph.py:1060:1: note: called from\n    func_outputs = python_func(*func_args, **func_kwargs)\n^\n/home/omen_pc1/photo_score_project/.venv_gpu/lib/python3.12/site-packages/tensorflow/python/eager/polymorphic_function/polymorphic_function.py:599:1: note: called from\n          out = weak_wrapped_fn().__wrapped__(*args, **kwds)\n^\n/home/omen_pc1/photo_score_project/.venv_gpu/lib/python3.12/site-packages/tensorflow/python/eager/polymorphic_function/autograph_util.py:41:1: note: called from\n      return api.converted_call(\n^\n/home/omen_pc1/photo_score_project/outputs/rgnet_tflite_retry_20260507/scripts/direct_keras_builtin_export.py:121:1: note: called from\n        return model(image, training=False)\n^\n/home/omen_pc1/photo_score_project/.venv_gpu/lib/python3.12/site-packages/keras/src/utils/traceback_utils.py:117:1: note: called from\n            return fn(*args, **kwargs)\n^\n/home/omen_pc1/photo_score_project/.venv_gpu/lib/python3.12/site-packages/keras/src/layers/layer.py:953:1: note: called from\n                    outputs = super().__call__(*args, **kwargs)\n^\n/home/omen_pc1/photo_score_project/.venv_gpu/lib/python3.12/site-packages/tensorflow/python/eager/polymorphic_function/polymorphic_function.py:696:1: note: see current operation: %354 = \"tf.Mul\"(%352, %353) {device = \"\"} : (tensor<1x16x16x192xf16>, tensor<1x16x16x192xf16>) -> tensor<1x16x16x192xf16>\n    self._concrete_variable_creation_fn = tracing_compilation.trace_function(\n^\n/home/omen_pc1/photo_score_project/.venv_gpu/lib/python3.12/site-packages/tensorflow/python/eager/polymorphic_function/polymorphic_function.py:696:1: note: Error code: ERROR_NEEDS_FLEX_OPS\n/home/omen_pc1/photo_score_project/.venv_gpu/lib/python3.12/site-packages/tensorflow/python/eager/polymorphic_function/polymorphic_function.py:696:1: error: 'tf.Conv2D' op is neither a custom op nor a flex op\n    self._concrete_variable_creation_fn = tracing_compilation.trace_function(\n^\n/home/omen_pc1/photo_score_project/.venv_gpu/lib/python3.12/site-packages/tensorflow/python/eager/polymorphic_function/tracing_compilation.py:178:1: note: called from\n    concrete_function = _maybe_define_function(\n^\n/home/omen_pc1/photo_score_project/.venv_gpu/lib/python3.12/site-packages/tensorflow/python/eager/polymorphic_function/tracing_compilation.py:283:1: note: called from\n        concrete_function = _create_concrete_function(\n^\n/home/omen_pc1/photo_score_project/.venv_gpu/lib/python3.12/site-packages/tensorflow/python/eager/polymorphic_function/tracing_compilation.py:310:1: note: called from\n  traced_func_graph = func_graph_module.func_graph_from_py_func(\n^\n/home/omen_pc1/photo_score_project/.venv_gpu/lib/python3.12/site-packages/tensorflow/python/framework/func_graph.py:1060:1: note: called from\n    func_outputs = python_func(*func_args, **func_kwargs)\n^\n/home/omen_pc1/photo_score_project/.venv_gpu/lib/python3.12/site-packages/tensorflow/python/eager/polymorphic_function/polymorphic_function.py:599:1: note: called from\n          out = weak_wrapped_fn().__wrapped__(*args, **kwds)\n^\n/home/omen_pc1/photo_score_project/.venv_gpu/lib/python3.12/site-packages/tensorflow/python/eager/polymorphic_function/autograph_util.py:41:1: note: called from\n      return api.converted_call(\n^\n/home/omen_pc1/photo_score_project/outputs/rgnet_tflite_retry_20260507/scripts/direct_keras_builtin_export.py:121:1: note: called from\n        return model(image, training=False)\n^\n/home/omen_pc1/photo_score_project/.venv_gpu/lib/python3.12/site-packages/keras/src/utils/traceback_utils.py:117:1: note: called from\n            return fn(*args, **kwargs)\n^\n/home/omen_pc1/photo_score_project/.venv_gpu/lib/python3.12/site-packages/keras/src/layers/layer.py:953:1: note: called from\n                    outputs = super().__call__(*args, **kwargs)\n^\n/home/omen_pc1/photo_score_project/.venv_gpu/lib/python3.12/site-packages/tensorflow/python/eager/polymorphic_function/polymorphic_function.py:696:1: note: see current operation: %359 = \"tf.Conv2D\"(%358, %216) <{data_format = \"NHWC\", dilations = [1, 1, 1, 1], explicit_paddings = [], padding = \"SAME\", strides = [1, 1, 1, 1], use_cudnn_on_gpu = true}> {device = \"\"} : (tensor<1x1x1x192xf16>, tensor<1x1x192x12xf16>) -> tensor<1x1x1x12xf16>\n    self._concrete_variable_creation_fn = tracing_compilation.trace_function(\n^\n/home/omen_pc1/photo_score_project/.venv_gpu/lib/python3.12/site-packages/tensorflow/python/eager/polymorphic_function/polymorphic_function.py:696:1: note: Error code: ERROR_NEEDS_FLEX_OPS\n/home/omen_pc1/photo_score_project/.venv_gpu/lib/python3.12/site-packages/tensorflow/python/eager/polymorphic_function/polymorphic_function.py:696:1: error: 'tf.BiasAdd' op is neither a custom op nor a flex op\n    self._concrete_variable_creation_fn = tracing_compilation.trace_function(\n^\n/home/omen_pc1/photo_score_project/.venv_gpu/lib/python3.12/site-packages/tensorflow/python/eager/polymorphic_function/tracing_compilation.py:178:1: note: called from\n    concrete_function = _maybe_define_function(\n^\n/home/omen_pc1/photo_score_project/.venv_gpu/lib/python3.12/site-packages/tensorflow/python/eager/polymorphic_function/tracing_compilation.py:283:1: note: called from\n        concrete_function = _create_concrete_function(\n^\n/home/omen_pc1/photo_score_project/.venv_gpu/lib/python3.12/site-packages/tensorflow/python/eager/polymorphic_function/tracing_compilation.py:310:1: note: called from\n  traced_func_graph = func_graph_module.func_graph_from_py_func(\n^\n/home/omen_pc1/photo_score_project/.venv_gpu/lib/python3.12/site-packages/tensorflow/python/framework/func_graph.py:1060:1: note: called from\n    func_outputs = python_func(*func_args, **func_kwargs)\n^\n/home/omen_pc1/photo_score_project/.venv_gpu/lib/python3.12/site-packages/tensorflow/python/eager/polymorphic_function/polymorphic_function.py:599:1: note: called from\n          out = weak_wrapped_fn().__wrapped__(*args, **kwds)\n^\n/home/omen_pc1/photo_score_project/.venv_gpu/lib/python3.12/site-packages/tensorflow/python/eager/polymorphic_function/autograph_util.py:41:1: note: called from\n      return api.converted_call(\n^\n/home/omen_pc1/photo_score_project/outputs/rgnet_tflite_retry_20260507/scripts/direct_keras_builtin_export.py:121:1: note: called from\n        return model(image, training=False)\n^\n/home/omen_pc1/photo_score_project/.venv_gpu/lib/python3.12/site-packages/keras/src/utils/traceback_utils.py:117:1: note: called from\n            return fn(*args, **kwargs)\n^\n/home/omen_pc1/photo_score_project/.venv_gpu/lib/python3.12/site-packages/keras/src/layers/layer.py:953:1: note: called from\n                    outputs = super().__call__(*args, **kwargs)\n^\n/home/omen_pc1/photo_score_project/.venv_gpu/lib/python3.12/site-packages/tensorflow/python/eager/polymorphic_function/polymorphic_function.py:696:1: note: see current operation: %360 = \"tf.BiasAdd\"(%359, %217) <{data_format = \"NHWC\"}> {device = \"\"} : (tensor<1x1x1x12xf16>, tensor<12xf16>) -> tensor<1x1x1x12xf16>\n    self._concrete_variable_creation_fn = tracing_compilation.trace_function(\n^\n/home/omen_pc1/photo_score_project/.venv_gpu/lib/python3.12/site-packages/tensorflow/python/eager/polymorphic_function/polymorphic_function.py:696:1: note: Error code: ERROR_NEEDS_FLEX_OPS\n/home/omen_pc1/photo_score_project/.venv_gpu/lib/python3.12/site-packages/tensorflow/python/eager/polymorphic_function/polymorphic_function.py:696:1: error: 'tf.Sigmoid' op is neither a custom op nor a flex op\n    self._concrete_variable_creation_fn = tracing_compilation.trace_function(\n^\n/home/omen_pc1/photo_score_project/.venv_gpu/lib/python3.12/site-packages/tensorflow/python/eager/polymorphic_function/tracing_compilation.py:178:1: note: called from\n    concrete_function = _maybe_define_function(\n^\n/home/omen_pc1/photo_score_project/.venv_gpu/lib/python3.12/site-packages/tensorflow/python/eager/polymorphic_function/tracing_compilation.py:283:1: note: called from\n        concrete_function = _create_concrete_function(\n^\n/home/omen_pc1/photo_score_project/.venv_gpu/lib/python3.12/site-packages/tensorflow/python/eager/polymorphic_function/tracing_compilation.py:310:1: note: called from\n  traced_func_graph = func_graph_module.func_graph_from_py_func(\n^\n/home/omen_pc1/photo_score_project/.venv_gpu/lib/python3.12/site-packages/tensorflow/python/framework/func_graph.py:1060:1: note: called from\n    func_outputs = python_func(*func_args, **func_kwargs)\n^\n/home/omen_pc1/photo_score_project/.venv_gpu/lib/python3.12/site-packages/tensorflow/python/eager/polymorphic_function/polymorphic_function.py:599:1: note: called from\n          out = weak_wrapped_fn().__wrapped__(*args, **kwds)\n^\n/home/omen_pc1/photo_score_project/.venv_gpu/lib/python3.12/site-packages/tensorflow/python/eager/polymorphic_function/autograph_util.py:41:1: note: called from\n      return api.converted_call(\n^\n/home/omen_pc1/photo_score_project/outputs/rgnet_tflite_retry_20260507/scripts/direct_keras_builtin_export.py:121:1: note: called from\n        return model(image, training=False)\n^\n/home/omen_pc1/photo_score_project/.venv_gpu/lib/python3.12/site-packages/keras/src/utils/traceback_utils.py:117:1: note: called from\n            return fn(*args, **kwargs)\n^\n/home/omen_pc1/photo_score_project/.venv_gpu/lib/python3.12/site-packages/keras/src/layers/layer.py:953:1: note: called from\n                    outputs = super().__call__(*args, **kwargs)\n^\n/home/omen_pc1/photo_score_project/.venv_gpu/lib/python3.12/site-packages/tensorflow/python/eager/polymorphic_function/polymorphic_function.py:696:1: note: see current operation: %361 = \"tf.Sigmoid\"(%360) {device = \"\"} : (tensor<1x1x1x12xf16>) -> tensor<1x1x1x12xf16>\n    self._concrete_variable_creation_fn = tracing_compilation.trace_function(\n^\n/home/omen_pc1/photo_score_project/.venv_gpu/lib/python3.12/site-packages/tensorflow/python/eager/polymorphic_function/polymorphic_function.py:696:1: note: Error code: ERROR_NEEDS_FLEX_OPS\n/home/omen_pc1/photo_score_project/.venv_gpu/lib/python3.12/site-packages/tensorflow/python/eager/polymorphic_function/polymorphic_function.py:696:1: error: 'tf.Mul' op is neither a custom op nor a flex op\n    self._concrete_variable_creation_fn = tracing_compilation.trace_function(\n^\n/home/omen_pc1/photo_score_project/.venv_gpu/lib/python3.12/site-packages/tensorflow/python/eager/polymorphic_function/tracing_compilation.py:178:1: note: called from\n    concrete_function = _maybe_define_function(\n^\n/home/omen_pc1/photo_score_project/.venv_gpu/lib/python3.12/site-packages/tensorflow/python/eager/polymorphic_function/tracing_compilation.py:283:1: note: called from\n        concrete_function = _create_concrete_function(\n^\n/home/omen_pc1/photo_score_project/.venv_gpu/lib/python3.12/site-packages/tensorflow/python/eager/polymorphic_function/tracing_compilation.py:310:1: note: called from\n  traced_func_graph = func_graph_module.func_graph_from_py_func(\n^\n/home/omen_pc1/photo_score_project/.venv_gpu/lib/python3.12/site-packages/tensorflow/python/framework/func_graph.py:1060:1: note: called from\n    func_outputs = python_func(*func_args, **func_kwargs)\n^\n/home/omen_pc1/photo_score_project/.venv_gpu/lib/python3.12/site-packages/tensorflow/python/eager/polymorphic_function/polymorphic_function.py:599:1: note: called from\n          out = weak_wrapped_fn().__wrapped__(*args, **kwds)\n^\n/home/omen_pc1/photo_score_project/.venv_gpu/lib/python3.12/site-packages/tensorflow/python/eager/polymorphic_function/autograph_util.py:41:1: note: called from\n      return api.converted_call(\n^\n/home/omen_pc1/photo_score_project/outputs/rgnet_tflite_retry_20260507/scripts/direct_keras_builtin_export.py:121:1: note: called from\n        return model(image, training=False)\n^\n/home/omen_pc1/photo_score_project/.venv_gpu/lib/python3.12/site-packages/keras/src/utils/traceback_utils.py:117:1: note: called from\n            return fn(*args, **kwargs)\n^\n/home/omen_pc1/photo_score_project/.venv_gpu/lib/python3.12/site-packages/keras/src/layers/layer.py:953:1: note: called from\n                    outputs = super().__call__(*args, **kwargs)\n^\n/home/omen_pc1/photo_score_project/.venv_gpu/lib/python3.12/site-packages/tensorflow/python/eager/polymorphic_function/polymorphic_function.py:696:1: note: see current operation: %362 = \"tf.Mul\"(%360, %361) {device = \"\"} : (tensor<1x1x1x12xf16>, tensor<1x1x1x12xf16>) -> tensor<1x1x1x12xf16>\n    self._concrete_variable_creation_fn = tracing_compilation.trace_function(\n^\n/home/omen_pc1/photo_score_project/.venv_gpu/lib/python3.12/site-packages/tensorflow/python/eager/polymorphic_function/polymorphic_function.py:696:1: note: Error code: ERROR_NEEDS_FLEX_OPS\n/home/omen_pc1/photo_score_project/.venv_gpu/lib/python3.12/site-packages/tensorflow/python/eager/polymorphic_function/polymorphic_function.py:696:1: error: 'tf.Conv2D' op is neither a custom op nor a flex op\n    self._concrete_variable_creation_fn = tracing_compilation.trace_function(\n^\n/home/omen_pc1/photo_score_project/.venv_gpu/lib/python3.12/site-packages/tensorflow/python/eager/polymorphic_function/tracing_compilation.py:178:1: note: called from\n    concrete_function = _maybe_define_function(\n^\n/home/omen_pc1/photo_score_project/.venv_gpu/lib/python3.12/site-packages/tensorflow/python/eager/polymorphic_function/tracing_compilation.py:283:1: note: called from\n        concrete_function = _create_concrete_function(\n^\n/home/omen_pc1/photo_score_project/.venv_gpu/lib/python3.12/site-packages/tensorflow/python/eager/polymorphic_function/tracing_compilation.py:310:1: note: called from\n  traced_func_graph = func_graph_module.func_graph_from_py_func(\n^\n/home/omen_pc1/photo_score_project/.venv_gpu/lib/python3.12/site-packages/tensorflow/python/framework/func_graph.py:1060:1: note: called from\n    func_outputs = python_func(*func_args, **func_kwargs)\n^\n/home/omen_pc1/photo_score_project/.venv_gpu/lib/python3.12/site-packages/tensorflow/python/eager/polymorphic_function/polymorphic_function.py:599:1: note: called from\n          out = weak_wrapped_fn().__wrapped__(*args, **kwds)\n^\n/home/omen_pc1/photo_score_project/.venv_gpu/lib/python3.12/site-packages/tensorflow/python/eager/polymorphic_function/autograph_util.py:41:1: note: called from\n      return api.converted_call(\n^\n/home/omen_pc1/photo_score_project/outputs/rgnet_tflite_retry_20260507/scripts/direct_keras_builtin_export.py:121:1: note: called from\n        return model(image, training=False)\n^\n/home/omen_pc1/photo_score_project/.venv_gpu/lib/python3.12/site-packages/keras/src/utils/traceback_utils.py:117:1: note: called from\n            return fn(*args, **kwargs)\n^\n/home/omen_pc1/photo_score_project/.venv_gpu/lib/python3.12/site-packages/keras/src/layers/layer.py:953:1: note: called from\n                    outputs = super().__call__(*args, **kwargs)\n^\n/home/omen_pc1/photo_score_project/.venv_gpu/lib/python3.12/site-packages/tensorflow/python/eager/polymorphic_function/polymorphic_function.py:696:1: note: see current operation: %363 = \"tf.Conv2D\"(%362, %218) <{data_format = \"NHWC\", dilations = [1, 1, 1, 1], explicit_paddings = [], padding = \"SAME\", strides = [1, 1, 1, 1], use_cudnn_on_gpu = true}> {device = \"\"} : (tensor<1x1x1x12xf16>, tensor<1x1x12x192xf16>) -> tensor<1x1x1x192xf16>\n    self._concrete_variable_creation_fn = tracing_compilation.trace_function(\n^\n/home/omen_pc1/photo_score_project/.venv_gpu/lib/python3.12/site-packages/tensorflow/python/eager/polymorphic_function/polymorphic_function.py:696:1: note: Error code: ERROR_NEEDS_FLEX_OPS\n/home/omen_pc1/photo_score_project/.venv_gpu/lib/python3.12/site-packages/tensorflow/python/eager/polymorphic_function/polymorphic_function.py:696:1: error: 'tf.BiasAdd' op is neither a custom op nor a flex op\n    self._concrete_variable_creation_fn = tracing_compilation.trace_function(\n^\n/home/omen_pc1/photo_score_project/.venv_gpu/lib/python3.12/site-packages/tensorflow/python/eager/polymorphic_function/tracing_compilation.py:178:1: note: called from\n    concrete_function = _maybe_define_function(\n^\n/home/omen_pc1/photo_score_project/.venv_gpu/lib/python3.12/site-packages/tensorflow/python/eager/polymorphic_function/tracing_compilation.py:283:1: note: called from\n        concrete_function = _create_concrete_function(\n^\n/home/omen_pc1/photo_score_project/.venv_gpu/lib/python3.12/site-packages/tensorflow/python/eager/polymorphic_function/tracing_compilation.py:310:1: note: called from\n  traced_func_graph = func_graph_module.func_graph_from_py_func(\n^\n/home/omen_pc1/photo_score_project/.venv_gpu/lib/python3.12/site-packages/tensorflow/python/framework/func_graph.py:1060:1: note: called from\n    func_outputs = python_func(*func_args, **func_kwargs)\n^\n/home/omen_pc1/photo_score_project/.venv_gpu/lib/python3.12/site-packages/tensorflow/python/eager/polymorphic_function/polymorphic_function.py:599:1: note: called from\n          out = weak_wrapped_fn().__wrapped__(*args, **kwds)\n^\n/home/omen_pc1/photo_score_project/.venv_gpu/lib/python3.12/site-packages/tensorflow/python/eager/polymorphic_function/autograph_util.py:41:1: note: called from\n      return api.converted_call(\n^\n/home/omen_pc1/photo_score_project/outputs/rgnet_tflite_retry_20260507/scripts/direct_keras_builtin_export.py:121:1: note: called from\n        return model(image, training=False)\n^\n/home/omen_pc1/photo_score_project/.venv_gpu/lib/python3.12/site-packages/keras/src/utils/traceback_utils.py:117:1: note: called from\n            return fn(*args, **kwargs)\n^\n/home/omen_pc1/photo_score_project/.venv_gpu/lib/python3.12/site-packages/keras/src/layers/layer.py:953:1: note: called from\n                    outputs = super().__call__(*args, **kwargs)\n^\n/home/omen_pc1/photo_score_project/.venv_gpu/lib/python3.12/site-packages/tensorflow/python/eager/polymorphic_function/polymorphic_function.py:696:1: note: see current operation: %364 = \"tf.BiasAdd\"(%363, %219) <{data_format = \"NHWC\"}> {device = \"\"} : (tensor<1x1x1x192xf16>, tensor<192xf16>) -> tensor<1x1x1x192xf16>\n    self._concrete_variable_creation_fn = tracing_compilation.trace_function(\n^\n/home/omen_pc1/photo_score_project/.venv_gpu/lib/python3.12/site-packages/tensorflow/python/eager/polymorphic_function/polymorphic_function.py:696:1: note: Error code: ERROR_NEEDS_FLEX_OPS\n/home/omen_pc1/photo_score_project/.venv_gpu/lib/python3.12/site-packages/tensorflow/python/eager/polymorphic_function/polymorphic_function.py:696:1: error: 'tf.Sigmoid' op is neither a custom op nor a flex op\n    self._concrete_variable_creation_fn = tracing_compilation.trace_function(\n^\n/home/omen_pc1/photo_score_project/.venv_gpu/lib/python3.12/site-packages/tensorflow/python/eager/polymorphic_function/tracing_compilation.py:178:1: note: called from\n    concrete_function = _maybe_define_function(\n^\n/home/omen_pc1/photo_score_project/.venv_gpu/lib/python3.12/site-packages/tensorflow/python/eager/polymorphic_function/tracing_compilation.py:283:1: note: called from\n        concrete_function = _create_concrete_function(\n^\n/home/omen_pc1/photo_score_project/.venv_gpu/lib/python3.12/site-packages/tensorflow/python/eager/polymorphic_function/tracing_compilation.py:310:1: note: called from\n  traced_func_graph = func_graph_module.func_graph_from_py_func(\n^\n/home/omen_pc1/photo_score_project/.venv_gpu/lib/python3.12/site-packages/tensorflow/python/framework/func_graph.py:1060:1: note: called from\n    func_outputs = python_func(*func_args, **func_kwargs)\n^\n/home/omen_pc1/photo_score_project/.venv_gpu/lib/python3.12/site-packages/tensorflow/python/eager/polymorphic_function/polymorphic_function.py:599:1: note: called from\n          out = weak_wrapped_fn().__wrapped__(*args, **kwds)\n^\n/home/omen_pc1/photo_score_project/.venv_gpu/lib/python3.12/site-packages/tensorflow/python/eager/polymorphic_function/autograph_util.py:41:1: note: called from\n      return api.converted_call(\n^\n/home/omen_pc1/photo_score_project/outputs/rgnet_tflite_retry_20260507/scripts/direct_keras_builtin_export.py:121:1: note: called from\n        return model(image, training=False)\n^\n/home/omen_pc1/photo_score_project/.venv_gpu/lib/python3.12/site-packages/keras/src/utils/traceback_utils.py:117:1: note: called from\n            return fn(*args, **kwargs)\n^\n/home/omen_pc1/photo_score_project/.venv_gpu/lib/python3.12/site-packages/keras/src/layers/layer.py:953:1: note: called from\n                    outputs = super().__call__(*args, **kwargs)\n^\n/home/omen_pc1/photo_score_project/.venv_gpu/lib/python3.12/site-packages/tensorflow/python/eager/polymorphic_function/polymorphic_function.py:696:1: note: see current operation: %365 = \"tf.Sigmoid\"(%364) {device = \"\"} : (tensor<1x1x1x192xf16>) -> tensor<1x1x1x192xf16>\n    self._concrete_variable_creation_fn = tracing_compilation.trace_function(\n^\n/home/omen_pc1/photo_score_project/.venv_gpu/lib/python3.12/site-packages/tensorflow/python/eager/polymorphic_function/polymorphic_function.py:696:1: note: Error code: ERROR_NEEDS_FLEX_OPS\n/home/omen_pc1/photo_score_project/.venv_gpu/lib/python3.12/site-packages/tensorflow/python/eager/polymorphic_function/polymorphic_function.py:696:1: error: 'tf.Mul' op is neither a custom op nor a flex op\n    self._concrete_variable_creation_fn = tracing_compilation.trace_function(\n^\n/home/omen_pc1/photo_score_project/.venv_gpu/lib/python3.12/site-packages/tensorflow/python/eager/polymorphic_function/tracing_compilation.py:178:1: note: called from\n    concrete_function = _maybe_define_function(\n^\n/home/omen_pc1/photo_score_project/.venv_gpu/lib/python3.12/site-packages/tensorflow/python/eager/polymorphic_function/tracing_compilation.py:283:1: note: called from\n        concrete_function = _create_concrete_function(\n^\n/home/omen_pc1/photo_score_project/.venv_gpu/lib/python3.12/site-packages/tensorflow/python/eager/polymorphic_function/tracing_compilation.py:310:1: note: called from\n  traced_func_graph = func_graph_module.func_graph_from_py_func(\n^\n/home/omen_pc1/photo_score_project/.venv_gpu/lib/python3.12/site-packages/tensorflow/python/framework/func_graph.py:1060:1: note: called from\n    func_outputs = python_func(*func_args, **func_kwargs)\n^\n/home/omen_pc1/photo_score_project/.venv_gpu/lib/python3.12/site-packages/tensorflow/python/eager/polymorphic_function/polymorphic_function.py:599:1: note: called from\n          out = weak_wrapped_fn().__wrapped__(*args, **kwds)\n^\n/home/omen_pc1/photo_score_project/.venv_gpu/lib/python3.12/site-packages/tensorflow/python/eager/polymorphic_function/autograph_util.py:41:1: note: called from\n      return api.converted_call(\n^\n/home/omen_pc1/photo_score_project/outputs/rgnet_tflite_retry_20260507/scripts/direct_keras_builtin_export.py:121:1: note: called from\n        return model(image, training=False)\n^\n/home/omen_pc1/photo_score_project/.venv_gpu/lib/python3.12/site-packages/keras/src/utils/traceback_utils.py:117:1: note: called from\n            return fn(*args, **kwargs)\n^\n/home/omen_pc1/photo_score_project/.venv_gpu/lib/python3.12/site-packages/keras/src/layers/layer.py:953:1: note: called from\n                    outputs = super().__call__(*args, **kwargs)\n^\n/home/omen_pc1/photo_score_project/.venv_gpu/lib/python3.12/site-packages/tensorflow/python/eager/polymorphic_function/polymorphic_function.py:696:1: note: see current operation: %366 = \"tf.Mul\"(%354, %365) {device = \"\"} : (tensor<1x16x16x192xf16>, tensor<1x1x1x192xf16>) -> tensor<1x16x16x192xf16>\n    self._concrete_variable_creation_fn = tracing_compilation.trace_function(\n^\n/home/omen_pc1/photo_score_project/.venv_gpu/lib/python3.12/site-packages/tensorflow/python/eager/polymorphic_function/polymorphic_function.py:696:1: note: Error code: ERROR_NEEDS_FLEX_OPS\n/home/omen_pc1/photo_score_project/.venv_gpu/lib/python3.12/site-packages/tensorflow/python/eager/polymorphic_function/polymorphic_function.py:696:1: error: 'tf.Conv2D' op is neither a custom op nor a flex op\n    self._concrete_variable_creation_fn = tracing_compilation.trace_function(\n^\n/home/omen_pc1/photo_score_project/.venv_gpu/lib/python3.12/site-packages/tensorflow/python/eager/polymorphic_function/tracing_compilation.py:178:1: note: called from\n    concrete_function = _maybe_define_function(\n^\n/home/omen_pc1/photo_score_project/.venv_gpu/lib/python3.12/site-packages/tensorflow/python/eager/polymorphic_function/tracing_compilation.py:283:1: note: called from\n        concrete_function = _create_concrete_function(\n^\n/home/omen_pc1/photo_score_project/.venv_gpu/lib/python3.12/site-packages/tensorflow/python/eager/polymorphic_function/tracing_compilation.py:310:1: note: called from\n  traced_func_graph = func_graph_module.func_graph_from_py_func(\n^\n/home/omen_pc1/photo_score_project/.venv_gpu/lib/python3.12/site-packages/tensorflow/python/framework/func_graph.py:1060:1: note: called from\n    func_outputs = python_func(*func_args, **func_kwargs)\n^\n/home/omen_pc1/photo_score_project/.venv_gpu/lib/python3.12/site-packages/tensorflow/python/eager/polymorphic_function/polymorphic_function.py:599:1: note: called from\n          out = weak_wrapped_fn().__wrapped__(*args, **kwds)\n^\n/home/omen_pc1/photo_score_project/.venv_gpu/lib/python3.12/site-packages/tensorflow/python/eager/polymorphic_function/autograph_util.py:41:1: note: called from\n      return api.converted_call(\n^\n/home/omen_pc1/photo_score_project/outputs/rgnet_tflite_retry_20260507/scripts/direct_keras_builtin_export.py:121:1: note: called from\n        return model(image, training=False)\n^\n/home/omen_pc1/photo_score_project/.venv_gpu/lib/python3.12/site-packages/keras/src/utils/traceback_utils.py:117:1: note: called from\n            return fn(*args, **kwargs)\n^\n/home/omen_pc1/photo_score_project/.venv_gpu/lib/python3.12/site-packages/keras/src/layers/layer.py:953:1: note: called from\n                    outputs = super().__call__(*args, **kwargs)\n^\n/home/omen_pc1/photo_score_project/.venv_gpu/lib/python3.12/site-packages/tensorflow/python/eager/polymorphic_function/polymorphic_function.py:696:1: note: see current operation: %367 = \"tf.Conv2D\"(%366, %220) <{data_format = \"NHWC\", dilations = [1, 1, 1, 1], explicit_paddings = [], padding = \"SAME\", strides = [1, 1, 1, 1], use_cudnn_on_gpu = true}> {device = \"\"} : (tensor<1x16x16x192xf16>, tensor<1x1x192x96xf16>) -> tensor<1x16x16x96xf16>\n    self._concrete_variable_creation_fn = tracing_compilation.trace_function(\n^\n/home/omen_pc1/photo_score_project/.venv_gpu/lib/python3.12/site-packages/tensorflow/python/eager/polymorphic_function/polymorphic_function.py:696:1: note: Error code: ERROR_NEEDS_FLEX_OPS\n/home/omen_pc1/photo_score_project/.venv_gpu/lib/python3.12/site-packages/tensorflow/python/eager/polymorphic_function/polymorphic_function.py:696:1: error: 'tf.Conv2D' op is neither a custom op nor a flex op\n    self._concrete_variable_creation_fn = tracing_compilation.trace_function(\n^\n/home/omen_pc1/photo_score_project/.venv_gpu/lib/python3.12/site-packages/tensorflow/python/eager/polymorphic_function/tracing_compilation.py:178:1: note: called from\n    concrete_function = _maybe_define_function(\n^\n/home/omen_pc1/photo_score_project/.venv_gpu/lib/python3.12/site-packages/tensorflow/python/eager/polymorphic_function/tracing_compilation.py:283:1: note: called from\n        concrete_function = _create_concrete_function(\n^\n/home/omen_pc1/photo_score_project/.venv_gpu/lib/python3.12/site-packages/tensorflow/python/eager/polymorphic_function/tracing_compilation.py:310:1: note: called from\n  traced_func_graph = func_graph_module.func_graph_from_py_func(\n^\n/home/omen_pc1/photo_score_project/.venv_gpu/lib/python3.12/site-packages/tensorflow/python/framework/func_graph.py:1060:1: note: called from\n    func_outputs = python_func(*func_args, **func_kwargs)\n^\n/home/omen_pc1/photo_score_project/.venv_gpu/lib/python3.12/site-packages/tensorflow/python/eager/polymorphic_function/polymorphic_function.py:599:1: note: called from\n          out = weak_wrapped_fn().__wrapped__(*args, **kwds)\n^\n/home/omen_pc1/photo_score_project/.venv_gpu/lib/python3.12/site-packages/tensorflow/python/eager/polymorphic_function/autograph_util.py:41:1: note: called from\n      return api.converted_call(\n^\n/home/omen_pc1/photo_score_project/outputs/rgnet_tflite_retry_20260507/scripts/direct_keras_builtin_export.py:121:1: note: called from\n        return model(image, training=False)\n^\n/home/omen_pc1/photo_score_project/.venv_gpu/lib/python3.12/site-packages/keras/src/utils/traceback_utils.py:117:1: note: called from\n            return fn(*args, **kwargs)\n^\n/home/omen_pc1/photo_score_project/.venv_gpu/lib/python3.12/site-packages/keras/src/layers/layer.py:953:1: note: called from\n                    outputs = super().__call__(*args, **kwargs)\n^\n/home/omen_pc1/photo_score_project/.venv_gpu/lib/python3.12/site-packages/tensorflow/python/eager/polymorphic_function/polymorphic_function.py:696:1: note: see current operation: %372 = \"tf.Conv2D\"(%371, %210) <{data_format = \"NHWC\", dilations = [1, 1, 1, 1], explicit_paddings = [], padding = \"SAME\", strides = [1, 1, 1, 1], use_cudnn_on_gpu = true}> {device = \"\"} : (tensor<1x16x16x96xf16>, tensor<1x1x96x384xf16>) -> tensor<1x16x16x384xf16>\n    self._concrete_variable_creation_fn = tracing_compilation.trace_function(\n^\n/home/omen_pc1/photo_score_project/.venv_gpu/lib/python3.12/site-packages/tensorflow/python/eager/polymorphic_function/polymorphic_function.py:696:1: note: Error code: ERROR_NEEDS_FLEX_OPS\n/home/omen_pc1/photo_score_project/.venv_gpu/lib/python3.12/site-packages/tensorflow/python/eager/polymorphic_function/polymorphic_function.py:696:1: error: 'tf.Sigmoid' op is neither a custom op nor a flex op\n    self._concrete_variable_creation_fn = tracing_compilation.trace_function(\n^\n/home/omen_pc1/photo_score_project/.venv_gpu/lib/python3.12/site-packages/tensorflow/python/eager/polymorphic_function/tracing_compilation.py:178:1: note: called from\n    concrete_function = _maybe_define_function(\n^\n/home/omen_pc1/photo_score_project/.venv_gpu/lib/python3.12/site-packages/tensorflow/python/eager/polymorphic_function/tracing_compilation.py:283:1: note: called from\n        concrete_function = _create_concrete_function(\n^\n/home/omen_pc1/photo_score_project/.venv_gpu/lib/python3.12/site-packages/tensorflow/python/eager/polymorphic_function/tracing_compilation.py:310:1: note: called from\n  traced_func_graph = func_graph_module.func_graph_from_py_func(\n^\n/home/omen_pc1/photo_score_project/.venv_gpu/lib/python3.12/site-packages/tensorflow/python/framework/func_graph.py:1060:1: note: called from\n    func_outputs = python_func(*func_args, **func_kwargs)\n^\n/home/omen_pc1/photo_score_project/.venv_gpu/lib/python3.12/site-packages/tensorflow/python/eager/polymorphic_function/polymorphic_function.py:599:1: note: called from\n          out = weak_wrapped_fn().__wrapped__(*args, **kwds)\n^\n/home/omen_pc1/photo_score_project/.venv_gpu/lib/python3.12/site-packages/tensorflow/python/eager/polymorphic_function/autograph_util.py:41:1: note: called from\n      return api.converted_call(\n^\n/home/omen_pc1/photo_score_project/outputs/rgnet_tflite_retry_20260507/scripts/direct_keras_builtin_export.py:121:1: note: called from\n        return model(image, training=False)\n^\n/home/omen_pc1/photo_score_project/.venv_gpu/lib/python3.12/site-packages/keras/src/utils/traceback_utils.py:117:1: note: called from\n            return fn(*args, **kwargs)\n^\n/home/omen_pc1/photo_score_project/.venv_gpu/lib/python3.12/site-packages/keras/src/layers/layer.py:953:1: note: called from\n                    outputs = super().__call__(*args, **kwargs)\n^\n/home/omen_pc1/photo_score_project/.venv_gpu/lib/python3.12/site-packages/tensorflow/python/eager/polymorphic_function/polymorphic_function.py:696:1: note: see current operation: %377 = \"tf.Sigmoid\"(%376) {device = \"\"} : (tensor<1x16x16x384xf16>) -> tensor<1x16x16x384xf16>\n    self._concrete_variable_creation_fn = tracing_compilation.trace_function(\n^\n/home/omen_pc1/photo_score_project/.venv_gpu/lib/python3.12/site-packages/tensorflow/python/eager/polymorphic_function/polymorphic_function.py:696:1: note: Error code: ERROR_NEEDS_FLEX_OPS\n/home/omen_pc1/photo_score_project/.venv_gpu/lib/python3.12/site-packages/tensorflow/python/eager/polymorphic_function/polymorphic_function.py:696:1: error: 'tf.Mul' op is neither a custom op nor a flex op\n    self._concrete_variable_creation_fn = tracing_compilation.trace_function(\n^\n/home/omen_pc1/photo_score_project/.venv_gpu/lib/python3.12/site-packages/tensorflow/python/eager/polymorphic_function/tracing_compilation.py:178:1: note: called from\n    concrete_function = _maybe_define_function(\n^\n/home/omen_pc1/photo_score_project/.venv_gpu/lib/python3.12/site-packages/tensorflow/python/eager/polymorphic_function/tracing_compilation.py:283:1: note: called from\n        concrete_function = _create_concrete_function(\n^\n/home/omen_pc1/photo_score_project/.venv_gpu/lib/python3.12/site-packages/tensorflow/python/eager/polymorphic_function/tracing_compilation.py:310:1: note: called from\n  traced_func_graph = func_graph_module.func_graph_from_py_func(\n^\n/home/omen_pc1/photo_score_project/.venv_gpu/lib/python3.12/site-packages/tensorflow/python/framework/func_graph.py:1060:1: note: called from\n    func_outputs = python_func(*func_args, **func_kwargs)\n^\n/home/omen_pc1/photo_score_project/.venv_gpu/lib/python3.12/site-packages/tensorflow/python/eager/polymorphic_function/polymorphic_function.py:599:1: note: called from\n          out = weak_wrapped_fn().__wrapped__(*args, **kwds)\n^\n/home/omen_pc1/photo_score_project/.venv_gpu/lib/python3.12/site-packages/tensorflow/python/eager/polymorphic_function/autograph_util.py:41:1: note: called from\n      return api.converted_call(\n^\n/home/omen_pc1/photo_score_project/outputs/rgnet_tflite_retry_20260507/scripts/direct_keras_builtin_export.py:121:1: note: called from\n        return model(image, training=False)\n^\n/home/omen_pc1/photo_score_project/.venv_gpu/lib/python3.12/site-packages/keras/src/utils/traceback_utils.py:117:1: note: called from\n            return fn(*args, **kwargs)\n^\n/home/omen_pc1/photo_score_project/.venv_gpu/lib/python3.12/site-packages/keras/src/layers/layer.py:953:1: note: called from\n                    outputs = super().__call__(*args, **kwargs)\n^\n/home/omen_pc1/photo_score_project/.venv_gpu/lib/python3.12/site-packages/tensorflow/python/eager/polymorphic_function/polymorphic_function.py:696:1: note: see current operation: %378 = \"tf.Mul\"(%376, %377) {device = \"\"} : (tensor<1x16x16x384xf16>, tensor<1x16x16x384xf16>) -> tensor<1x16x16x384xf16>\n    self._concrete_variable_creation_fn = tracing_compilation.trace_function(\n^\n/home/omen_pc1/photo_score_project/.venv_gpu/lib/python3.12/site-packages/tensorflow/python/eager/polymorphic_function/polymorphic_function.py:696:1: note: Error code: ERROR_NEEDS_FLEX_OPS\n/home/omen_pc1/photo_score_project/.venv_gpu/lib/python3.12/site-packages/tensorflow/python/eager/polymorphic_function/polymorphic_function.py:696:1: error: 'tf.DepthwiseConv2dNative' op is neither a custom op nor a flex op\n    self._concrete_variable_creation_fn = tracing_compilation.trace_function(\n^\n/home/omen_pc1/photo_score_project/.venv_gpu/lib/python3.12/site-packages/tensorflow/python/eager/polymorphic_function/tracing_compilation.py:178:1: note: called from\n    concrete_function = _maybe_define_function(\n^\n/home/omen_pc1/photo_score_project/.venv_gpu/lib/python3.12/site-packages/tensorflow/python/eager/polymorphic_function/tracing_compilation.py:283:1: note: called from\n        concrete_function = _create_concrete_function(\n^\n/home/omen_pc1/photo_score_project/.venv_gpu/lib/python3.12/site-packages/tensorflow/python/eager/polymorphic_function/tracing_compilation.py:310:1: note: called from\n  traced_func_graph = func_graph_module.func_graph_from_py_func(\n^\n/home/omen_pc1/photo_score_project/.venv_gpu/lib/python3.12/site-packages/tensorflow/python/framework/func_graph.py:1060:1: note: called from\n    func_outputs = python_func(*func_args, **func_kwargs)\n^\n/home/omen_pc1/photo_score_project/.venv_gpu/lib/python3.12/site-packages/tensorflow/python/eager/polymorphic_function/polymorphic_function.py:599:1: note: called from\n          out = weak_wrapped_fn().__wrapped__(*args, **kwds)\n^\n/home/omen_pc1/photo_score_project/.venv_gpu/lib/python3.12/site-packages/tensorflow/python/eager/polymorphic_function/autograph_util.py:41:1: note: called from\n      return api.converted_call(\n^\n/home/omen_pc1/photo_score_project/outputs/rgnet_tflite_retry_20260507/scripts/direct_keras_builtin_export.py:121:1: note: called from\n        return model(image, training=False)\n^\n/home/omen_pc1/photo_score_project/.venv_gpu/lib/python3.12/site-packages/keras/src/utils/traceback_utils.py:117:1: note: called from\n            return fn(*args, **kwargs)\n^\n/home/omen_pc1/photo_score_project/.venv_gpu/lib/python3.12/site-packages/keras/src/layers/layer.py:953:1: note: called from\n                    outputs = super().__call__(*args, **kwargs)\n^\n/home/omen_pc1/photo_score_project/.venv_gpu/lib/python3.12/site-packages/tensorflow/python/eager/polymorphic_function/polymorphic_function.py:696:1: note: see current operation: %379 = \"tf.DepthwiseConv2dNative\"(%378, %213) <{data_format = \"NHWC\", dilations = [1, 1, 1, 1], explicit_paddings = [], padding = \"SAME\", strides = [1, 1, 1, 1]}> {device = \"\"} : (tensor<1x16x16x384xf16>, tensor<3x3x384x1xf16>) -> tensor<1x16x16x384xf16>\n    self._concrete_variable_creation_fn = tracing_compilation.trace_function(\n^\n/home/omen_pc1/photo_score_project/.venv_gpu/lib/python3.12/site-packages/tensorflow/python/eager/polymorphic_function/polymorphic_function.py:696:1: note: Error code: ERROR_NEEDS_FLEX_OPS\n/home/omen_pc1/photo_score_project/.venv_gpu/lib/python3.12/site-packages/tensorflow/python/eager/polymorphic_function/polymorphic_function.py:696:1: error: 'tf.Sigmoid' op is neither a custom op nor a flex op\n    self._concrete_variable_creation_fn = tracing_compilation.trace_function(\n^\n/home/omen_pc1/photo_score_project/.venv_gpu/lib/python3.12/site-packages/tensorflow/python/eager/polymorphic_function/tracing_compilation.py:178:1: note: called from\n    concrete_function = _maybe_define_function(\n^\n/home/omen_pc1/photo_score_project/.venv_gpu/lib/python3.12/site-packages/tensorflow/python/eager/polymorphic_function/tracing_compilation.py:283:1: note: called from\n        concrete_function = _create_concrete_function(\n^\n/home/omen_pc1/photo_score_project/.venv_gpu/lib/python3.12/site-packages/tensorflow/python/eager/polymorphic_function/tracing_compilation.py:310:1: note: called from\n  traced_func_graph = func_graph_module.func_graph_from_py_func(\n^\n/home/omen_pc1/photo_score_project/.venv_gpu/lib/python3.12/site-packages/tensorflow/python/framework/func_graph.py:1060:1: note: called from\n    func_outputs = python_func(*func_args, **func_kwargs)\n^\n/home/omen_pc1/photo_score_project/.venv_gpu/lib/python3.12/site-packages/tensorflow/python/eager/polymorphic_function/polymorphic_function.py:599:1: note: called from\n          out = weak_wrapped_fn().__wrapped__(*args, **kwds)\n^\n/home/omen_pc1/photo_score_project/.venv_gpu/lib/python3.12/site-packages/tensorflow/python/eager/polymorphic_function/autograph_util.py:41:1: note: called from\n      return api.converted_call(\n^\n/home/omen_pc1/photo_score_project/outputs/rgnet_tflite_retry_20260507/scripts/direct_keras_builtin_export.py:121:1: note: called from\n        return model(image, training=False)\n^\n/home/omen_pc1/photo_score_project/.venv_gpu/lib/python3.12/site-packages/keras/src/utils/traceback_utils.py:117:1: note: called from\n            return fn(*args, **kwargs)\n^\n/home/omen_pc1/photo_score_project/.venv_gpu/lib/python3.12/site-packages/keras/src/layers/layer.py:953:1: note: called from\n                    outputs = super().__call__(*args, **kwargs)\n^\n/home/omen_pc1/photo_score_project/.venv_gpu/lib/python3.12/site-packages/tensorflow/python/eager/polymorphic_function/polymorphic_function.py:696:1: note: see current operation: %384 = \"tf.Sigmoid\"(%383) {device = \"\"} : (tensor<1x16x16x384xf16>) -> tensor<1x16x16x384xf16>\n    self._concrete_variable_creation_fn = tracing_compilation.trace_function(\n^\n/home/omen_pc1/photo_score_project/.venv_gpu/lib/python3.12/site-packages/tensorflow/python/eager/polymorphic_function/polymorphic_function.py:696:1: note: Error code: ERROR_NEEDS_FLEX_OPS\n/home/omen_pc1/photo_score_project/.venv_gpu/lib/python3.12/site-packages/tensorflow/python/eager/polymorphic_function/polymorphic_function.py:696:1: error: 'tf.Mul' op is neither a custom op nor a flex op\n    self._concrete_variable_creation_fn = tracing_compilation.trace_function(\n^\n/home/omen_pc1/photo_score_project/.venv_gpu/lib/python3.12/site-packages/tensorflow/python/eager/polymorphic_function/tracing_compilation.py:178:1: note: called from\n    concrete_function = _maybe_define_function(\n^\n/home/omen_pc1/photo_score_project/.venv_gpu/lib/python3.12/site-packages/tensorflow/python/eager/polymorphic_function/tracing_compilation.py:283:1: note: called from\n        concrete_function = _create_concrete_function(\n^\n/home/omen_pc1/photo_score_project/.venv_gpu/lib/python3.12/site-packages/tensorflow/python/eager/polymorphic_function/tracing_compilation.py:310:1: note: called from\n  traced_func_graph = func_graph_module.func_graph_from_py_func(\n^\n/home/omen_pc1/photo_score_project/.venv_gpu/lib/python3.12/site-packages/tensorflow/python/framework/func_graph.py:1060:1: note: called from\n    func_outputs = python_func(*func_args, **func_kwargs)\n^\n/home/omen_pc1/photo_score_project/.venv_gpu/lib/python3.12/site-packages/tensorflow/python/eager/polymorphic_function/polymorphic_function.py:599:1: note: called from\n          out = weak_wrapped_fn().__wrapped__(*args, **kwds)\n^\n/home/omen_pc1/photo_score_project/.venv_gpu/lib/python3.12/site-packages/tensorflow/python/eager/polymorphic_function/autograph_util.py:41:1: note: called from\n      return api.converted_call(\n^\n/home/omen_pc1/photo_score_project/outputs/rgnet_tflite_retry_20260507/scripts/direct_keras_builtin_export.py:121:1: note: called from\n        return model(image, training=False)\n^\n/home/omen_pc1/photo_score_project/.venv_gpu/lib/python3.12/site-packages/keras/src/utils/traceback_utils.py:117:1: note: called from\n            return fn(*args, **kwargs)\n^\n/home/omen_pc1/photo_score_project/.venv_gpu/lib/python3.12/site-packages/keras/src/layers/layer.py:953:1: note: called from\n                    outputs = super().__call__(*args, **kwargs)\n^\n/home/omen_pc1/photo_score_project/.venv_gpu/lib/python3.12/site-packages/tensorflow/python/eager/polymorphic_function/polymorphic_function.py:696:1: note: see current operation: %385 = \"tf.Mul\"(%383, %384) {device = \"\"} : (tensor<1x16x16x384xf16>, tensor<1x16x16x384xf16>) -> tensor<1x16x16x384xf16>\n    self._concrete_variable_creation_fn = tracing_compilation.trace_function(\n^\n/home/omen_pc1/photo_score_project/.venv_gpu/lib/python3.12/site-packages/tensorflow/python/eager/polymorphic_function/polymorphic_function.py:696:1: note: Error code: ERROR_NEEDS_FLEX_OPS\n/home/omen_pc1/photo_score_project/.venv_gpu/lib/python3.12/site-packages/tensorflow/python/eager/polymorphic_function/polymorphic_function.py:696:1: error: 'tf.Conv2D' op is neither a custom op nor a flex op\n    self._concrete_variable_creation_fn = tracing_compilation.trace_function(\n^\n/home/omen_pc1/photo_score_project/.venv_gpu/lib/python3.12/site-packages/tensorflow/python/eager/polymorphic_function/tracing_compilation.py:178:1: note: called from\n    concrete_function = _maybe_define_function(\n^\n/home/omen_pc1/photo_score_project/.venv_gpu/lib/python3.12/site-packages/tensorflow/python/eager/polymorphic_function/tracing_compilation.py:283:1: note: called from\n        concrete_function = _create_concrete_function(\n^\n/home/omen_pc1/photo_score_project/.venv_gpu/lib/python3.12/site-packages/tensorflow/python/eager/polymorphic_function/tracing_compilation.py:310:1: note: called from\n  traced_func_graph = func_graph_module.func_graph_from_py_func(\n^\n/home/omen_pc1/photo_score_project/.venv_gpu/lib/python3.12/site-packages/tensorflow/python/framework/func_graph.py:1060:1: note: called from\n    func_outputs = python_func(*func_args, **func_kwargs)\n^\n/home/omen_pc1/photo_score_project/.venv_gpu/lib/python3.12/site-packages/tensorflow/python/eager/polymorphic_function/polymorphic_function.py:599:1: note: called from\n          out = weak_wrapped_fn().__wrapped__(*args, **kwds)\n^\n/home/omen_pc1/photo_score_project/.venv_gpu/lib/python3.12/site-packages/tensorflow/python/eager/polymorphic_function/autograph_util.py:41:1: note: called from\n      return api.converted_call(\n^\n/home/omen_pc1/photo_score_project/outputs/rgnet_tflite_retry_20260507/scripts/direct_keras_builtin_export.py:121:1: note: called from\n        return model(image, training=False)\n^\n/home/omen_pc1/photo_score_project/.venv_gpu/lib/python3.12/site-packages/keras/src/utils/traceback_utils.py:117:1: note: called from\n            return fn(*args, **kwargs)\n^\n/home/omen_pc1/photo_score_project/.venv_gpu/lib/python3.12/site-packages/keras/src/layers/layer.py:953:1: note: called from\n                    outputs = super().__call__(*args, **kwargs)\n^\n/home/omen_pc1/photo_score_project/.venv_gpu/lib/python3.12/site-packages/tensorflow/python/eager/polymorphic_function/polymorphic_function.py:696:1: note: see current operation: %390 = \"tf.Conv2D\"(%389, %203) <{data_format = \"NHWC\", dilations = [1, 1, 1, 1], explicit_paddings = [], padding = \"SAME\", strides = [1, 1, 1, 1], use_cudnn_on_gpu = true}> {device = \"\"} : (tensor<1x1x1x384xf16>, tensor<1x1x384x24xf16>) -> tensor<1x1x1x24xf16>\n    self._concrete_variable_creation_fn = tracing_compilation.trace_function(\n^\n/home/omen_pc1/photo_score_project/.venv_gpu/lib/python3.12/site-packages/tensorflow/python/eager/polymorphic_function/polymorphic_function.py:696:1: note: Error code: ERROR_NEEDS_FLEX_OPS\n/home/omen_pc1/photo_score_project/.venv_gpu/lib/python3.12/site-packages/tensorflow/python/eager/polymorphic_function/polymorphic_function.py:696:1: error: 'tf.BiasAdd' op is neither a custom op nor a flex op\n    self._concrete_variable_creation_fn = tracing_compilation.trace_function(\n^\n/home/omen_pc1/photo_score_project/.venv_gpu/lib/python3.12/site-packages/tensorflow/python/eager/polymorphic_function/tracing_compilation.py:178:1: note: called from\n    concrete_function = _maybe_define_function(\n^\n/home/omen_pc1/photo_score_project/.venv_gpu/lib/python3.12/site-packages/tensorflow/python/eager/polymorphic_function/tracing_compilation.py:283:1: note: called from\n        concrete_function = _create_concrete_function(\n^\n/home/omen_pc1/photo_score_project/.venv_gpu/lib/python3.12/site-packages/tensorflow/python/eager/polymorphic_function/tracing_compilation.py:310:1: note: called from\n  traced_func_graph = func_graph_module.func_graph_from_py_func(\n^\n/home/omen_pc1/photo_score_project/.venv_gpu/lib/python3.12/site-packages/tensorflow/python/framework/func_graph.py:1060:1: note: called from\n    func_outputs = python_func(*func_args, **func_kwargs)\n^\n/home/omen_pc1/photo_score_project/.venv_gpu/lib/python3.12/site-packages/tensorflow/python/eager/polymorphic_function/polymorphic_function.py:599:1: note: called from\n          out = weak_wrapped_fn().__wrapped__(*args, **kwds)\n^\n/home/omen_pc1/photo_score_project/.venv_gpu/lib/python3.12/site-packages/tensorflow/python/eager/polymorphic_function/autograph_util.py:41:1: note: called from\n      return api.converted_call(\n^\n/home/omen_pc1/photo_score_project/outputs/rgnet_tflite_retry_20260507/scripts/direct_keras_builtin_export.py:121:1: note: called from\n        return model(image, training=False)\n^\n/home/omen_pc1/photo_score_project/.venv_gpu/lib/python3.12/site-packages/keras/src/utils/traceback_utils.py:117:1: note: called from\n            return fn(*args, **kwargs)\n^\n/home/omen_pc1/photo_score_project/.venv_gpu/lib/python3.12/site-packages/keras/src/layers/layer.py:953:1: note: called from\n                    outputs = super().__call__(*args, **kwargs)\n^\n/home/omen_pc1/photo_score_project/.venv_gpu/lib/python3.12/site-packages/tensorflow/python/eager/polymorphic_function/polymorphic_function.py:696:1: note: see current operation: %391 = \"tf.BiasAdd\"(%390, %204) <{data_format = \"NHWC\"}> {device = \"\"} : (tensor<1x1x1x24xf16>, tensor<24xf16>) -> tensor<1x1x1x24xf16>\n    self._concrete_variable_creation_fn = tracing_compilation.trace_function(\n^\n/home/omen_pc1/photo_score_project/.venv_gpu/lib/python3.12/site-packages/tensorflow/python/eager/polymorphic_function/polymorphic_function.py:696:1: note: Error code: ERROR_NEEDS_FLEX_OPS\n/home/omen_pc1/photo_score_project/.venv_gpu/lib/python3.12/site-packages/tensorflow/python/eager/polymorphic_function/polymorphic_function.py:696:1: error: 'tf.Sigmoid' op is neither a custom op nor a flex op\n    self._concrete_variable_creation_fn = tracing_compilation.trace_function(\n^\n/home/omen_pc1/photo_score_project/.venv_gpu/lib/python3.12/site-packages/tensorflow/python/eager/polymorphic_function/tracing_compilation.py:178:1: note: called from\n    concrete_function = _maybe_define_function(\n^\n/home/omen_pc1/photo_score_project/.venv_gpu/lib/python3.12/site-packages/tensorflow/python/eager/polymorphic_function/tracing_compilation.py:283:1: note: called from\n        concrete_function = _create_concrete_function(\n^\n/home/omen_pc1/photo_score_project/.venv_gpu/lib/python3.12/site-packages/tensorflow/python/eager/polymorphic_function/tracing_compilation.py:310:1: note: called from\n  traced_func_graph = func_graph_module.func_graph_from_py_func(\n^\n/home/omen_pc1/photo_score_project/.venv_gpu/lib/python3.12/site-packages/tensorflow/python/framework/func_graph.py:1060:1: note: called from\n    func_outputs = python_func(*func_args, **func_kwargs)\n^\n/home/omen_pc1/photo_score_project/.venv_gpu/lib/python3.12/site-packages/tensorflow/python/eager/polymorphic_function/polymorphic_function.py:599:1: note: called from\n          out = weak_wrapped_fn().__wrapped__(*args, **kwds)\n^\n/home/omen_pc1/photo_score_project/.venv_gpu/lib/python3.12/site-packages/tensorflow/python/eager/polymorphic_function/autograph_util.py:41:1: note: called from\n      return api.converted_call(\n^\n/home/omen_pc1/photo_score_project/outputs/rgnet_tflite_retry_20260507/scripts/direct_keras_builtin_export.py:121:1: note: called from\n        return model(image, training=False)\n^\n/home/omen_pc1/photo_score_project/.venv_gpu/lib/python3.12/site-packages/keras/src/utils/traceback_utils.py:117:1: note: called from\n            return fn(*args, **kwargs)\n^\n/home/omen_pc1/photo_score_project/.venv_gpu/lib/python3.12/site-packages/keras/src/layers/layer.py:953:1: note: called from\n                    outputs = super().__call__(*args, **kwargs)\n^\n/home/omen_pc1/photo_score_project/.venv_gpu/lib/python3.12/site-packages/tensorflow/python/eager/polymorphic_function/polymorphic_function.py:696:1: note: see current operation: %392 = \"tf.Sigmoid\"(%391) {device = \"\"} : (tensor<1x1x1x24xf16>) -> tensor<1x1x1x24xf16>\n    self._concrete_variable_creation_fn = tracing_compilation.trace_function(\n^\n/home/omen_pc1/photo_score_project/.venv_gpu/lib/python3.12/site-packages/tensorflow/python/eager/polymorphic_function/polymorphic_function.py:696:1: note: Error code: ERROR_NEEDS_FLEX_OPS\n/home/omen_pc1/photo_score_project/.venv_gpu/lib/python3.12/site-packages/tensorflow/python/eager/polymorphic_function/polymorphic_function.py:696:1: error: 'tf.Mul' op is neither a custom op nor a flex op\n    self._concrete_variable_creation_fn = tracing_compilation.trace_function(\n^\n/home/omen_pc1/photo_score_project/.venv_gpu/lib/python3.12/site-packages/tensorflow/python/eager/polymorphic_function/tracing_compilation.py:178:1: note: called from\n    concrete_function = _maybe_define_function(\n^\n/home/omen_pc1/photo_score_project/.venv_gpu/lib/python3.12/site-packages/tensorflow/python/eager/polymorphic_function/tracing_compilation.py:283:1: note: called from\n        concrete_function = _create_concrete_function(\n^\n/home/omen_pc1/photo_score_project/.venv_gpu/lib/python3.12/site-packages/tensorflow/python/eager/polymorphic_function/tracing_compilation.py:310:1: note: called from\n  traced_func_graph = func_graph_module.func_graph_from_py_func(\n^\n/home/omen_pc1/photo_score_project/.venv_gpu/lib/python3.12/site-packages/tensorflow/python/framework/func_graph.py:1060:1: note: called from\n    func_outputs = python_func(*func_args, **func_kwargs)\n^\n/home/omen_pc1/photo_score_project/.venv_gpu/lib/python3.12/site-packages/tensorflow/python/eager/polymorphic_function/polymorphic_function.py:599:1: note: called from\n          out = weak_wrapped_fn().__wrapped__(*args, **kwds)\n^\n/home/omen_pc1/photo_score_project/.venv_gpu/lib/python3.12/site-packages/tensorflow/python/eager/polymorphic_function/autograph_util.py:41:1: note: called from\n      return api.converted_call(\n^\n/home/omen_pc1/photo_score_project/outputs/rgnet_tflite_retry_20260507/scripts/direct_keras_builtin_export.py:121:1: note: called from\n        return model(image, training=False)\n^\n/home/omen_pc1/photo_score_project/.venv_gpu/lib/python3.12/site-packages/keras/src/utils/traceback_utils.py:117:1: note: called from\n            return fn(*args, **kwargs)\n^\n/home/omen_pc1/photo_score_project/.venv_gpu/lib/python3.12/site-packages/keras/src/layers/layer.py:953:1: note: called from\n                    outputs = super().__call__(*args, **kwargs)\n^\n/home/omen_pc1/photo_score_project/.venv_gpu/lib/python3.12/site-packages/tensorflow/python/eager/polymorphic_function/polymorphic_function.py:696:1: note: see current operation: %393 = \"tf.Mul\"(%391, %392) {device = \"\"} : (tensor<1x1x1x24xf16>, tensor<1x1x1x24xf16>) -> tensor<1x1x1x24xf16>\n    self._concrete_variable_creation_fn = tracing_compilation.trace_function(\n^\n/home/omen_pc1/photo_score_project/.venv_gpu/lib/python3.12/site-packages/tensorflow/python/eager/polymorphic_function/polymorphic_function.py:696:1: note: Error code: ERROR_NEEDS_FLEX_OPS\n/home/omen_pc1/photo_score_project/.venv_gpu/lib/python3.12/site-packages/tensorflow/python/eager/polymorphic_function/polymorphic_function.py:696:1: error: 'tf.Conv2D' op is neither a custom op nor a flex op\n    self._concrete_variable_creation_fn = tracing_compilation.trace_function(\n^\n/home/omen_pc1/photo_score_project/.venv_gpu/lib/python3.12/site-packages/tensorflow/python/eager/polymorphic_function/tracing_compilation.py:178:1: note: called from\n    concrete_function = _maybe_define_function(\n^\n/home/omen_pc1/photo_score_project/.venv_gpu/lib/python3.12/site-packages/tensorflow/python/eager/polymorphic_function/tracing_compilation.py:283:1: note: called from\n        concrete_function = _create_concrete_function(\n^\n/home/omen_pc1/photo_score_project/.venv_gpu/lib/python3.12/site-packages/tensorflow/python/eager/polymorphic_function/tracing_compilation.py:310:1: note: called from\n  traced_func_graph = func_graph_module.func_graph_from_py_func(\n^\n/home/omen_pc1/photo_score_project/.venv_gpu/lib/python3.12/site-packages/tensorflow/python/framework/func_graph.py:1060:1: note: called from\n    func_outputs = python_func(*func_args, **func_kwargs)\n^\n/home/omen_pc1/photo_score_project/.venv_gpu/lib/python3.12/site-packages/tensorflow/python/eager/polymorphic_function/polymorphic_function.py:599:1: note: called from\n          out = weak_wrapped_fn().__wrapped__(*args, **kwds)\n^\n/home/omen_pc1/photo_score_project/.venv_gpu/lib/python3.12/site-packages/tensorflow/python/eager/polymorphic_function/autograph_util.py:41:1: note: called from\n      return api.converted_call(\n^\n/home/omen_pc1/photo_score_project/outputs/rgnet_tflite_retry_20260507/scripts/direct_keras_builtin_export.py:121:1: note: called from\n        return model(image, training=False)\n^\n/home/omen_pc1/photo_score_project/.venv_gpu/lib/python3.12/site-packages/keras/src/utils/traceback_utils.py:117:1: note: called from\n            return fn(*args, **kwargs)\n^\n/home/omen_pc1/photo_score_project/.venv_gpu/lib/python3.12/site-packages/keras/src/layers/layer.py:953:1: note: called from\n                    outputs = super().__call__(*args, **kwargs)\n^\n/home/omen_pc1/photo_score_project/.venv_gpu/lib/python3.12/site-packages/tensorflow/python/eager/polymorphic_function/polymorphic_function.py:696:1: note: see current operation: %394 = \"tf.Conv2D\"(%393, %205) <{data_format = \"NHWC\", dilations = [1, 1, 1, 1], explicit_paddings = [], padding = \"SAME\", strides = [1, 1, 1, 1], use_cudnn_on_gpu = true}> {device = \"\"} : (tensor<1x1x1x24xf16>, tensor<1x1x24x384xf16>) -> tensor<1x1x1x384xf16>\n    self._concrete_variable_creation_fn = tracing_compilation.trace_function(\n^\n/home/omen_pc1/photo_score_project/.venv_gpu/lib/python3.12/site-packages/tensorflow/python/eager/polymorphic_function/polymorphic_function.py:696:1: note: Error code: ERROR_NEEDS_FLEX_OPS\n/home/omen_pc1/photo_score_project/.venv_gpu/lib/python3.12/site-packages/tensorflow/python/eager/polymorphic_function/polymorphic_function.py:696:1: error: 'tf.BiasAdd' op is neither a custom op nor a flex op\n    self._concrete_variable_creation_fn = tracing_compilation.trace_function(\n^\n/home/omen_pc1/photo_score_project/.venv_gpu/lib/python3.12/site-packages/tensorflow/python/eager/polymorphic_function/tracing_compilation.py:178:1: note: called from\n    concrete_function = _maybe_define_function(\n^\n/home/omen_pc1/photo_score_project/.venv_gpu/lib/python3.12/site-packages/tensorflow/python/eager/polymorphic_function/tracing_compilation.py:283:1: note: called from\n        concrete_function = _create_concrete_function(\n^\n/home/omen_pc1/photo_score_project/.venv_gpu/lib/python3.12/site-packages/tensorflow/python/eager/polymorphic_function/tracing_compilation.py:310:1: note: called from\n  traced_func_graph = func_graph_module.func_graph_from_py_func(\n^\n/home/omen_pc1/photo_score_project/.venv_gpu/lib/python3.12/site-packages/tensorflow/python/framework/func_graph.py:1060:1: note: called from\n    func_outputs = python_func(*func_args, **func_kwargs)\n^\n/home/omen_pc1/photo…
 tensor<1x16x16x112xf16>\n  %558 = \"tfl.cast\"(%557) : (tensor<1x16x16x112xf16>) -> tensor<1x16x16x112xf32>\n  %559 = \"tfl.mul\"(%558, %144) <{fused_activation_function = \"NONE\"}> : (tensor<1x16x16x112xf32>, tensor<1x1x1x112xf32>) -> tensor<1x16x16x112xf32>\n  %560 = \"tfl.add\"(%559, %143) <{fused_activation_function = \"NONE\"}> : (tensor<1x16x16x112xf32>, tensor<1x1x1x112xf32>) -> tensor<1x16x16x112xf32>\n  %561 = \"tfl.cast\"(%560) : (tensor<1x16x16x112xf32>) -> tensor<1x16x16x112xf16>\n  %562 = \"tf.AddV2\"(%561, %530) {device = \"\"} : (tensor<1x16x16x112xf16>, tensor<1x16x16x112xf16>) -> tensor<1x16x16x112xf16>\n  %563 = \"tf.Conv2D\"(%562, %132) <{data_format = \"NHWC\", dilations = [1, 1, 1, 1], explicit_paddings = [], padding = \"SAME\", strides = [1, 1, 1, 1], use_cudnn_on_gpu = true}> {device = \"\"} : (tensor<1x16x16x112xf16>, tensor<1x1x112x672xf16>) -> tensor<1x16x16x672xf16>\n  %564 = \"tfl.cast\"(%563) : (tensor<1x16x16x672xf16>) -> tensor<1x16x16x672xf32>\n  %565 = \"tfl.mul\"(%564, %134) <{fused_activation_function = \"NONE\"}> : (tensor<1x16x16x672xf32>, tensor<1x1x1x672xf32>) -> tensor<1x16x16x672xf32>\n  %566 = \"tfl.add\"(%565, %133) <{fused_activation_function = \"NONE\"}> : (tensor<1x16x16x672xf32>, tensor<1x1x1x672xf32>) -> tensor<1x16x16x672xf32>\n  %567 = \"tfl.cast\"(%566) : (tensor<1x16x16x672xf32>) -> tensor<1x16x16x672xf16>\n  %568 = \"tf.Sigmoid\"(%567) {device = \"\"} : (tensor<1x16x16x672xf16>) -> tensor<1x16x16x672xf16>\n  %569 = \"tf.Mul\"(%567, %568) {device = \"\"} : (tensor<1x16x16x672xf16>, tensor<1x16x16x672xf16>) -> tensor<1x16x16x672xf16>\n  %570 = \"tf.DepthwiseConv2dNative\"(%569, %135) <{data_format = \"NHWC\", dilations = [1, 1, 1, 1], explicit_paddings = [], padding = \"SAME\", strides = [1, 1, 1, 1]}> {device = \"\"} : (tensor<1x16x16x672xf16>, tensor<3x3x672x1xf16>) -> tensor<1x16x16x672xf16>\n  %571 = \"tfl.cast\"(%570) : (tensor<1x16x16x672xf16>) -> tensor<1x16x16x672xf32>\n  %572 = \"tfl.mul\"(%571, %137) <{fused_activation_function = \"NONE\"}> : (tensor<1x16x16x672xf32>, tensor<1x1x1x672xf32>) -> tensor<1x16x16x672xf32>\n  %573 = \"tfl.add\"(%572, %136) <{fused_activation_function = \"NONE\"}> : (tensor<1x16x16x672xf32>, tensor<1x1x1x672xf32>) -> tensor<1x16x16x672xf32>\n  %574 = \"tfl.cast\"(%573) : (tensor<1x16x16x672xf32>) -> tensor<1x16x16x672xf16>\n  %575 = \"tf.Sigmoid\"(%574) {device = \"\"} : (tensor<1x16x16x672xf16>) -> tensor<1x16x16x672xf16>\n  %576 = \"tf.Mul\"(%574, %575) {device = \"\"} : (tensor<1x16x16x672xf16>, tensor<1x16x16x672xf16>) -> tensor<1x16x16x672xf16>\n  %577 = \"tfl.cast\"(%576) : (tensor<1x16x16x672xf16>) -> tensor<1x16x16x672xf32>\n  %578 = \"tfl.mean\"(%577, %270) <{keep_dims = false}> : (tensor<1x16x16x672xf32>, tensor<2xi32>) -> tensor<1x672xf32>\n  %579 = \"tfl.cast\"(%578) : (tensor<1x672xf32>) -> tensor<1x672xf16>\n  %580 = \"tfl.reshape\"(%579, %267) : (tensor<1x672xf16>, tensor<4xi32>) -> tensor<1x1x1x672xf16>\n  %581 = \"tf.Conv2D\"(%580, %125) <{data_format = \"NHWC\", dilations = [1, 1, 1, 1], explicit_paddings = [], padding = \"SAME\", strides = [1, 1, 1, 1], use_cudnn_on_gpu = true}> {device = \"\"} : (tensor<1x1x1x672xf16>, tensor<1x1x672x28xf16>) -> tensor<1x1x1x28xf16>\n  %582 = \"tf.BiasAdd\"(%581, %126) <{data_format = \"NHWC\"}> {device = \"\"} : (tensor<1x1x1x28xf16>, tensor<28xf16>) -> tensor<1x1x1x28xf16>\n  %583 = \"tf.Sigmoid\"(%582) {device = \"\"} : (tensor<1x1x1x28xf16>) -> tensor<1x1x1x28xf16>\n  %584 = \"tf.Mul\"(%582, %583) {device = \"\"} : (tensor<1x1x1x28xf16>, tensor<1x1x1x28xf16>) -> tensor<1x1x1x28xf16>\n  %585 = \"tf.Conv2D\"(%584, %127) <{data_format = \"NHWC\", dilations = [1, 1, 1, 1], explicit_paddings = [], padding = \"SAME\", strides = [1, 1, 1, 1], use_cudnn_on_gpu = true}> {device = \"\"} : (tensor<1x1x1x28xf16>, tensor<1x1x28x672xf16>) -> tensor<1x1x1x672xf16>\n  %586 = \"tf.BiasAdd\"(%585, %128) <{data_format = \"NHWC\"}> {device = \"\"} : (tensor<1x1x1x672xf16>, tensor<672xf16>) -> tensor<1x1x1x672xf16>\n  %587 = \"tf.Sigmoid\"(%586) {device = \"\"} : (tensor<1x1x1x672xf16>) -> tensor<1x1x1x672xf16>\n  %588 = \"tf.Mul\"(%576, %587) {device = \"\"} : (tensor<1x16x16x672xf16>, tensor<1x1x1x672xf16>) -> tensor<1x16x16x672xf16>\n  %589 = \"tf.Conv2D\"(%588, %129) <{data_format = \"NHWC\", dilations = [1, 1, 1, 1], explicit_paddings = [], padding = \"SAME\", strides = [1, 1, 1, 1], use_cudnn_on_gpu = true}> {device = \"\"} : (tensor<1x16x16x672xf16>, tensor<1x1x672x112xf16>) -> tensor<1x16x16x112xf16>\n  %590 = \"tfl.cast\"(%589) : (tensor<1x16x16x112xf16>) -> tensor<1x16x16x112xf32>\n  %591 = \"tfl.mul\"(%590, %131) <{fused_activation_function = \"NONE\"}> : (tensor<1x16x16x112xf32>, tensor<1x1x1x112xf32>) -> tensor<1x16x16x112xf32>\n  %592 = \"tfl.add\"(%591, %130) <{fused_activation_function = \"NONE\"}> : (tensor<1x16x16x112xf32>, tensor<1x1x1x112xf32>) -> tensor<1x16x16x112xf32>\n  %593 = \"tfl.cast\"(%592) : (tensor<1x16x16x112xf32>) -> tensor<1x16x16x112xf16>\n  %594 = \"tf.AddV2\"(%593, %562) {device = \"\"} : (tensor<1x16x16x112xf16>, tensor<1x16x16x112xf16>) -> tensor<1x16x16x112xf16>\n  %595 = \"tf.Conv2D\"(%594, %119) <{data_format = \"NHWC\", dilations = [1, 1, 1, 1], explicit_paddings = [], padding = \"SAME\", strides = [1, 1, 1, 1], use_cudnn_on_gpu = true}> {device = \"\"} : (tensor<1x16x16x112xf16>, tensor<1x1x112x672xf16>) -> tensor<1x16x16x672xf16>\n  %596 = \"tfl.cast\"(%595) : (tensor<1x16x16x672xf16>) -> tensor<1x16x16x672xf32>\n  %597 = \"tfl.mul\"(%596, %121) <{fused_activation_function = \"NONE\"}> : (tensor<1x16x16x672xf32>, tensor<1x1x1x672xf32>) -> tensor<1x16x16x672xf32>\n  %598 = \"tfl.add\"(%597, %120) <{fused_activation_function = \"NONE\"}> : (tensor<1x16x16x672xf32>, tensor<1x1x1x672xf32>) -> tensor<1x16x16x672xf32>\n  %599 = \"tfl.cast\"(%598) : (tensor<1x16x16x672xf32>) -> tensor<1x16x16x672xf16>\n  %600 = \"tf.Sigmoid\"(%599) {device = \"\"} : (tensor<1x16x16x672xf16>) -> tensor<1x16x16x672xf16>\n  %601 = \"tf.Mul\"(%599, %600) {device = \"\"} : (tensor<1x16x16x672xf16>, tensor<1x16x16x672xf16>) -> tensor<1x16x16x672xf16>\n  %602 = \"tf.DepthwiseConv2dNative\"(%601, %122) <{data_format = \"NHWC\", dilations = [1, 1, 1, 1], explicit_paddings = [], padding = \"SAME\", strides = [1, 2, 2, 1]}> {device = \"\"} : (tensor<1x16x16x672xf16>, tensor<3x3x672x1xf16>) -> tensor<1x8x8x672xf16>\n  %603 = \"tfl.cast\"(%602) : (tensor<1x8x8x672xf16>) -> tensor<1x8x8x672xf32>\n  %604 = \"tfl.mul\"(%603, %124) <{fused_activation_function = \"NONE\"}> : (tensor<1x8x8x672xf32>, tensor<1x1x1x672xf32>) -> tensor<1x8x8x672xf32>\n  %605 = \"tfl.add\"(%604, %123) <{fused_activation_function = \"NONE\"}> : (tensor<1x8x8x672xf32>, tensor<1x1x1x672xf32>) -> tensor<1x8x8x672xf32>\n  %606 = \"tfl.cast\"(%605) : (tensor<1x8x8x672xf32>) -> tensor<1x8x8x672xf16>\n  %607 = \"tf.Sigmoid\"(%606) {device = \"\"} : (tensor<1x8x8x672xf16>) -> tensor<1x8x8x672xf16>\n  %608 = \"tf.Mul\"(%606, %607) {device = \"\"} : (tensor<1x8x8x672xf16>, tensor<1x8x8x672xf16>) -> tensor<1x8x8x672xf16>\n  %609 = \"tfl.cast\"(%608) : (tensor<1x8x8x672xf16>) -> tensor<1x8x8x672xf32>\n  %610 = \"tfl.mean\"(%609, %270) <{keep_dims = false}> : (tensor<1x8x8x672xf32>, tensor<2xi32>) -> tensor<1x672xf32>\n  %611 = \"tfl.cast\"(%610) : (tensor<1x672xf32>) -> tensor<1x672xf16>\n  %612 = \"tfl.reshape\"(%611, %267) : (tensor<1x672xf16>, tensor<4xi32>) -> tensor<1x1x1x672xf16>\n  %613 = \"tf.Conv2D\"(%612, %112) <{data_format = \"NHWC\", dilations = [1, 1, 1, 1], explicit_paddings = [], padding = \"SAME\", strides = [1, 1, 1, 1], use_cudnn_on_gpu = true}> {device = \"\"} : (tensor<1x1x1x672xf16>, tensor<1x1x672x28xf16>) -> tensor<1x1x1x28xf16>\n  %614 = \"tf.BiasAdd\"(%613, %113) <{data_format = \"NHWC\"}> {device = \"\"} : (tensor<1x1x1x28xf16>, tensor<28xf16>) -> tensor<1x1x1x28xf16>\n  %615 = \"tf.Sigmoid\"(%614) {device = \"\"} : (tensor<1x1x1x28xf16>) -> tensor<1x1x1x28xf16>\n  %616 = \"tf.Mul\"(%614, %615) {device = \"\"} : (tensor<1x1x1x28xf16>, tensor<1x1x1x28xf16>) -> tensor<1x1x1x28xf16>\n  %617 = \"tf.Conv2D\"(%616, %114) <{data_format = \"NHWC\", dilations = [1, 1, 1, 1], explicit_paddings = [], padding = \"SAME\", strides = [1, 1, 1, 1], use_cudnn_on_gpu = true}> {device = \"\"} : (tensor<1x1x1x28xf16>, tensor<1x1x28x672xf16>) -> tensor<1x1x1x672xf16>\n  %618 = \"tf.BiasAdd\"(%617, %115) <{data_format = \"NHWC\"}> {device = \"\"} : (tensor<1x1x1x672xf16>, tensor<672xf16>) -> tensor<1x1x1x672xf16>\n  %619 = \"tf.Sigmoid\"(%618) {device = \"\"} : (tensor<1x1x1x672xf16>) -> tensor<1x1x1x672xf16>\n  %620 = \"tf.Mul\"(%608, %619) {device = \"\"} : (tensor<1x8x8x672xf16>, tensor<1x1x1x672xf16>) -> tensor<1x8x8x672xf16>\n  %621 = \"tf.Conv2D\"(%620, %116) <{data_format = \"NHWC\", dilations = [1, 1, 1, 1], explicit_paddings = [], padding = \"SAME\", strides = [1, 1, 1, 1], use_cudnn_on_gpu = true}> {device = \"\"} : (tensor<1x8x8x672xf16>, tensor<1x1x672x192xf16>) -> tensor<1x8x8x192xf16>\n  %622 = \"tfl.cast\"(%621) : (tensor<1x8x8x192xf16>) -> tensor<1x8x8x192xf32>\n  %623 = \"tfl.mul\"(%622, %118) <{fused_activation_function = \"NONE\"}> : (tensor<1x8x8x192xf32>, tensor<1x1x1x192xf32>) -> tensor<1x8x8x192xf32>\n  %624 = \"tfl.add\"(%623, %117) <{fused_activation_function = \"NONE\"}> : (tensor<1x8x8x192xf32>, tensor<1x1x1x192xf32>) -> tensor<1x8x8x192xf32>\n  %625 = \"tfl.cast\"(%624) : (tensor<1x8x8x192xf32>) -> tensor<1x8x8x192xf16>\n  %626 = \"tf.Conv2D\"(%625, %106) <{data_format = \"NHWC\", dilations = [1, 1, 1, 1], explicit_paddings = [], padding = \"SAME\", strides = [1, 1, 1, 1], use_cudnn_on_gpu = true}> {device = \"\"} : (tensor<1x8x8x192xf16>, tensor<1x1x192x1152xf16>) -> tensor<1x8x8x1152xf16>\n  %627 = \"tfl.cast\"(%626) : (tensor<1x8x8x1152xf16>) -> tensor<1x8x8x1152xf32>\n  %628 = \"tfl.mul\"(%627, %108) <{fused_activation_function = \"NONE\"}> : (tensor<1x8x8x1152xf32>, tensor<1x1x1x1152xf32>) -> tensor<1x8x8x1152xf32>\n  %629 = \"tfl.add\"(%628, %107) <{fused_activation_function = \"NONE\"}> : (tensor<1x8x8x1152xf32>, tensor<1x1x1x1152xf32>) -> tensor<1x8x8x1152xf32>\n  %630 = \"tfl.cast\"(%629) : (tensor<1x8x8x1152xf32>) -> tensor<1x8x8x1152xf16>\n  %631 = \"tf.Sigmoid\"(%630) {device = \"\"} : (tensor<1x8x8x1152xf16>) -> tensor<1x8x8x1152xf16>\n  %632 = \"tf.Mul\"(%630, %631) {device = \"\"} : (tensor<1x8x8x1152xf16>, tensor<1x8x8x1152xf16>) -> tensor<1x8x8x1152xf16>\n  %633 = \"tf.DepthwiseConv2dNative\"(%632, %109) <{data_format = \"NHWC\", dilations = [1, 1, 1, 1], explicit_paddings = [], padding = \"SAME\", strides = [1, 1, 1, 1]}> {device = \"\"} : (tensor<1x8x8x1152xf16>, tensor<3x3x1152x1xf16>) -> tensor<1x8x8x1152xf16>\n  %634 = \"tfl.cast\"(%633) : (tensor<1x8x8x1152xf16>) -> tensor<1x8x8x1152xf32>\n  %635 = \"tfl.mul\"(%634, %111) <{fused_activation_function = \"NONE\"}> : (tensor<1x8x8x1152xf32>, tensor<1x1x1x1152xf32>) -> tensor<1x8x8x1152xf32>\n  %636 = \"tfl.add\"(%635, %110) <{fused_activation_function = \"NONE\"}> : (tensor<1x8x8x1152xf32>, tensor<1x1x1x1152xf32>) -> tensor<1x8x8x1152xf32>\n  %637 = \"tfl.cast\"(%636) : (tensor<1x8x8x1152xf32>) -> tensor<1x8x8x1152xf16>\n  %638 = \"tf.Sigmoid\"(%637) {device = \"\"} : (tensor<1x8x8x1152xf16>) -> tensor<1x8x8x1152xf16>\n  %639 = \"tf.Mul\"(%637, %638) {device = \"\"} : (tensor<1x8x8x1152xf16>, tensor<1x8x8x1152xf16>) -> tensor<1x8x8x1152xf16>\n  %640 = \"tfl.cast\"(%639) : (tensor<1x8x8x1152xf16>) -> tensor<1x8x8x1152xf32>\n  %641 = \"tfl.mean\"(%640, %270) <{keep_dims = false}> : (tensor<1x8x8x1152xf32>, tensor<2xi32>) -> tensor<1x1152xf32>\n  %642 = \"tfl.cast\"(%641) : (tensor<1x1152xf32>) -> tensor<1x1152xf16>\n  %643 = \"tfl.reshape\"(%642, %266) : (tensor<1x1152xf16>, tensor<4xi32>) -> tensor<1x1x1x1152xf16>\n  %644 = \"tf.Conv2D\"(%643, %99) <{data_format = \"NHWC\", dilations = [1, 1, 1, 1], explicit_paddings = [], padding = \"SAME\", strides = [1, 1, 1, 1], use_cudnn_on_gpu = true}> {device = \"\"} : (tensor<1x1x1x1152xf16>, tensor<1x1x1152x48xf16>) -> tensor<1x1x1x48xf16>\n  %645 = \"tf.BiasAdd\"(%644, %100) <{data_format = \"NHWC\"}> {device = \"\"} : (tensor<1x1x1x48xf16>, tensor<48xf16>) -> tensor<1x1x1x48xf16>\n  %646 = \"tf.Sigmoid\"(%645) {device = \"\"} : (tensor<1x1x1x48xf16>) -> tensor<1x1x1x48xf16>\n  %647 = \"tf.Mul\"(%645, %646) {device = \"\"} : (tensor<1x1x1x48xf16>, tensor<1x1x1x48xf16>) -> tensor<1x1x1x48xf16>\n  %648 = \"tf.Conv2D\"(%647, %101) <{data_format = \"NHWC\", dilations = [1, 1, 1, 1], explicit_paddings = [], padding = \"SAME\", strides = [1, 1, 1, 1], use_cudnn_on_gpu = true}> {device = \"\"} : (tensor<1x1x1x48xf16>, tensor<1x1x48x1152xf16>) -> tensor<1x1x1x1152xf16>\n  %649 = \"tf.BiasAdd\"(%648, %102) <{data_format = \"NHWC\"}> {device = \"\"} : (tensor<1x1x1x1152xf16>, tensor<1152xf16>) -> tensor<1x1x1x1152xf16>\n  %650 = \"tf.Sigmoid\"(%649) {device = \"\"} : (tensor<1x1x1x1152xf16>) -> tensor<1x1x1x1152xf16>\n  %651 = \"tf.Mul\"(%639, %650) {device = \"\"} : (tensor<1x8x8x1152xf16>, tensor<1x1x1x1152xf16>) -> tensor<1x8x8x1152xf16>\n  %652 = \"tf.Conv2D\"(%651, %103) <{data_format = \"NHWC\", dilations = [1, 1, 1, 1], explicit_paddings = [], padding = \"SAME\", strides = [1, 1, 1, 1], use_cudnn_on_gpu = true}> {device = \"\"} : (tensor<1x8x8x1152xf16>, tensor<1x1x1152x192xf16>) -> tensor<1x8x8x192xf16>\n  %653 = \"tfl.cast\"(%652) : (tensor<1x8x8x192xf16>) -> tensor<1x8x8x192xf32>\n  %654 = \"tfl.mul\"(%653, %105) <{fused_activation_function = \"NONE\"}> : (tensor<1x8x8x192xf32>, tensor<1x1x1x192xf32>) -> tensor<1x8x8x192xf32>\n  %655 = \"tfl.add\"(%654, %104) <{fused_activation_function = \"NONE\"}> : (tensor<1x8x8x192xf32>, tensor<1x1x1x192xf32>) -> tensor<1x8x8x192xf32>\n  %656 = \"tfl.cast\"(%655) : (tensor<1x8x8x192xf32>) -> tensor<1x8x8x192xf16>\n  %657 = \"tf.AddV2\"(%656, %625) {device = \"\"} : (tensor<1x8x8x192xf16>, tensor<1x8x8x192xf16>) -> tensor<1x8x8x192xf16>\n  %658 = \"tf.Conv2D\"(%657, %93) <{data_format = \"NHWC\", dilations = [1, 1, 1, 1], explicit_paddings = [], padding = \"SAME\", strides = [1, 1, 1, 1], use_cudnn_on_gpu = true}> {device = \"\"} : (tensor<1x8x8x192xf16>, tensor<1x1x192x1152xf16>) -> tensor<1x8x8x1152xf16>\n  %659 = \"tfl.cast\"(%658) : (tensor<1x8x8x1152xf16>) -> tensor<1x8x8x1152xf32>\n  %660 = \"tfl.mul\"(%659, %95) <{fused_activation_function = \"NONE\"}> : (tensor<1x8x8x1152xf32>, tensor<1x1x1x1152xf32>) -> tensor<1x8x8x1152xf32>\n  %661 = \"tfl.add\"(%660, %94) <{fused_activation_function = \"NONE\"}> : (tensor<1x8x8x1152xf32>, tensor<1x1x1x1152xf32>) -> tensor<1x8x8x1152xf32>\n  %662 = \"tfl.cast\"(%661) : (tensor<1x8x8x1152xf32>) -> tensor<1x8x8x1152xf16>\n  %663 = \"tf.Sigmoid\"(%662) {device = \"\"} : (tensor<1x8x8x1152xf16>) -> tensor<1x8x8x1152xf16>\n  %664 = \"tf.Mul\"(%662, %663) {device = \"\"} : (tensor<1x8x8x1152xf16>, tensor<1x8x8x1152xf16>) -> tensor<1x8x8x1152xf16>\n  %665 = \"tf.DepthwiseConv2dNative\"(%664, %96) <{data_format = \"NHWC\", dilations = [1, 1, 1, 1], explicit_paddings = [], padding = \"SAME\", strides = [1, 1, 1, 1]}> {device = \"\"} : (tensor<1x8x8x1152xf16>, tensor<3x3x1152x1xf16>) -> tensor<1x8x8x1152xf16>\n  %666 = \"tfl.cast\"(%665) : (tensor<1x8x8x1152xf16>) -> tensor<1x8x8x1152xf32>\n  %667 = \"tfl.mul\"(%666, %98) <{fused_activation_function = \"NONE\"}> : (tensor<1x8x8x1152xf32>, tensor<1x1x1x1152xf32>) -> tensor<1x8x8x1152xf32>\n  %668 = \"tfl.add\"(%667, %97) <{fused_activation_function = \"NONE\"}> : (tensor<1x8x8x1152xf32>, tensor<1x1x1x1152xf32>) -> tensor<1x8x8x1152xf32>\n  %669 = \"tfl.cast\"(%668) : (tensor<1x8x8x1152xf32>) -> tensor<1x8x8x1152xf16>\n  %670 = \"tf.Sigmoid\"(%669) {device = \"\"} : (tensor<1x8x8x1152xf16>) -> tensor<1x8x8x1152xf16>\n  %671 = \"tf.Mul\"(%669, %670) {device = \"\"} : (tensor<1x8x8x1152xf16>, tensor<1x8x8x1152xf16>) -> tensor<1x8x8x1152xf16>\n  %672 = \"tfl.cast\"(%671) : (tensor<1x8x8x1152xf16>) -> tensor<1x8x8x1152xf32>\n  %673 = \"tfl.mean\"(%672, %270) <{keep_dims = false}> : (tensor<1x8x8x1152xf32>, tensor<2xi32>) -> tensor<1x1152xf32>\n  %674 = \"tfl.cast\"(%673) : (tensor<1x1152xf32>) -> tensor<1x1152xf16>\n  %675 = \"tfl.reshape\"(%674, %266) : (tensor<1x1152xf16>, tensor<4xi32>) -> tensor<1x1x1x1152xf16>\n  %676 = \"tf.Conv2D\"(%675, %86) <{data_format = \"NHWC\", dilations = [1, 1, 1, 1], explicit_paddings = [], padding = \"SAME\", strides = [1, 1, 1, 1], use_cudnn_on_gpu = true}> {device = \"\"} : (tensor<1x1x1x1152xf16>, tensor<1x1x1152x48xf16>) -> tensor<1x1x1x48xf16>\n  %677 = \"tf.BiasAdd\"(%676, %87) <{data_format = \"NHWC\"}> {device = \"\"} : (tensor<1x1x1x48xf16>, tensor<48xf16>) -> tensor<1x1x1x48xf16>\n  %678 = \"tf.Sigmoid\"(%677) {device = \"\"} : (tensor<1x1x1x48xf16>) -> tensor<1x1x1x48xf16>\n  %679 = \"tf.Mul\"(%677, %678) {device = \"\"} : (tensor<1x1x1x48xf16>, tensor<1x1x1x48xf16>) -> tensor<1x1x1x48xf16>\n  %680 = \"tf.Conv2D\"(%679, %88) <{data_format = \"NHWC\", dilations = [1, 1, 1, 1], explicit_paddings = [], padding = \"SAME\", strides = [1, 1, 1, 1], use_cudnn_on_gpu = true}> {device = \"\"} : (tensor<1x1x1x48xf16>, tensor<1x1x48x1152xf16>) -> tensor<1x1x1x1152xf16>\n  %681 = \"tf.BiasAdd\"(%680, %89) <{data_format = \"NHWC\"}> {device = \"\"} : (tensor<1x1x1x1152xf16>, tensor<1152xf16>) -> tensor<1x1x1x1152xf16>\n  %682 = \"tf.Sigmoid\"(%681) {device = \"\"} : (tensor<1x1x1x1152xf16>) -> tensor<1x1x1x1152xf16>\n  %683 = \"tf.Mul\"(%671, %682) {device = \"\"} : (tensor<1x8x8x1152xf16>, tensor<1x1x1x1152xf16>) -> tensor<1x8x8x1152xf16>\n  %684 = \"tf.Conv2D\"(%683, %90) <{data_format = \"NHWC\", dilations = [1, 1, 1, 1], explicit_paddings = [], padding = \"SAME\", strides = [1, 1, 1, 1], use_cudnn_on_gpu = true}> {device = \"\"} : (tensor<1x8x8x1152xf16>, tensor<1x1x1152x192xf16>) -> tensor<1x8x8x192xf16>\n  %685 = \"tfl.cast\"(%684) : (tensor<1x8x8x192xf16>) -> tensor<1x8x8x192xf32>\n  %686 = \"tfl.mul\"(%685, %92) <{fused_activation_function = \"NONE\"}> : (tensor<1x8x8x192xf32>, tensor<1x1x1x192xf32>) -> tensor<1x8x8x192xf32>\n  %687 = \"tfl.add\"(%686, %91) <{fused_activation_function = \"NONE\"}> : (tensor<1x8x8x192xf32>, tensor<1x1x1x192xf32>) -> tensor<1x8x8x192xf32>\n  %688 = \"tfl.cast\"(%687) : (tensor<1x8x8x192xf32>) -> tensor<1x8x8x192xf16>\n  %689 = \"tf.AddV2\"(%688, %657) {device = \"\"} : (tensor<1x8x8x192xf16>, tensor<1x8x8x192xf16>) -> tensor<1x8x8x192xf16>\n  %690 = \"tf.Conv2D\"(%689, %80) <{data_format = \"NHWC\", dilations = [1, 1, 1, 1], explicit_paddings = [], padding = \"SAME\", strides = [1, 1, 1, 1], use_cudnn_on_gpu = true}> {device = \"\"} : (tensor<1x8x8x192xf16>, tensor<1x1x192x1152xf16>) -> tensor<1x8x8x1152xf16>\n  %691 = \"tfl.cast\"(%690) : (tensor<1x8x8x1152xf16>) -> tensor<1x8x8x1152xf32>\n  %692 = \"tfl.mul\"(%691, %82) <{fused_activation_function = \"NONE\"}> : (tensor<1x8x8x1152xf32>, tensor<1x1x1x1152xf32>) -> tensor<1x8x8x1152xf32>\n  %693 = \"tfl.add\"(%692, %81) <{fused_activation_function = \"NONE\"}> : (tensor<1x8x8x1152xf32>, tensor<1x1x1x1152xf32>) -> tensor<1x8x8x1152xf32>\n  %694 = \"tfl.cast\"(%693) : (tensor<1x8x8x1152xf32>) -> tensor<1x8x8x1152xf16>\n  %695 = \"tf.Sigmoid\"(%694) {device = \"\"} : (tensor<1x8x8x1152xf16>) -> tensor<1x8x8x1152xf16>\n  %696 = \"tf.Mul\"(%694, %695) {device = \"\"} : (tensor<1x8x8x1152xf16>, tensor<1x8x8x1152xf16>) -> tensor<1x8x8x1152xf16>\n  %697 = \"tf.DepthwiseConv2dNative\"(%696, %83) <{data_format = \"NHWC\", dilations = [1, 1, 1, 1], explicit_paddings = [], padding = \"SAME\", strides = [1, 1, 1, 1]}> {device = \"\"} : (tensor<1x8x8x1152xf16>, tensor<3x3x1152x1xf16>) -> tensor<1x8x8x1152xf16>\n  %698 = \"tfl.cast\"(%697) : (tensor<1x8x8x1152xf16>) -> tensor<1x8x8x1152xf32>\n  %699 = \"tfl.mul\"(%698, %85) <{fused_activation_function = \"NONE\"}> : (tensor<1x8x8x1152xf32>, tensor<1x1x1x1152xf32>) -> tensor<1x8x8x1152xf32>\n  %700 = \"tfl.add\"(%699, %84) <{fused_activation_function = \"NONE\"}> : (tensor<1x8x8x1152xf32>, tensor<1x1x1x1152xf32>) -> tensor<1x8x8x1152xf32>\n  %701 = \"tfl.cast\"(%700) : (tensor<1x8x8x1152xf32>) -> tensor<1x8x8x1152xf16>\n  %702 = \"tf.Sigmoid\"(%701) {device = \"\"} : (tensor<1x8x8x1152xf16>) -> tensor<1x8x8x1152xf16>\n  %703 = \"tf.Mul\"(%701, %702) {device = \"\"} : (tensor<1x8x8x1152xf16>, tensor<1x8x8x1152xf16>) -> tensor<1x8x8x1152xf16>\n  %704 = \"tfl.cast\"(%703) : (tensor<1x8x8x1152xf16>) -> tensor<1x8x8x1152xf32>\n  %705 = \"tfl.mean\"(%704, %270) <{keep_dims = false}> : (tensor<1x8x8x1152xf32>, tensor<2xi32>) -> tensor<1x1152xf32>\n  %706 = \"tfl.cast\"(%705) : (tensor<1x1152xf32>) -> tensor<1x1152xf16>\n  %707 = \"tfl.reshape\"(%706, %266) : (tensor<1x1152xf16>, tensor<4xi32>) -> tensor<1x1x1x1152xf16>\n  %708 = \"tf.Conv2D\"(%707, %73) <{data_format = \"NHWC\", dilations = [1, 1, 1, 1], explicit_paddings = [], padding = \"SAME\", strides = [1, 1, 1, 1], use_cudnn_on_gpu = true}> {device = \"\"} : (tensor<1x1x1x1152xf16>, tensor<1x1x1152x48xf16>) -> tensor<1x1x1x48xf16>\n  %709 = \"tf.BiasAdd\"(%708, %74) <{data_format = \"NHWC\"}> {device = \"\"} : (tensor<1x1x1x48xf16>, tensor<48xf16>) -> tensor<1x1x1x48xf16>\n  %710 = \"tf.Sigmoid\"(%709) {device = \"\"} : (tensor<1x1x1x48xf16>) -> tensor<1x1x1x48xf16>\n  %711 = \"tf.Mul\"(%709, %710) {device = \"\"} : (tensor<1x1x1x48xf16>, tensor<1x1x1x48xf16>) -> tensor<1x1x1x48xf16>\n  %712 = \"tf.Conv2D\"(%711, %75) <{data_format = \"NHWC\", dilations = [1, 1, 1, 1], explicit_paddings = [], padding = \"SAME\", strides = [1, 1, 1, 1], use_cudnn_on_gpu = true}> {device = \"\"} : (tensor<1x1x1x48xf16>, tensor<1x1x48x1152xf16>) -> tensor<1x1x1x1152xf16>\n  %713 = \"tf.BiasAdd\"(%712, %76) <{data_format = \"NHWC\"}> {device = \"\"} : (tensor<1x1x1x1152xf16>, tensor<1152xf16>) -> tensor<1x1x1x1152xf16>\n  %714 = \"tf.Sigmoid\"(%713) {device = \"\"} : (tensor<1x1x1x1152xf16>) -> tensor<1x1x1x1152xf16>\n  %715 = \"tf.Mul\"(%703, %714) {device = \"\"} : (tensor<1x8x8x1152xf16>, tensor<1x1x1x1152xf16>) -> tensor<1x8x8x1152xf16>\n  %716 = \"tf.Conv2D\"(%715, %77) <{data_format = \"NHWC\", dilations = [1, 1, 1, 1], explicit_paddings = [], padding = \"SAME\", strides = [1, 1, 1, 1], use_cudnn_on_gpu = true}> {device = \"\"} : (tensor<1x8x8x1152xf16>, tensor<1x1x1152x192xf16>) -> tensor<1x8x8x192xf16>\n  %717 = \"tfl.cast\"(%716) : (tensor<1x8x8x192xf16>) -> tensor<1x8x8x192xf32>\n  %718 = \"tfl.mul\"(%717, %79) <{fused_activation_function = \"NONE\"}> : (tensor<1x8x8x192xf32>, tensor<1x1x1x192xf32>) -> tensor<1x8x8x192xf32>\n  %719 = \"tfl.add\"(%718, %78) <{fused_activation_function = \"NONE\"}> : (tensor<1x8x8x192xf32>, tensor<1x1x1x192xf32>) -> tensor<1x8x8x192xf32>\n  %720 = \"tfl.cast\"(%719) : (tensor<1x8x8x192xf32>) -> tensor<1x8x8x192xf16>\n  %721 = \"tf.AddV2\"(%720, %689) {device = \"\"} : (tensor<1x8x8x192xf16>, tensor<1x8x8x192xf16>) -> tensor<1x8x8x192xf16>\n  %722 = \"tf.Conv2D\"(%721, %67) <{data_format = \"NHWC\", dilations = [1, 1, 1, 1], explicit_paddings = [], padding = \"SAME\", strides = [1, 1, 1, 1], use_cudnn_on_gpu = true}> {device = \"\"} : (tensor<1x8x8x192xf16>, tensor<1x1x192x1152xf16>) -> tensor<1x8x8x1152xf16>\n  %723 = \"tfl.cast\"(%722) : (tensor<1x8x8x1152xf16>) -> tensor<1x8x8x1152xf32>\n  %724 = \"tfl.mul\"(%723, %69) <{fused_activation_function = \"NONE\"}> : (tensor<1x8x8x1152xf32>, tensor<1x1x1x1152xf32>) -> tensor<1x8x8x1152xf32>\n  %725 = \"tfl.add\"(%724, %68) <{fused_activation_function = \"NONE\"}> : (tensor<1x8x8x1152xf32>, tensor<1x1x1x1152xf32>) -> tensor<1x8x8x1152xf32>\n  %726 = \"tfl.cast\"(%725) : (tensor<1x8x8x1152xf32>) -> tensor<1x8x8x1152xf16>\n  %727 = \"tf.Sigmoid\"(%726) {device = \"\"} : (tensor<1x8x8x1152xf16>) -> tensor<1x8x8x1152xf16>\n  %728 = \"tf.Mul\"(%726, %727) {device = \"\"} : (tensor<1x8x8x1152xf16>, tensor<1x8x8x1152xf16>) -> tensor<1x8x8x1152xf16>\n  %729 = \"tf.DepthwiseConv2dNative\"(%728, %70) <{data_format = \"NHWC\", dilations = [1, 1, 1, 1], explicit_paddings = [], padding = \"SAME\", strides = [1, 1, 1, 1]}> {device = \"\"} : (tensor<1x8x8x1152xf16>, tensor<3x3x1152x1xf16>) -> tensor<1x8x8x1152xf16>\n  %730 = \"tfl.cast\"(%729) : (tensor<1x8x8x1152xf16>) -> tensor<1x8x8x1152xf32>\n  %731 = \"tfl.mul\"(%730, %72) <{fused_activation_function = \"NONE\"}> : (tensor<1x8x8x1152xf32>, tensor<1x1x1x1152xf32>) -> tensor<1x8x8x1152xf32>\n  %732 = \"tfl.add\"(%731, %71) <{fused_activation_function = \"NONE\"}> : (tensor<1x8x8x1152xf32>, tensor<1x1x1x1152xf32>) -> tensor<1x8x8x1152xf32>\n  %733 = \"tfl.cast\"(%732) : (tensor<1x8x8x1152xf32>) -> tensor<1x8x8x1152xf16>\n  %734 = \"tf.Sigmoid\"(%733) {device = \"\"} : (tensor<1x8x8x1152xf16>) -> tensor<1x8x8x1152xf16>\n  %735 = \"tf.Mul\"(%733, %734) {device = \"\"} : (tensor<1x8x8x1152xf16>, tensor<1x8x8x1152xf16>) -> tensor<1x8x8x1152xf16>\n  %736 = \"tfl.cast\"(%735) : (tensor<1x8x8x1152xf16>) -> tensor<1x8x8x1152xf32>\n  %737 = \"tfl.mean\"(%736, %270) <{keep_dims = false}> : (tensor<1x8x8x1152xf32>, tensor<2xi32>) -> tensor<1x1152xf32>\n  %738 = \"tfl.cast\"(%737) : (tensor<1x1152xf32>) -> tensor<1x1152xf16>\n  %739 = \"tfl.reshape\"(%738, %266) : (tensor<1x1152xf16>, tensor<4xi32>) -> tensor<1x1x1x1152xf16>\n  %740 = \"tf.Conv2D\"(%739, %60) <{data_format = \"NHWC\", dilations = [1, 1, 1, 1], explicit_paddings = [], padding = \"SAME\", strides = [1, 1, 1, 1], use_cudnn_on_gpu = true}> {device = \"\"} : (tensor<1x1x1x1152xf16>, tensor<1x1x1152x48xf16>) -> tensor<1x1x1x48xf16>\n  %741 = \"tf.BiasAdd\"(%740, %61) <{data_format = \"NHWC\"}> {device = \"\"} : (tensor<1x1x1x48xf16>, tensor<48xf16>) -> tensor<1x1x1x48xf16>\n  %742 = \"tf.Sigmoid\"(%741) {device = \"\"} : (tensor<1x1x1x48xf16>) -> tensor<1x1x1x48xf16>\n  %743 = \"tf.Mul\"(%741, %742) {device = \"\"} : (tensor<1x1x1x48xf16>, tensor<1x1x1x48xf16>) -> tensor<1x1x1x48xf16>\n  %744 = \"tf.Conv2D\"(%743, %62) <{data_format = \"NHWC\", dilations = [1, 1, 1, 1], explicit_paddings = [], padding = \"SAME\", strides = [1, 1, 1, 1], use_cudnn_on_gpu = true}> {device = \"\"} : (tensor<1x1x1x48xf16>, tensor<1x1x48x1152xf16>) -> tensor<1x1x1x1152xf16>\n  %745 = \"tf.BiasAdd\"(%744, %63) <{data_format = \"NHWC\"}> {device = \"\"} : (tensor<1x1x1x1152xf16>, tensor<1152xf16>) -> tensor<1x1x1x1152xf16>\n  %746 = \"tf.Sigmoid\"(%745) {device = \"\"} : (tensor<1x1x1x1152xf16>) -> tensor<1x1x1x1152xf16>\n  %747 = \"tf.Mul\"(%735, %746) {device = \"\"} : (tensor<1x8x8x1152xf16>, tensor<1x1x1x1152xf16>) -> tensor<1x8x8x1152xf16>\n  %748 = \"tf.Conv2D\"(%747, %64) <{data_format = \"NHWC\", dilations = [1, 1, 1, 1], explicit_paddings = [], padding = \"SAME\", strides = [1, 1, 1, 1], use_cudnn_on_gpu = true}> {device = \"\"} : (tensor<1x8x8x1152xf16>, tensor<1x1x1152x192xf16>) -> tensor<1x8x8x192xf16>\n  %749 = \"tfl.cast\"(%748) : (tensor<1x8x8x192xf16>) -> tensor<1x8x8x192xf32>\n  %750 = \"tfl.mul\"(%749, %66) <{fused_activation_function = \"NONE\"}> : (tensor<1x8x8x192xf32>, tensor<1x1x1x192xf32>) -> tensor<1x8x8x192xf32>\n  %751 = \"tfl.add\"(%750, %65) <{fused_activation_function = \"NONE\"}> : (tensor<1x8x8x192xf32>, tensor<1x1x1x192xf32>) -> tensor<1x8x8x192xf32>\n  %752 = \"tfl.cast\"(%751) : (tensor<1x8x8x192xf32>) -> tensor<1x8x8x192xf16>\n  %753 = \"tf.AddV2\"(%752, %721) {device = \"\"} : (tensor<1x8x8x192xf16>, tensor<1x8x8x192xf16>) -> tensor<1x8x8x192xf16>\n  %754 = \"tf.Conv2D\"(%753, %54) <{data_format = \"NHWC\", dilations = [1, 1, 1, 1], explicit_paddings = [], padding = \"SAME\", strides = [1, 1, 1, 1], use_cudnn_on_gpu = true}> {device = \"\"} : (tensor<1x8x8x192xf16>, tensor<1x1x192x1152xf16>) -> tensor<1x8x8x1152xf16>\n  %755 = \"tfl.cast\"(%754) : (tensor<1x8x8x1152xf16>) -> tensor<1x8x8x1152xf32>\n  %756 = \"tfl.mul\"(%755, %56) <{fused_activation_function = \"NONE\"}> : (tensor<1x8x8x1152xf32>, tensor<1x1x1x1152xf32>) -> tensor<1x8x8x1152xf32>\n  %757 = \"tfl.add\"(%756, %55) <{fused_activation_function = \"NONE\"}> : (tensor<1x8x8x1152xf32>, tensor<1x1x1x1152xf32>) -> tensor<1x8x8x1152xf32>\n  %758 = \"tfl.cast\"(%757) : (tensor<1x8x8x1152xf32>) -> tensor<1x8x8x1152xf16>\n  %759 = \"tf.Sigmoid\"(%758) {device = \"\"} : (tensor<1x8x8x1152xf16>) -> tensor<1x8x8x1152xf16>\n  %760 = \"tf.Mul\"(%758, %759) {device = \"\"} : (tensor<1x8x8x1152xf16>, tensor<1x8x8x1152xf16>) -> tensor<1x8x8x1152xf16>\n  %761 = \"tf.DepthwiseConv2dNative\"(%760, %57) <{data_format = \"NHWC\", dilations = [1, 1, 1, 1], explicit_paddings = [], padding = \"SAME\", strides = [1, 1, 1, 1]}> {device = \"\"} : (tensor<1x8x8x1152xf16>, tensor<3x3x1152x1xf16>) -> tensor<1x8x8x1152xf16>\n  %762 = \"tfl.cast\"(%761) : (tensor<1x8x8x1152xf16>) -> tensor<1x8x8x1152xf32>\n  %763 = \"tfl.mul\"(%762, %59) <{fused_activation_function = \"NONE\"}> : (tensor<1x8x8x1152xf32>, tensor<1x1x1x1152xf32>) -> tensor<1x8x8x1152xf32>\n  %764 = \"tfl.add\"(%763, %58) <{fused_activation_function = \"NONE\"}> : (tensor<1x8x8x1152xf32>, tensor<1x1x1x1152xf32>) -> tensor<1x8x8x1152xf32>\n  %765 = \"tfl.cast\"(%764) : (tensor<1x8x8x1152xf32>) -> tensor<1x8x8x1152xf16>\n  %766 = \"tf.Sigmoid\"(%765) {device = \"\"} : (tensor<1x8x8x1152xf16>) -> tensor<1x8x8x1152xf16>\n  %767 = \"tf.Mul\"(%765, %766) {device = \"\"} : (tensor<1x8x8x1152xf16>, tensor<1x8x8x1152xf16>) -> tensor<1x8x8x1152xf16>\n  %768 = \"tfl.cast\"(%767) : (tensor<1x8x8x1152xf16>) -> tensor<1x8x8x1152xf32>\n  %769 = \"tfl.mean\"(%768, %270) <{keep_dims = false}> : (tensor<1x8x8x1152xf32>, tensor<2xi32>) -> tensor<1x1152xf32>\n  %770 = \"tfl.cast\"(%769) : (tensor<1x1152xf32>) -> tensor<1x1152xf16>\n  %771 = \"tfl.reshape\"(%770, %266) : (tensor<1x1152xf16>, tensor<4xi32>) -> tensor<1x1x1x1152xf16>\n  %772 = \"tf.Conv2D\"(%771, %47) <{data_format = \"NHWC\", dilations = [1, 1, 1, 1], explicit_paddings = [], padding = \"SAME\", strides = [1, 1, 1, 1], use_cudnn_on_gpu = true}> {device = \"\"} : (tensor<1x1x1x1152xf16>, tensor<1x1x1152x48xf16>) -> tensor<1x1x1x48xf16>\n  %773 = \"tf.BiasAdd\"(%772, %48) <{data_format = \"NHWC\"}> {device = \"\"} : (tensor<1x1x1x48xf16>, tensor<48xf16>) -> tensor<1x1x1x48xf16>\n  %774 = \"tf.Sigmoid\"(%773) {device = \"\"} : (tensor<1x1x1x48xf16>) -> tensor<1x1x1x48xf16>\n  %775 = \"tf.Mul\"(%773, %774) {device = \"\"} : (tensor<1x1x1x48xf16>, tensor<1x1x1x48xf16>) -> tensor<1x1x1x48xf16>\n  %776 = \"tf.Conv2D\"(%775, %49) <{data_format = \"NHWC\", dilations = [1, 1, 1, 1], explicit_paddings = [], padding = \"SAME\", strides = [1, 1, 1, 1], use_cudnn_on_gpu = true}> {device = \"\"} : (tensor<1x1x1x48xf16>, tensor<1x1x48x1152xf16>) -> tensor<1x1x1x1152xf16>\n  %777 = \"tf.BiasAdd\"(%776, %50) <{data_format = \"NHWC\"}> {device = \"\"} : (tensor<1x1x1x1152xf16>, tensor<1152xf16>) -> tensor<1x1x1x1152xf16>\n  %778 = \"tf.Sigmoid\"(%777) {device = \"\"} : (tensor<1x1x1x1152xf16>) -> tensor<1x1x1x1152xf16>\n  %779 = \"tf.Mul\"(%767, %778) {device = \"\"} : (tensor<1x8x8x1152xf16>, tensor<1x1x1x1152xf16>) -> tensor<1x8x8x1152xf16>\n  %780 = \"tf.Conv2D\"(%779, %51) <{data_format = \"NHWC\", dilations = [1, 1, 1, 1], explicit_paddings = [], padding = \"SAME\", strides = [1, 1, 1, 1], use_cudnn_on_gpu = true}> {device = \"\"} : (tensor<1x8x8x1152xf16>, tensor<1x1x1152x192xf16>) -> tensor<1x8x8x192xf16>\n  %781 = \"tfl.cast\"(%780) : (tensor<1x8x8x192xf16>) -> tensor<1x8x8x192xf32>\n  %782 = \"tfl.mul\"(%781, %53) <{fused_activation_function = \"NONE\"}> : (tensor<1x8x8x192xf32>, tensor<1x1x1x192xf32>) -> tensor<1x8x8x192xf32>\n  %783 = \"tfl.add\"(%782, %52) <{fused_activation_function = \"NONE\"}> : (tensor<1x8x8x192xf32>, tensor<1x1x1x192xf32>) -> tensor<1x8x8x192xf32>\n  %784 = \"tfl.cast\"(%783) : (tensor<1x8x8x192xf32>) -> tensor<1x8x8x192xf16>\n  %785 = \"tf.AddV2\"(%784, %753) {device = \"\"} : (tensor<1x8x8x192xf16>, tensor<1x8x8x192xf16>) -> tensor<1x8x8x192xf16>\n  %786 = \"tf.Conv2D\"(%785, %41) <{data_format = \"NHWC\", dilations = [1, 1, 1, 1], explicit_paddings = [], padding = \"SAME\", strides = [1, 1, 1, 1], use_cudnn_on_gpu = true}> {device = \"\"} : (tensor<1x8x8x192xf16>, tensor<1x1x192x1152xf16>) -> tensor<1x8x8x1152xf16>\n  %787 = \"tfl.cast\"(%786) : (tensor<1x8x8x1152xf16>) -> tensor<1x8x8x1152xf32>\n  %788 = \"tfl.mul\"(%787, %43) <{fused_activation_function = \"NONE\"}> : (tensor<1x8x8x1152xf32>, tensor<1x1x1x1152xf32>) -> tensor<1x8x8x1152xf32>\n  %789 = \"tfl.add\"(%788, %42) <{fused_activation_function = \"NONE\"}> : (tensor<1x8x8x1152xf32>, tensor<1x1x1x1152xf32>) -> tensor<1x8x8x1152xf32>\n  %790 = \"tfl.cast\"(%789) : (tensor<1x8x8x1152xf32>) -> tensor<1x8x8x1152xf16>\n  %791 = \"tf.Sigmoid\"(%790) {device = \"\"} : (tensor<1x8x8x1152xf16>) -> tensor<1x8x8x1152xf16>\n  %792 = \"tf.Mul\"(%790, %791) {device = \"\"} : (tensor<1x8x8x1152xf16>, tensor<1x8x8x1152xf16>) -> tensor<1x8x8x1152xf16>\n  %793 = \"tf.DepthwiseConv2dNative\"(%792, %44) <{data_format = \"NHWC\", dilations = [1, 1, 1, 1], explicit_paddings = [], padding = \"SAME\", strides = [1, 1, 1, 1]}> {device = \"\"} : (tensor<1x8x8x1152xf16>, tensor<3x3x1152x1xf16>) -> tensor<1x8x8x1152xf16>\n  %794 = \"tfl.cast\"(%793) : (tensor<1x8x8x1152xf16>) -> tensor<1x8x8x1152xf32>\n  %795 = \"tfl.mul\"(%794, %46) <{fused_activation_function = \"NONE\"}> : (tensor<1x8x8x1152xf32>, tensor<1x1x1x1152xf32>) -> tensor<1x8x8x1152xf32>\n  %796 = \"tfl.add\"(%795, %45) <{fused_activation_function = \"NONE\"}> : (tensor<1x8x8x1152xf32>, tensor<1x1x1x1152xf32>) -> tensor<1x8x8x1152xf32>\n  %797 = \"tfl.cast\"(%796) : (tensor<1x8x8x1152xf32>) -> tensor<1x8x8x1152xf16>\n  %798 = \"tf.Sigmoid\"(%797) {device = \"\"} : (tensor<1x8x8x1152xf16>) -> tensor<1x8x8x1152xf16>\n  %799 = \"tf.Mul\"(%797, %798) {device = \"\"} : (tensor<1x8x8x1152xf16>, tensor<1x8x8x1152xf16>) -> tensor<1x8x8x1152xf16>\n  %800 = \"tfl.cast\"(%799) : (tensor<1x8x8x1152xf16>) -> tensor<1x8x8x1152xf32>\n  %801 = \"tfl.mean\"(%800, %270) <{keep_dims = false}> : (tensor<1x8x8x1152xf32>, tensor<2xi32>) -> tensor<1x1152xf32>\n  %802 = \"tfl.cast\"(%801) : (tensor<1x1152xf32>) -> tensor<1x1152xf16>\n  %803 = \"tfl.reshape\"(%802, %266) : (tensor<1x1152xf16>, tensor<4xi32>) -> tensor<1x1x1x1152xf16>\n  %804 = \"tf.Conv2D\"(%803, %34) <{data_format = \"NHWC\", dilations = [1, 1, 1, 1], explicit_paddings = [], padding = \"SAME\", strides = [1, 1, 1, 1], use_cudnn_on_gpu = true}> {device = \"\"} : (tensor<1x1x1x1152xf16>, tensor<1x1x1152x48xf16>) -> tensor<1x1x1x48xf16>\n  %805 = \"tf.BiasAdd\"(%804, %35) <{data_format = \"NHWC\"}> {device = \"\"} : (tensor<1x1x1x48xf16>, tensor<48xf16>) -> tensor<1x1x1x48xf16>\n  %806 = \"tf.Sigmoid\"(%805) {device = \"\"} : (tensor<1x1x1x48xf16>) -> tensor<1x1x1x48xf16>\n  %807 = \"tf.Mul\"(%805, %806) {device = \"\"} : (tensor<1x1x1x48xf16>, tensor<1x1x1x48xf16>) -> tensor<1x1x1x48xf16>\n  %808 = \"tf.Conv2D\"(%807, %36) <{data_format = \"NHWC\", dilations = [1, 1, 1, 1], explicit_paddings = [], padding = \"SAME\", strides = [1, 1, 1, 1], use_cudnn_on_gpu = true}> {device = \"\"} : (tensor<1x1x1x48xf16>, tensor<1x1x48x1152xf16>) -> tensor<1x1x1x1152xf16>\n  %809 = \"tf.BiasAdd\"(%808, %37) <{data_format = \"NHWC\"}> {device = \"\"} : (tensor<1x1x1x1152xf16>, tensor<1152xf16>) -> tensor<1x1x1x1152xf16>\n  %810 = \"tf.Sigmoid\"(%809) {device = \"\"} : (tensor<1x1x1x1152xf16>) -> tensor<1x1x1x1152xf16>\n  %811 = \"tf.Mul\"(%799, %810) {device = \"\"} : (tensor<1x8x8x1152xf16>, tensor<1x1x1x1152xf16>) -> tensor<1x8x8x1152xf16>\n  %812 = \"tf.Conv2D\"(%811, %38) <{data_format = \"NHWC\", dilations = [1, 1, 1, 1], explicit_paddings = [], padding = \"SAME\", strides = [1, 1, 1, 1], use_cudnn_on_gpu = true}> {device = \"\"} : (tensor<1x8x8x1152xf16>, tensor<1x1x1152x192xf16>) -> tensor<1x8x8x192xf16>\n  %813 = \"tfl.cast\"(%812) : (tensor<1x8x8x192xf16>) -> tensor<1x8x8x192xf32>\n  %814 = \"tfl.mul\"(%813, %40) <{fused_activation_function = \"NONE\"}> : (tensor<1x8x8x192xf32>, tensor<1x1x1x192xf32>) -> tensor<1x8x8x192xf32>\n  %815 = \"tfl.add\"(%814, %39) <{fused_activation_function = \"NONE\"}> : (tensor<1x8x8x192xf32>, tensor<1x1x1x192xf32>) -> tensor<1x8x8x192xf32>\n  %816 = \"tfl.cast\"(%815) : (tensor<1x8x8x192xf32>) -> tensor<1x8x8x192xf16>\n  %817 = \"tf.AddV2\"(%816, %785) {device = \"\"} : (tensor<1x8x8x192xf16>, tensor<1x8x8x192xf16>) -> tensor<1x8x8x192xf16>\n  %818 = \"tf.Conv2D\"(%817, %28) <{data_format = \"NHWC\", dilations = [1, 1, 1, 1], explicit_paddings = [], padding = \"SAME\", strides = [1, 1, 1, 1], use_cudnn_on_gpu = true}> {device = \"\"} : (tensor<1x8x8x192xf16>, tensor<1x1x192x1152xf16>) -> tensor<1x8x8x1152xf16>\n  %819 = \"tfl.cast\"(%818) : (tensor<1x8x8x1152xf16>) -> tensor<1x8x8x1152xf32>\n  %820 = \"tfl.mul\"(%819, %30) <{fused_activation_function = \"NONE\"}> : (tensor<1x8x8x1152xf32>, tensor<1x1x1x1152xf32>) -> tensor<1x8x8x1152xf32>\n  %821 = \"tfl.add\"(%820, %29) <{fused_activation_function = \"NONE\"}> : (tensor<1x8x8x1152xf32>, tensor<1x1x1x1152xf32>) -> tensor<1x8x8x1152xf32>\n  %822 = \"tfl.cast\"(%821) : (tensor<1x8x8x1152xf32>) -> tensor<1x8x8x1152xf16>\n  %823 = \"tf.Sigmoid\"(%822) {device = \"\"} : (tensor<1x8x8x1152xf16>) -> tensor<1x8x8x1152xf16>\n  %824 = \"tf.Mul\"(%822, %823) {device = \"\"} : (tensor<1x8x8x1152xf16>, tensor<1x8x8x1152xf16>) -> tensor<1x8x8x1152xf16>\n  %825 = \"tf.DepthwiseConv2dNative\"(%824, %31) <{data_format = \"NHWC\", dilations = [1, 1, 1, 1], explicit_paddings = [], padding = \"SAME\", strides = [1, 1, 1, 1]}> {device = \"\"} : (tensor<1x8x8x1152xf16>, tensor<3x3x1152x1xf16>) -> tensor<1x8x8x1152xf16>\n  %826 = \"tfl.cast\"(%825) : (tensor<1x8x8x1152xf16>) -> tensor<1x8x8x1152xf32>\n  %827 = \"tfl.mul\"(%826, %33) <{fused_activation_function = \"NONE\"}> : (tensor<1x8x8x1152xf32>, tensor<1x1x1x1152xf32>) -> tensor<1x8x8x1152xf32>\n  %828 = \"tfl.add\"(%827, %32) <{fused_activation_function = \"NONE\"}> : (tensor<1x8x8x1152xf32>, tensor<1x1x1x1152xf32>) -> tensor<1x8x8x1152xf32>\n  %829 = \"tfl.cast\"(%828) : (tensor<1x8x8x1152xf32>) -> tensor<1x8x8x1152xf16>\n  %830 = \"tf.Sigmoid\"(%829) {device = \"\"} : (tensor<1x8x8x1152xf16>) -> tensor<1x8x8x1152xf16>\n  %831 = \"tf.Mul\"(%829, %830) {device = \"\"} : (tensor<1x8x8x1152xf16>, tensor<1x8x8x1152xf16>) -> tensor<1x8x8x1152xf16>\n  %832 = \"tfl.cast\"(%831) : (tensor<1x8x8x1152xf16>) -> tensor<1x8x8x1152xf32>\n  %833 = \"tfl.mean\"(%832, %270) <{keep_dims = false}> : (tensor<1x8x8x1152xf32>, tensor<2xi32>) -> tensor<1x1152xf32>\n  %834 = \"tfl.cast\"(%833) : (tensor<1x1152xf32>) -> tensor<1x1152xf16>\n  %835 = \"tfl.reshape\"(%834, %266) : (tensor<1x1152xf16>, tensor<4xi32>) -> tensor<1x1x1x1152xf16>\n  %836 = \"tf.Conv2D\"(%835, %21) <{data_format = \"NHWC\", dilations = [1, 1, 1, 1], explicit_paddings = [], padding = \"SAME\", strides = [1, 1, 1, 1], use_cudnn_on_gpu = true}> {device = \"\"} : (tensor<1x1x1x1152xf16>, tensor<1x1x1152x48xf16>) -> tensor<1x1x1x48xf16>\n  %837 = \"tf.BiasAdd\"(%836, %22) <{data_format = \"NHWC\"}> {device = \"\"} : (tensor<1x1x1x48xf16>, tensor<48xf16>) -> tensor<1x1x1x48xf16>\n  %838 = \"tf.Sigmoid\"(%837) {device = \"\"} : (tensor<1x1x1x48xf16>) -> tensor<1x1x1x48xf16>\n  %839 = \"tf.Mul\"(%837, %838) {device = \"\"} : (tensor<1x1x1x48xf16>, tensor<1x1x1x48xf16>) -> tensor<1x1x1x48xf16>\n  %840 = \"tf.Conv2D\"(%839, %23) <{data_format = \"NHWC\", dilations = [1, 1, 1, 1], explicit_paddings = [], padding = \"SAME\", strides = [1, 1, 1, 1], use_cudnn_on_gpu = true}> {device = \"\"} : (tensor<1x1x1x48xf16>, tensor<1x1x48x1152xf16>) -> tensor<1x1x1x1152xf16>\n  %841 = \"tf.BiasAdd\"(%840, %24) <{data_format = \"NHWC\"}> {device = \"\"} : (tensor<1x1x1x1152xf16>, tensor<1152xf16>) -> tensor<1x1x1x1152xf16>\n  %842 = \"tf.Sigmoid\"(%841) {device = \"\"} : (tensor<1x1x1x1152xf16>) -> tensor<1x1x1x1152xf16>\n  %843 = \"tf.Mul\"(%831, %842) {device = \"\"} : (tensor<1x8x8x1152xf16>, tensor<1x1x1x1152xf16>) -> tensor<1x8x8x1152xf16>\n  %844 = \"tf.Conv2D\"(%843, %25) <{data_format = \"NHWC\", dilations = [1, 1, 1, 1], explicit_paddings = [], padding = \"SAME\", strides = [1, 1, 1, 1], use_cudnn_on_gpu = true}> {device = \"\"} : (tensor<1x8x8x1152xf16>, tensor<1x1x1152x192xf16>) -> tensor<1x8x8x192xf16>\n  %845 = \"tfl.cast\"(%844) : (tensor<1x8x8x192xf16>) -> tensor<1x8x8x192xf32>\n  %846 = \"tfl.mul\"(%845, %27) <{fused_activation_function = \"NONE\"}> : (tensor<1x8x8x192xf32>, tensor<1x1x1x192xf32>) -> tensor<1x8x8x192xf32>\n  %847 = \"tfl.add\"(%846, %26) <{fused_activation_function = \"NONE\"}> : (tensor<1x8x8x192xf32>, tensor<1x1x1x192xf32>) -> tensor<1x8x8x192xf32>\n  %848 = \"tfl.cast\"(%847) : (tensor<1x8x8x192xf32>) -> tensor<1x8x8x192xf16>\n  %849 = \"tf.AddV2\"(%848, %817) {device = \"\"} : (tensor<1x8x8x192xf16>, tensor<1x8x8x192xf16>) -> tensor<1x8x8x192xf16>\n  %850 = \"tf.Conv2D\"(%849, %15) <{data_format = \"NHWC\", dilations = [1, 1, 1, 1], explicit_paddings = [], padding = \"SAME\", strides = [1, 1, 1, 1], use_cudnn_on_gpu = true}> {device = \"\"} : (tensor<1x8x8x192xf16>, tensor<1x1x192x1280xf16>) -> tensor<1x8x8x1280xf16>\n  %851 = \"tfl.cast\"(%850) : (tensor<1x8x8x1280xf16>) -> tensor<1x8x8x1280xf32>\n  %852 = \"tfl.mul\"(%851, %17) <{fused_activation_function = \"NONE\"}> : (tensor<1x8x8x1280xf32>, tensor<1x1x1x1280xf32>) -> tensor<1x8x8x1280xf32>\n  %853 = \"tfl.add\"(%852, %16) <{fused_activation_function = \"NONE\"}> : (tensor<1x8x8x1280xf32>, tensor<1x1x1x1280xf32>) -> tensor<1x8x8x1280xf32>\n  %854 = \"tfl.cast\"(%853) : (tensor<1x8x8x1280xf32>) -> tensor<1x8x8x1280xf16>\n  %855 = \"tf.Sigmoid\"(%854) {device = \"\"} : (tensor<1x8x8x1280xf16>) -> tensor<1x8x8x1280xf16>\n  %856 = \"tf.Mul\"(%854, %855) {device = \"\"} : (tensor<1x8x8x1280xf16>, tensor<1x8x8x1280xf16>) -> tensor<1x8x8x1280xf16>\n  %857 = \"tfl.matrix_diag\"(%258) : (tensor<1x64xf32>) -> tensor<1x64x64xf32>\n  %858 = \"tf.Conv2D\"(%856, %6) <{data_format = \"NHWC\", dilations = [1, 1, 1, 1], explicit_paddings = [], padding = \"SAME\", strides = [1, 1, 1, 1], use_cudnn_on_gpu = true}> {device = \"\"} : (tensor<1x8x8x1280xf16>, tensor<1x1x1280x256xf16>) -> tensor<1x8x8x256xf16>\n  %859 = \"tf.BiasAdd\"(%858, %7) <{data_format = \"NHWC\"}> {device = \"\"} : (tensor<1x8x8x256xf16>, tensor<256xf16>) -> tensor<1x8x8x256xf16>\n  %860 = \"tf.Relu\"(%859) {device = \"\"} : (tensor<1x8x8x256xf16>) -> tensor<1x8x8x256xf16>\n  %861 = \"tfl.cast\"(%860) : (tensor<1x8x8x256xf16>) -> tensor<1x8x8x256xf32>\n  %862 = \"tfl.mean\"(%861, %270) <{keep_dims = false}> : (tensor<1x8x8x256xf32>, tensor<2xi32>) -> tensor<1x256xf32>\n  %863 = \"tfl.cast\"(%862) : (tensor<1x256xf32>) -> tensor<1x256xf16>\n  %864 = \"tfl.reshape\"(%860, %261) : (tensor<1x8x8x256xf16>, tensor<3xi32>) -> tensor<1x64x256xf16>\n  %865 = \"tfl.cast\"(%864) : (tensor<1x64x256xf16>) -> tensor<1x64x256xf32>\n  %866 = \"tfl.l2_normalization\"(%865) <{fused_activation_function = \"NONE\"}> : (tensor<1x64x256xf32>) -> tensor<1x64x256xf32>\n  %867 = \"tfl.batch_matmul\"(%866, %866) <{adj_x = false, adj_y = true}> : (tensor<1x64x256xf32>, tensor<1x64x256xf32>) -> tensor<1x64x64xf32>\n  %868 = \"tfl.mul\"(%867, %257) <{fused_activation_function = \"NONE\"}> : (tensor<1x64x64xf32>, tensor<f32>) -> tensor<1x64x64xf32>\n  %869 = \"tfl.softmax\"(%868) <{beta = 1.000000e+00 : f32}> : (tensor<1x64x64xf32>) -> tensor<1x64x64xf32>\n  %870 = \"tfl.add\"(%869, %857) <{fused_activation_function = \"NONE\"}> : (tensor<1x64x64xf32>, tensor<1x64x64xf32>) -> tensor<1x64x64xf32>\n  %871 = \"tfl.sum\"(%870, %272) <{keep_dims = true}> : (tensor<1x64x64xf32>, tensor<i32>) -> tensor<1x64x1xf32>\n  %872 = \"tfl.maximum\"(%871, %264) : (tensor<1x64x1xf32>, tensor<f32>) -> tensor<1x64x1xf32>\n  %873 = \"tfl.div\"(%870, %872) <{fused_activation_function = \"NONE\"}> : (tensor<1x64x64xf32>, tensor<1x64x1xf32>) -> tensor<1x64x64xf32>\n  %874 = \"tfl.cast\"(%873) : (tensor<1x64x64xf32>) -> tensor<1x64x64xf16>\n  %875 = \"tf.BatchMatMulV2\"(%874, %864) <{adj_x = false, adj_y = false, grad_x = false, grad_y = false}> {device = \"\"} : (tensor<1x64x64xf16>, tensor<1x64x256xf16>) -> tensor<1x64x256xf16>\n  %876 = \"tfl.cast\"(%875) : (tensor<1x64x256xf16>) -> tensor<1x64x256xf32>\n  %877 = \"tfl.fully_connected\"(%876, %2, %3) <{fused_activation_function = \"RELU\", keep_num_dims = true, weights_format = \"DEFAULT\"}> : (tensor<1x64x256xf32>, tensor<256x256xf32>, none) -> tensor<1x64x256xf32>\n  %878 = \"tfl.add\"(%877, %865) <{fused_activation_function = \"NONE\"}> : (tensor<1x64x256xf32>, tensor<1x64x256xf32>) -> tensor<1x64x256xf32>\n  %879 = \"tfl.mean\"(%878, %263) <{keep_dims = true}> : (tensor<1x64x256xf32>, tensor<1xi32>) -> tensor<1x64x1xf32>\n  %880 = \"tfl.neg\"(%879) : (tensor<1x64x1xf32>) -> tensor<1x64x1xf32>\n  %881 = \"tfl.squared_difference\"(%878, %879) : (tensor<1x64x256xf32>, tensor<1x64x1xf32>) -> tensor<1x64x256xf32>\n  %882 = \"tfl.mean\"(%881, %263) <{keep_dims = true}> : (tensor<1x64x256xf32>, tensor<1xi32>) -> tensor<1x64x1xf32>\n  %883 = \"tfl.add\"(%882, %264) <{fused_activation_function = \"NONE\"}> : (tensor<1x64x1xf32>, tensor<f32>) -> tensor<1x64x1xf32>\n  %884 = \"tfl.rsqrt\"(%883) : (tensor<1x64x1xf32>) -> tensor<1x64x1xf32>\n  %885 = \"tfl.mul\"(%884, %14) <{fused_activation_function = \"NONE\"}> : (tensor<1x64x1xf32>, tensor<1x1x256xf32>) -> tensor<1x64x256xf32>\n  %886 = \"tfl.mul\"(%880, %885) <{fused_activation_function = \"NONE\"}> : (tensor<1x64x1xf32>, tensor<1x64x256xf32>) -> tensor<1x64x256xf32>\n  %887 = \"tfl.add\"(%886, %13) <{fused_activation_function = \"NONE\"}> : (tensor<1x64x256xf32>, tensor<1x1x256xf32>) -> tensor<1x64x256xf32>\n  %888 = \"tfl.mul\"(%878, %885) <{fused_activation_function = \"NONE\"}> : (tensor<1x64x256xf32>, tensor<1x64x256xf32>) -> tensor<1x64x256xf32>\n  %889 = \"tfl.add\"(%888, %887) <{fused_activation_function = \"NONE\"}> : (tensor<1x64x256xf32>, tensor<1x64x256xf32>) -> tensor<1x64x256xf32>\n  %890 = \"tfl.cast\"(%889) : (tensor<1x64x256xf32>) -> tensor<1x64x256xf16>\n  %891 = \"tfl.cast\"(%890) : (tensor<1x64x256xf16>) -> tensor<1x64x256xf32>\n  %892 = \"tf.BatchMatMulV2\"(%874, %890) <{adj_x = false, adj_y = false, grad_x = false, grad_y = false}> {device = \"\"} : (tensor<1x64x64xf16>, tensor<1x64x256xf16>) -> tensor<1x64x256xf16>\n  %893 = \"tfl.cast\"(%892) : (tensor<1x64x256xf16>) -> tensor<1x64x256xf32>\n  %894 = \"tfl.fully_connected\"(%893, %1, %3) <{fused_activation_function = \"RELU\", keep_num_dims = true, weights_format = \"DEFAULT\"}> : (tensor<1x64x256xf32>, tensor<256x256xf32>, none) -> tensor<1x64x256xf32>\n  %895 = \"tfl.add\"(%894, %891) <{fused_activation_function = \"NONE\"}> : (tensor<1x64x256xf32>, tensor<1x64x256xf32>) -> tensor<1x64x256xf32>\n  %896 = \"tfl.mean\"(%895, %263) <{keep_dims = true}> : (tensor<1x64x256xf32>, tensor<1xi32>) -> tensor<1x64x1xf32>\n  %897 = \"tfl.neg\"(%896) : (tensor<1x64x1xf32>) -> tensor<1x64x1xf32>\n  %898 = \"tfl.squared_difference\"(%895, %896) : (tensor<1x64x256xf32>, tensor<1x64x1xf32>) -> tensor<1x64x256xf32>\n  %899 = \"tfl.mean\"(%898, %263) <{keep_dims = true}> : (tensor<1x64x256xf32>, tensor<1xi32>) -> tensor<1x64x1xf32>\n  %900 = \"tfl.add\"(%899, %264) <{fused_activation_function = \"NONE\"}> : (tensor<1x64x1xf32>, tensor<f32>) -> tensor<1x64x1xf32>\n  %901 = \"tfl.rsqrt\"(%900) : (tensor<1x64x1xf32>) -> tensor<1x64x1xf32>\n  %902 = \"tfl.mul\"(%901, %12) <{fused_activation_function = \"NONE\"}> : (tensor<1x64x1xf32>, tensor<1x1x256xf32>) -> tensor<1x64x256xf32>\n  %903 = \"tfl.mul\"(%897, %902) <{fused_activation_function = \"NONE\"}> : (tensor<1x64x1xf32>, tensor<1x64x256xf32>) -> tensor<1x64x256xf32>\n  %904 = \"tfl.add\"(%903, %11) <{fused_activation_function = \"NONE\"}> : (tensor<1x64x256xf32>, tensor<1x1x256xf32>) -> tensor<1x64x256xf32>\n  %905 = \"tfl.mul\"(%895, %902) <{fused_activation_function = \"NONE\"}> : (tensor<1x64x256xf32>, tensor<1x64x256xf32>) -> tensor<1x64x256xf32>\n  %906 = \"tfl.add\"(%905, %904) <{fused_activation_function = \"NONE\"}> : (tensor<1x64x256xf32>, tensor<1x64x256xf32>) -> tensor<1x64x256xf32>\n  %907 = \"tfl.cast\"(%906) : (tensor<1x64x256xf32>) -> tensor<1x64x256xf16>\n  %908 = \"tf.ConcatV2\"(%864, %907, %272) {device = \"\"} : (tensor<1x64x256xf16>, tensor<1x64x256xf16>, tensor<i32>) -> tensor<1x64x512xf16>\n  %909 = \"tf.BatchMatMulV2\"(%908, %8) <{adj_x = false, adj_y = false, grad_x = false, grad_y = false}> {device = \"\"} : (tensor<1x64x512xf16>, tensor<512x1xf16>) -> tensor<1x64x1xf16>\n  %910 = \"tf.AddV2\"(%909, %9) {device = \"\"} : (tensor<1x64x1xf16>, tensor<1xf16>) -> tensor<1x64x1xf16>\n  %911 = \"tf.Tanh\"(%910) {device = \"\"} : (tensor<1x64x1xf16>) -> tensor<1x64x1xf16>\n  %912 = \"tf.Transpose\"(%911, %256) {device = \"\"} : (tensor<1x64x1xf16>, tensor<3xi32>) -> tensor<1x1x64xf16>\n  %913 = \"tf.Softmax\"(%912) {device = \"\"} : (tensor<1x1x64xf16>) -> tensor<1x1x64xf16>\n  %914 = \"tf.Transpose\"(%913, %256) {device = \"\"} : (tensor<1x1x64xf16>, tensor<3xi32>) -> tensor<1x64x1xf16>\n  %915 = \"tf.Mul\"(%908, %914) {device = \"\"} : (tensor<1x64x512xf16>, tensor<1x64x1xf16>) -> tensor<1x64x512xf16>\n  %916 = \"tf.Sum\"(%915, %262) <{keep_dims = false}> {device = \"\"} : (tensor<1x64x512xf16>, tensor<i32>) -> tensor<1x512xf16>\n  %917 = \"tf.ConcatV2\"(%916, %863, %272) {device = \"\"} : (tensor<1x512xf16>, tensor<1x256xf16>, tensor<i32>) -> tensor<1x768xf16>\n  %918 = \"tf.MatMul\"(%917, %5) <{grad_a = false, grad_b = false, transpose_a = false, transpose_b = true}> : (tensor<1x768xf16>, tensor<256x768xf16>) -> tensor<1x256xf16>\n  %919 = \"tf.BiasAdd\"(%918, %10) <{data_format = \"NHWC\"}> {device = \"\"} : (tensor<1x256xf16>, tensor<256xf16>) -> tensor<1x256xf16>\n  %920 = \"tf.Relu\"(%919) {device = \"\"} : (tensor<1x256xf16>) -> tensor<1x256xf16>\n  %921 = \"tfl.cast\"(%920) : (tensor<1x256xf16>) -> tensor<1x256xf32>\n  %922 = \"tfl.fully_connected\"(%921, %4, %0) <{fused_activation_function = \"NONE\", keep_num_dims = false, weights_format = \"DEFAULT\"}> : (tensor<1x256xf32>, tensor<1x256xf32>, tensor<1xf32>) -> tensor<1x1xf32>\n  %923 = \"tfl.logistic\"(%922) : (tensor<1x1xf32>) -> tensor<1x1xf32>\n  \"func.return\"(%923) : (tensor<1x1xf32>) -> ()\n}) {tf.entry_function = {control_outputs = \"\", inputs = \"input\", outputs = \"Identity\"}} : () -> ()\n\n"
}
